294-李世杰/第十三周作业-lora微调bert/model_output/epoch_10.pth (torch, 328318 bytes, 14 tensors)

base_model.model.bert.encoder.layer.0.attention.self.query.lora_A.default.weight f4 [8, 768]
0.00783387 0.13406222 0.0031334262 -0.016713474 -0.072976775 -0.06841604 -0.014872553 -0.02006846
-0.06921538 0.029893085 0.003403747 -0.010019532 0.008245773 -0.010732135 0.09676451 -0.010859721
0.025958423 0.028945092 0.06057194 0.067244604 -0.046493836 -0.08815587 0.0938786 -0.007820612
-0.049928576 0.07343235 0.011130104 -0.033194534 0.04440947 0.041372426 0.120833784 0.006694544
-0.024960533 -0.040084887 0.09634388 0.025454141 0.109379195 0.10309441 0.019313583 -0.004283697
0.100488216 -0.030378085 -0.013957411 0.03233189 0.091167554 -0.019052705 -0.09796029 0.07822603
0.093253046 0.07993337 0.0072258506 -0.04581724 0.023025429 0.06874918 0.0903045 -0.034189314
0.014940173 -0.032492444 -0.037571862 -0.08337738 -0.083546914 -0.03897868 -0.059020888 -0.08087966
-0.021062832 0.12570868 -0.037439834 -0.041887425 0.090390556 -0.019456118 0.005187116 -0.03660493
-0.10914227 0.17226785 0.03131938 0.012904243 0.0061500156 0.0822762 -0.032874748 0.06778168
0.03232881 -0.049682777 0.06355444 0.035335023 0.081453264 0.026581574 0.02896061 -0.00310859
-0.052254416 -0.12270205 -0.030411841 -0.019184116 -0.006592109 -0.056239724 -0.0046349075 0.08046443
0.04874464 -0.014526945 0.023015235 -0.04006189 -0.00051568216 0.06333859 -0.08982647 -0.008348493
0.05309663 0.078177996 -0.013970931 -0.012563415 0.0032862897 0.033797238 -0.023477016 -0.13522507
0.022926606 -0.075805634 -0.01788172 0.020901222 -0.07469972 -0.02395479 0.02500688 0.0715491
0.0421646 -0.0439197 -0.0600737 0.040055856 0.08862927 0.062998235 -0.036485177 0.0352678
-0.07754652 0.006443494 -0.10068923 -0.06417258 0.114681795 0.038873944 -0.09875279 0.016370792
-0.07728548 0.09666581 -0.10836649 0.16607751 0.0039228066 -0.027586026 0.16102973 0.033023383
0.024411317 -0.072762564 -0.028212449 0.120604105 0.048116315 0.007696216 0.06255139 -0.06466043
-0.034445543 -0.015649917 0.022706576 0.032542836 -0.029693967 -0.049695976 -0.058621418 -0.048669808
0.024802353 -0.053413045 0.03284733 -0.041306216 -0.08381363 0.06138982 0.03895958 0.04746912
0.041505005 -0.048118155 0.005480282 -0.049895182 -0.041889504 0.047421105 0.06068643 -0.035576396
0.020540569 -0.014448242 -0.027269801 0.11603071 -0.017840467 -0.06994054 -0.07010931 0.07950148
0.034576025 0.0076661925 0.029394489 0.1560198 -0.0779787 -0.0047072433 -0.06486415 0.016277773
-0.015983121 0.04618061 0.07381126 0.037752237 -0.041339662 0.028093124 -0.022374164 -0.017551864
0.021103226 -0.033198487 0.03516308 -0.0040145116 -0.056190263 -0.0616681 0.05335352 -0.0842087
0.07458028 -0.054688353 -0.06962543 -0.013069519 0.060541034 0.06362429 0.023151478 -0.0035512683
0.00026315544 -0.07605344 0.088991016 0.025675623 -0.05647625 0.0069020265 -0.10033472 -0.16258086
-0.076052025 0.016575897 0.019403964 0.12684135 -0.09981013 0.044084568 0.017477011 0.033142164
0.040354505 -0.03526198 -0.0051920656 0.03496706 -0.029032756 -0.08931975 -0.041469328 0.04823068
-0.028867465 -0.004937089 -0.035287853 0.07898022 -0.03851175 -0.06663365 -0.051051173 -0.03939042
0.024557278 0.039817736 0.074071825 0.041173782 -0.030050963 0.016173864 0.08144137 0.03187532
00000000: a259 003c 9b47 093e 2b5a 4d3b b2ea 88bc
00000010: d974 95bd b51d 8cbd 02ac 73bc 9c66 a4bc
00000020: cbc0 8dbd 58e2 f43c 6611 5f3b f728 24bc
00000030: 4719 073c d6d5 2fbc 792c c63d f9ec 31bc
00000040: c2a6 d43c 421e ed3c 481a 783d 8ab7 893d
00000050: 5270 3ebd 118b b4bd 6c43 c03d 0622 00bc
00000060: e881 4cbd b363 963d 0a5b 363c fef6 07bd
00000070: b4e6 353d 2276 293d b477 f73d e85d db3b
00000080: 087a ccbc 0d30 24bd f14f c53d 3485 d03c
00000090: 3302 e03d 2923 d33d 8537 9e3c 415e 8cbb
000000a0: c4cc cd3d 76db f8bc a0ad 64bc 726e 043d
000000b0: 0eb6 ba3d 6b14 9cbc 689f c8bd f834 a03d
000000c0: 74fb be3d 1bb4 a33d d4c6 ec3b dcaa 3bbd
000000d0: d39f bc3c 5fcc 8c3d 91f1 b83d 180a 0cbd
000000e0: a1c7 743c cc16 05bd f4e4 19bd c3c1 aabd
000000f0: a51a abbd 1ca8 1fbd e3bf 71bd 3ca4 a5bd
00000100: f68b acbc c7b9 003e 835a 19bd 2692 2bbd
00000110: af1e b93d 7062 9fbc aff8 a93b 0def 15bd
00000120: fc85 dfbd fc66 303e c048 003d 516c 533c
00000130: 1286 c93b 6d80 a83d aca7 06bd 1fd1 8a3d
00000140: 376b 043d 2b80 4bbd d528 823d 75bb 103d
00000150: f8d0 a63d 9ac1 d93c cd3e ed3c 7cb9 4bbb
00000160: ba08 56bd 364b fbbd 4122 f9bc 0228 9dbc
00000170: 9e02 d8bb a05b 66bd 6ce0 97bb 89ca a43d
00000180: 76a8 473d 6c02 6ebc 728a bc3c f017 24bd
00000190: d82e 07ba aab7 813d f1f6 b7bd 1ec8 08bc
000001a0: da7b 593d c91b a03d 55e6 64bc c8d6 4dbc
000001b0: cb5e 573b f96e 0a3d df52 c0bc 7178 0abe
000001c0: 94d0 bb3c fc3f 9bbd af7c 92bc 0a39 ab3c
000001d0: 2bfc 98bd d63c c4bc 3adb cc3c 5688 923d
000001e0: cab4 2c3d 25e5 33bd d70f 76bd 9c11 243d
000001f0: 4383 b53d 3805 813d 7b71 15bd f874 103d
00000200: b6d0 9ebd f223 d33b 2836 cebd ea6c 83bd
00000210: 4ade ea3d 493a 1f3d e73e cabd 0a1c 863c
00000220: da47 9ebd b9f8 c53d 40ef ddbd 3910 2a3e
00000230: e38a 803b 17fc e1bc fae4 243e 8743 073d
00000240: 3efa c73c 8a04 95bd cb1d e7bc 49ff f63d
00000250: 9d15 453d 8a30 fc3b f11a 803d b06c 84bd
00000260: c516 0dbd 4134 80bc 2403 ba3c a34b 053d
00000270: c340 f3bc 028e 4bbd 031d 70bd fe59 47bd
00000280: 4e2e cb3c a3c7 5abd ec8a 063d b530 29bd
00000290: 7ba6 abbd e473 7b3d 1594 1f3d fb6e 423d
000002a0: 2701 2a3d 8b17 45bd f093 b33b e45e 4cbd
000002b0: 5494 2bbd a23c 423d 5692 783d 8eb8 11bd
000002c0: b244 a83c 52b8 6cbc eb64 dfbc 82a1 ed3d
000002d0: 2c26 92bc fc3c 8fbd 7895 8fbd acd1 a23d
000002e0: 979f 0d3d af34 fb3b b6cc f03c a8c3 1f3e
000002f0: 4cb3 9fbd 383f 9abb 7fd7 84bd f758 853c
00000300: 09ef 82bc e127 3d3d 5c2a 973d 17a2 1a3d
00000310: c753 29bd 8d23 e63c 064a b7bc edc8 8fbc
00000320: ace0 ac3c 23fb 07bd 2907 103d 2a8c 83bb
00000330: c327 66bd b197 7cbd 3889 5a3d 9c75 acbd
00000340: 8cbd 983d e500 60bd c797 8ebd 8921 56bc
00000350: e0f9 773d 744d 823d 2ba8 bd3c 65bc 68bb
00000360: 20f8 8939 e8c1 9bbd ec40 b63d af55 d23c
00000370: a453 67bd 652a e23b 4a7c cdbd 997b 26be
00000380: 2ac1 9bbd 2dca 873c 10f5 9e3c b3e2 013e
00000390: 4169 ccbd 0592 343d f32b 8f3c 14c0 073d
000003a0: c44a 253d de6e 10bd 3422 aabb 9f39 0f3d
000003b0: 1ad6 edbc 46ed b6bd bedb 29bd 898d 453d
000003c0: 767b ecbc 4ec7 a1bb ff89 10bd 62c0 a13d
000003d0: 7fbe 1dbd 3977 88bd 091b 51bd d957 21bd
000003e0: 582c c93c ec17 233d f8b2 973d d7a5 283d
000003f0: 702d f6bc 0d7f 843c bcca a63d b28f 023d

base_model.model.bert.encoder.layer.0.attention.self.query.lora_B.default.weight f4 [768, 8]
0.026497914 -0.007802268 0.054394454 -0.059138693 0.089329734 -0.02254923 -0.09904549 0.055635888
-0.020635683 0.038454305 -0.08865786 0.08014712 -0.12289034 0.05630016 0.11474316 -0.09140713
-0.019969357 0.036364287 -0.02185064 0.04741821 -0.035027236 0.07822379 0.023142127 -0.04480421
0.0558907 0.033153705 0.06951372 -0.09807336 0.10665099 -0.033052575 -0.10246424 0.064299434
-0.055246722 -0.055354834 -0.050729066 0.046810057 -0.044716556 0.06658085 0.015000456 -0.05965398
-0.0407518 -0.03237462 -0.040965185 0.049344167 -0.08250255 0.008386806 0.083430044 -0.05372906
0.05770762 0.02892772 0.014854005 -0.03548463 0.02484434 -0.022349823 -0.0073290425 0.037276156
0.01769065 -0.028113537 0.054831315 -0.0571057 0.04141138 -0.06725997 -0.06237967 0.056039337
0.035001963 0.005872811 0.08179859 -0.07669575 0.09330091 -0.04065553 -0.104783006 0.08595385
0.030444125 -0.038785424 0.07486153 -0.08414667 0.08595005 -0.0340176 -0.097904876 0.05634507
-0.05180239 -0.022023963 -0.06350017 0.0895266 -0.10339117 0.014096786 0.11214553 -0.06501267
0.057318557 0.057038274 0.05523961 -0.070116386 0.12884271 -0.011545189 -0.11434433 0.087401725
0.00031815597 -0.0054852534 0.03260399 -0.095328875 0.020084262 -0.021613872 -0.033493254 0.019952256
0.07218861 0.06783184 -0.009935374 -0.041014772 -0.0030752942 0.036577027 0.02193332 -0.026008971
-0.016254991 0.04584394 -0.018569274 0.01741614 -0.029361015 0.086481765 0.027807241 -0.033070926
-0.052711606 -0.07304133 0.03720048 0.005994621 0.048657663 -0.034716994 -0.088068515 0.014223871
0.02824888 0.013914981 0.047207583 -0.07202333 0.034168467 0.01948398 -0.044934038 0.01890465
-0.05239777 -0.02091005 0.01729688 0.020716578 -0.016710304 0.01737341 -0.008447452 -0.025829155
-0.044025376 0.022291578 -0.05902024 0.08853845 -0.10906152 0.03665128 0.10667004 -0.065799356
0.021759568 0.010140468 0.050868247 -0.033048898 -0.032778047 0.033853285 0.019211164 -0.044977643
0.005919668 0.06895612 -0.053844154 0.06305259 -0.09349342 0.04007194 0.11106806 -0.051609132
-0.01329907 0.0058324626 -0.038024794 0.071784414 -0.080116294 0.033336263 0.08480454 -0.06507395
-0.03319615 -0.059047285 -0.018392144 0.009458742 0.030907417 -0.041986763 -0.030830739 0.04347141
-0.08924721 -0.12430664 -0.10650376 0.10335771 -0.08254685 -0.013817914 0.08668519 -0.044636954
-0.035591517 0.020416642 -0.08907498 0.085569285 -0.095435075 0.040733267 0.0858976 -0.06566962
-0.056941215 -0.03405294 -0.08900951 0.09763721 -0.12614603 0.023552071 0.11215156 -0.08873903
-0.014749357 0.02988888 -0.062320758 0.08369872 -0.10619676 0.0193264 0.12170384 -0.06257709
0.020060325 0.040623326 0.021037105 0.025922738 -0.018258465 -0.0320397 0.050120458 0.035046656
-0.0035285028 -0.010126244 -0.05331806 0.030089956 -0.06801155 -0.013772096 0.06494832 -0.03996208
-0.05480231 -0.058382593 0.0020050337 0.057848785 0.03300653 -0.025561124 -0.03767696 -0.00088398426
-0.045414884 -0.072890155 0.022269122 -0.0077095674 0.036145702 -0.06687509 -0.024945147 0.039054975
-0.08697593 -0.08507977 -0.055715065 0.07877105 -0.048955675 -0.008720271 0.040543135 -0.0604734
00000000: 2712 d93c 2baa ffbb b8cc 5e3d 6a3b 72bd
00000010: 82f2 b63d 2ab9 b8bc 5dd8 cabd 75e2 633d
00000020: 2a0c a9bc 4382 1d3d 4192 b5bd 2c24 a43d
00000030: eead fbbd ff9a 663d 76fe ea3d a933 bbbd
00000040: c796 a3bc b8f2 143d 1d00 b3bc 9939 423d
00000050: b878 0fbd cb33 a03d 8f94 bd3c 9f84 37bd
00000060: a6ed 643d 2ecc 073d 365d 8e3d b0da c8bd
00000070: d66b da3d 2362 07bd c5d8 d1bd 6caf 833d
00000080: 634a 62bd c0bb 62bd 48c9 4fbd e7bb 3f3d
00000090: b528 37bd 8a5b 883d 79c4 753c bb57 74bd
000000a0: 5ceb 26bd 409b 04bd 1ccb 27bd 1c1d 4a3d
000000b0: 19f7 a8bd d068 093c 5fdd aa3d 0113 5cbd
000000c0: d35e 6c3d d3f9 ec3c 365e 733c 5558 11bd
000000d0: 5b86 cb3c fa16 b7bc 7728 f0bb e2ae 183d
000000e0: fbeb 903c 5c4e e6bc cd96 603d abe7 69bd
000000f0: fb9e 293d 98bf 89bd d381 7fbd 8189 653d
00000100: 385e 0f3d b670 c03b 0586 a73d a912 9dbd
00000110: 8c14 bf3d 6a86 26bd 7998 d6bd 9208 b03d
00000120: f565 f93c 77dd 1ebd 0051 993d 1755 acbd
00000130: 9406 b03d 0a56 0bbd 5a82 c8bd 17ca 663d
00000140: be2e 54bd 996b b4bc 610c 82bd b959 b73d
00000150: c0be d3bd 35f6 663c 8eac e53d 5d25 85bd
00000160: ddc6 6a3d f7a0 693d ee42 623d 2e99 8fbd
00000170: 58ef 033e 0828 3dbc 5c2d eabd adff b23d
00000180: 2cce a639 a4bd b3bb c38b 053d c93b c3bd
00000190: c087 a43c 930f b1bc 3930 09bd ea72 a33c
000001a0: 9fd7 933d 6beb 8a3d fbc7 22bc 1bff 27bd
000001b0: e08a 49bb cbd1 153d 82ad b33c c410 d5bc
000001c0: 3029 85bc dbc6 3b3d 971e 98bc 4bac 8e3c
000001d0: 8386 f0bc 5a1d b13d 03cc e33c 6175 07bd
000001e0: 20e8 57bd b196 95bd 885f 183d 876e c43b
000001f0: 424d 473d 6833 0ebd 445d b4bd 3d0b 693c
00000200: 326a e73c a9fb 633c bd5c 413d f880 93bd
00000210: 3cf4 0b3d de9c 9f3c c10c 38bd eddd 9a3c
00000220: 0b9f 56bd 8e4b abbc 30b2 8d3c d0b5 a93c
00000230: 0ce4 88bc ae52 8e3c 2f67 0abc aa97 d3bc
00000240: f453 34bd d49c b63c 35bf 71bd a653 b53d
00000250: a55b dfbd a71f 163d d275 da3d d0c1 86bd
00000260: 1f41 b23c 3524 263c 395b 503d 485e 07bd
00000270: 4642 06bd bea9 0a3d bb60 9d3c 7a3a 38bd
00000280: c6f9 c13b de38 8d3d b08b 5cbd b721 813d
00000290: 7a79 bfbd 7922 243d a777 e33d 1964 53bd
000002a0: 58e4 59bc 3e1e bf3b e3bf 1bbd b503 933d
000002b0: 0314 a4bd 9b8b 083d 01ae ad3d 7e45 85bd
000002c0: b0f8 07bd 91db 71bd 1fab 96bc d7f8 1a3c
000002d0: 8d31 fd3c 50fa 2bbd bf90 fcbc 140f 323d
000002e0: 3ec7 b6bd 7b94 febd a51e dabd 35ad d33d
000002f0: 530e a9bd 8864 62bc 0188 b13d 3dd5 36bd
00000300: 69c8 11bd cd40 a73c f16c b6bd f33e af3d
00000310: 7773 c3bd edd7 263d 15eb af3d cb7d 86bd
00000320: 313b 69bd 187b 0bbd 9e4a b6bd 04f6 c73d
00000330: 6d2c 01be 46f0 c03c b8af e53d cfbc b5bd
00000340: 49a7 71bc 86d9 f43c 0d44 7fbd 3c6a ab3d
00000350: b07d d9bd 6652 9e3c dd3f f93d 6b28 80bd
00000360: 8d55 a43c a564 263d 0256 ac3c ec5b d43c
00000370: c792 95bc 0f3c 03bd 1c4b 4d3d 158d 0f3d
00000380: 743e 67bb 8ce8 25bc 0a64 5abd 367f f63c
00000390: a449 8bbd 5ba4 61bc a003 853d 47af 23bd
000003a0: 6378 60bd 9622 6fbd e266 033b d9f2 6c3d
000003b0: db31 073d 9065 d1bc 2853 1abd 2ebb 67ba
000003c0: f504 3abd 6f47 95bd bc6d b63c 8aa0 fcbb
000003d0: 840d 143d cff5 88bd c459 ccbc 1cf8 1f3d
000003e0: 7020 b2bd 4d3e aebd 7b35 64bd b752 a13d
000003f0: bf85 48bd 78df 0ebc 8f10 263d f5b2 77bd

base_model.model.bert.encoder.layer.0.attention.self.key.lora_A.default.weight f4 [8, 768]
-0.08940905 -0.1110265 0.10065774 -0.09734327 -0.053048797 -0.026245913 -0.019671516 0.08479508
-0.12957433 0.05510138 -0.0888448 0.002186358 -0.089695916 0.0257379 0.11619448 0.022306846
-0.014279121 0.057556607 0.037227713 -0.01105248 0.01826336 -0.09882454 0.088853285 0.04133536
0.05191997 -0.050710645 -0.0011150307 0.0081502665 -0.033576753 -0.023032656 0.044528734 -0.03838563
-0.017151155 -0.072888955 0.058442134 0.041625988 -0.045396216 0.03865806 -0.10361286 -0.024516169
0.028230337 -0.007483204 0.065412745 0.014458482 0.10089165 -0.07323361 -0.013276642 0.09493607
-0.002682433 -0.0024114265 0.09266003 -0.035775833 -0.03334634 -0.05160212 0.09653778 -9.083236e-05
-0.020334318 -0.09072051 0.11230691 0.029145569 0.038892448 0.001979978 -0.059646495 0.046471715
0.04552708 0.10444615 -0.07804002 0.071217515 -0.014568721 0.014780125 -0.009097465 0.027972853
-0.028594235 -0.058547102 -0.044605337 -0.0661608 -0.031492654 0.008570943 -0.020002175 0.053155664
0.123978905 -0.054934468 -3.8832542e-05 -0.08118199 0.06456497 -0.13655221 0.075106554 -0.10929731
0.05134135 -0.037741356 0.018191738 -0.10387105 -0.06533376 0.0026605825 -0.0404465 0.046874598
0.008895903 0.11741611 -0.022158328 0.018226963 0.09951493 0.027295465 -0.019450989 0.010475563
-0.030115904 -0.010186956 0.023275148 0.0014431002 0.060736086 -0.035021886 0.04217277 -0.018292133
-0.030088045 0.04860885 -0.057986263 -0.071187675 -0.0546856 0.04050602 -0.07114459 -0.042841583
0.04850973 -0.051827304 -0.029596817 0.11584285 -0.03575572 0.04443288 -0.06275571 -0.08728382
-0.04065711 0.07282134 -0.040193964 0.014661984 0.13178314 0.01326659 -0.019770715 0.016447777
-0.0120959245 0.05810224 0.028139964 0.09627307 -0.03795773 0.01831779 -0.034395497 0.03762436
0.002622513 -0.020735191 0.06460431 0.02336195 -0.010176714 -0.059753917 0.04428577 0.06822084
0.09406057 -0.013692841 0.068468265 -0.029061493 -0.00026912335 -0.026716525 -0.037069056 -0.11662587
0.0054976786 -0.019606639 -0.062675394 -0.06645169 -0.0036539212 -0.1269221 0.024722194 0.077838205
-0.045666277 -0.037129004 0.10094074 -0.02274117 -0.052060287 -0.0032431423 0.02185297 -0.04492293
-0.017658707 -0.008425522 -0.06508879 -0.019274693 0.031740185 0.012126978 -0.0056639374 0.11048558
0.055482738 0.0090226 0.10716479 0.07548998 -0.07093187 -0.03222011 -0.03084111 -0.06089545
0.06979736 0.041602056 0.121444784 -0.067922644 -0.036929384 0.019740151 0.015050562 -0.094682164
0.01282692 0.013099814 0.015298409 -0.003089117 -7.3717514e-05 0.06782437 0.014616838 -0.13439354
0.077521175 -0.057279892 -0.060301512 -0.003244092 -0.14209186 0.06691822 0.046137318 -0.02348006
0.034878455 0.04309561 0.0648397 -0.01652613 -0.0499017 0.062012903 -0.03174929 0.09793615
0.07851732 0.06261422 0.02931497 0.053372588 0.021467997 -0.026408605 0.06864986 -0.066347115
0.0126801655 -0.07004115 0.052579302 -2.6588095e-05 -0.051621243 -0.014132552 -0.009583396 0.017359966
-0.009127779 -0.07984128 -0.100191295 0.10528444 -0.02932766 -0.002699797 -0.017284848 -0.025262946
-0.13504955 -0.009058678 0.11843508 0.07703781 -0.0042106505 -0.06834016 0.05189257 -0.057009377
00000000: 181c b7bd dd61 e3bd a525 ce3d e95b c7bd
00000010: b249 59bd ab01 d7bc 2926 a1bc 0ba9 ad3d
00000020: 22af 04be fcb1 613d 43f4 b5bd 0049 0f3b
00000030: 7eb2 b7bd 4ad8 d23c 5ff7 ed3d d9bc b63c
00000040: f9f2 69bc 7ac0 6b3d 167c 183d 7615 35bc
00000050: 0b9d 953c 8564 cabd b6f8 b53d 444f 293d
00000060: 09aa 543d f7b5 4fbd 3926 92ba b288 053c
00000070: c787 09bd fbae bcbc c363 363d 403a 1dbd
00000080: 9480 8cbc ce46 95bd 0561 6f3d 0380 2a3d
00000090: 62f1 39bd ea57 1e3d fb32 d4bd 22d6 c8bc
000000a0: 4f43 e73c aa35 f5bb 1ef7 853d 45e3 6c3c
000000b0: 48a0 ce3d 81fb 95bd 4686 59bc d86d c23d
000000c0: c2cb 2fbb 0609 1ebb 8bc4 bd3d ae89 12bd
000000d0: 2c96 08bd bf5c 53bd 99b5 c53d 407d beb8
000000e0: 2894 a6bc adcb b9bd 2a01 e63d b0c2 ee3c
000000f0: b04d 1f3d 85c2 013b e24f 74bd 2059 3e3d
00000100: 9a7a 3a3d dde7 d53d 72d3 9fbd 7dda 913d
00000110: a5b1 6ebc 5628 723c 890d 15bc 5327 e53c
00000120: 753e eabc 16cf 6fbd 16b4 36bd 507f 87bd
00000130: 71fe 00bd 246d 0c3c 9adb a3bc c1b9 593d
00000140: a7e8 fd3d f702 61bd 20e0 22b8 be42 a6bd
00000150: a43a 843d 58d4 0bbe 77d1 993d 45d7 dfbd
00000160: 4f4b 523d ae96 1abd d706 953c 58ba d4bd
00000170: b5cd 85bd 2b5d 2e3b 3bab 25bd 94ff 3f3d
00000180: 1fc0 113c dc77 f03d 6285 b5bc b650 953c
00000190: 7cce cb3d bd9a df3c ae57 9fbc b2a1 2b3c
000001a0: a1b5 f6bc 31e7 26bc 86ab be3c 6826 bd3a
000001b0: 67c6 783d 1c73 0fbd 5bbd 2c3d 62d9 95bc
000001c0: 347b f6bc 131a 473d 0183 6dbd d8ca 91bd
000001d0: 02fe 5fbd a4e9 253d 41b4 91bd a87a 2fbd
000001e0: 23b2 463d de48 54bd 0675 f2bc 043f ed3d
000001f0: 9774 12bd 40ff 353d 1186 80bd dcc1 b2bd
00000200: 1288 26bd 5b23 953d 6da2 24bd d138 703c
00000210: 29f2 063e 1d5c 593c 32f6 a1bc 7dbd 863c
00000220: fc2d 46bc 9dfc 6d3d c885 e63c d12a c53d
00000230: 9179 1bbd 310f 963c 4be2 0cbd 001c 1a3d
00000240: 78de 2b3b d9dc a9bc 444f 843d 8f61 bf3c
00000250: 3bbc 26bc 86c0 74bd ff64 353d 5eb7 8b3d
00000260: d4a2 c03d f057 60bc 1739 8c3d 5e12 eebc
00000270: 2019 8db9 9ddc dabc b9d5 17bd 8bd9 eebd
00000280: df25 b43b 1a9e a0bc f55b 80bd d317 88bd
00000290: a076 6fbb def7 01be 3386 ca3c a369 9f3d
000002a0: 900c 3bbd 9514 18bd 05ba ce3d b14b babc
000002b0: 2b3d 55bd e68a 54bb 0005 b33c 1b01 38bd
000002c0: fea8 90bc 330b 0abc 464d 85bd f6e5 9dbc
000002d0: ff01 023d 3bb0 463c 8d98 b9bb 4446 e23d
000002e0: de41 633d 87d3 133c 3779 db3d 7e9a 9a3d
000002f0: ba44 91bd 3cf9 03bd 7fa6 fcbc 826d 79bd
00000300: ebf1 8e3d eb66 2a3d 0bb8 f83d 071b 8bbd
00000310: 4443 17bd 19b6 a13c a296 763c b9e8 c1bd
00000320: 0028 523c 9aa0 563c 2ea6 7a3c c872 4abb
00000330: ca98 9ab8 81e7 8a3d 767b 6f3c 769e 09be
00000340: 6cc3 9e3d 529e 6abd b8fe 76bd d59a 54bb
00000350: 8780 11be 6b0c 893d 7cfa 3c3d 4159 c0bc
00000360: b6dc 0e3d 0685 303d adca 843d ce61 87bc
00000370: ba65 4cbd 3e01 7e3d 8b0b 02bd c092 c83d
00000380: b0cd a03d e23b 803d f325 f03c 379d 5a3d
00000390: a7dd af3c dc56 d8bc 4c98 8c3d ffe0 87bd
000003a0: 78c0 4f3c bc71 8fbd 655d 573d 8009 dfb7
000003b0: cc70 53bd 388c 67bc ad03 1dbc 7d36 8e3c
000003c0: ae8c 15bc d383 a3bd 1831 cdbd 5e9f d73d
000003d0: 9040 f0bc 14ef 30bb f498 8dbc 3df4 cebc
000003e0: 6e4a 0abe d96a 14bc 178e f23d 00c6 9d3d
000003f0: 7ff9 89bb edf5 8bbd 4e8d 543d aa82 69bd

base_model.model.bert.encoder.layer.0.attention.self.key.lora_B.default.weight f4 [768, 8]
0.02388187 -0.018054858 -0.040787566 0.04440598 0.04156416 0.052457936 0.024794677 -0.043016665
-0.030501612 0.016982341 0.029222276 -0.030666946 -0.023536377 -0.070868716 -0.026106942 0.042813454
-0.004984771 -0.042955607 -0.025798842 0.020800501 0.029382562 -0.013722494 -0.007955929 0.024727533
0.07362378 -0.062136076 -0.06713237 0.06450605 0.06154892 0.032620627 0.07238062 -0.07620345
-0.004390275 -0.018581636 0.015763272 -0.022521732 -0.015234539 0.003191751 -0.013306713 0.022800032
-0.07191839 0.066315144 0.06415964 -0.08431934 -0.0501302 -0.011803651 -0.06778958 0.07240817
-0.016040286 0.042844832 0.025586538 -0.017278528 -0.022731856 0.0037166069 -0.0077965176 0.008151345
-0.0017402051 0.021715255 0.0053728675 0.0030313563 0.00025607392 -0.0016506447 0.005917139 0.011345334
0.06676276 -0.04699527 -0.07232022 0.08028322 0.06874628 0.08144409 0.092451304 -0.09097765
0.13272798 -0.015848054 -0.07844491 0.098958194 0.07043185 0.11759965 0.13903134 -0.11659622
-0.070312954 0.032102536 0.065513395 -0.06969846 -0.066084854 -0.10452487 -0.07900273 0.0540841
0.07388742 -0.054262154 -0.06450337 0.05750956 0.061270464 0.024316153 0.072245464 -0.069909744
-0.007129057 0.07205793 0.0053350963 0.0058313785 -0.0038490905 0.011295398 0.0068965186 0.020361697
0.054018594 -0.006087172 -0.02365617 0.02064167 0.02097049 -0.008165438 0.018519014 -0.041237082
0.0024380535 -0.045990214 -0.01618739 0.0024080938 0.015513775 -0.003092438 -0.0054038623 0.010989279
0.085361145 -0.02459786 -0.0040511256 0.011463705 -0.003166095 0.024068939 0.032735232 -0.06844651
0.05542178 -0.036719482 -0.07577754 0.07524 0.08551359 0.04787705 0.06808493 -0.031423777
-0.007595906 -0.0064419047 0.024610346 -0.02701214 -0.014593679 0.020887248 -0.005744337 0.050881337
-0.079149775 0.054176163 0.059292555 -0.0622933 -0.055065114 -0.039954673 -0.08535712 0.0879591
0.018867075 0.08520926 -0.004206552 0.0127220955 0.00065680593 0.07495659 0.035843715 -0.04829029
-0.09368242 0.024650922 0.05481794 -0.06553336 -0.049404617 -0.051791567 -0.09831286 0.087857746
-0.013693338 0.009138021 0.011419059 -0.01709966 -0.005953984 0.004140124 -0.01465747 0.028468467
-0.03074126 0.025944697 0.037494786 -0.043460276 -0.04821694 0.007424509 -0.042427834 0.01959533
-0.026951231 -0.0039582276 0.06750464 -0.07720508 -0.06775997 -0.018844213 -0.06879179 0.06557235
-0.047980104 -0.031584904 0.025012512 -0.061501082 -0.01595807 -0.10124357 -0.049444295 0.03811584
-0.07554421 0.038171504 0.067116454 -0.071164876 -0.057523888 -0.04673746 -0.078086756 0.07363111
-0.09482712 0.007956037 0.115820676 -0.13372855 -0.11179367 -0.109995425 -0.12696262 0.11979968
-0.0040781023 0.05674613 -0.017950276 0.012385556 -0.0012677007 -0.0007301136 -0.004983371 0.0010100228
-0.035344947 0.060971715 0.049864847 -0.06911494 -0.05080644 -0.019595329 -0.035916552 0.056469984
0.015417734 -0.017457727 0.009613621 -0.0134165175 -0.020277988 0.029496416 -0.0021402529 -0.014254762
0.015494492 0.04168543 0.023333699 -0.014996955 -0.023784393 -0.014912139 0.012627779 -0.029397137
0.0047879163 -0.025202643 0.017417004 -0.018585898 -0.019032706 0.0013979645 -0.00926365 -0.008035926
00000000: e9a3 c33c c8e7 93bc dd10 27bd 0be3 353d
00000010: 2e3f 2a3d 22de 563d 351e cb3c 3e32 30bd
00000020: 84de f9bc 8d1e 8b3c 8e63 ef3c 3f39 fbbc
00000030: 5ccf c0bc 9e23 91bd 3ade d5bc 295d 2f3d
00000040: 4a57 a3bb 38f2 2fbd 1858 d3bc d065 aa3c
00000050: b3b3 f03c 50d4 60bc 9659 02bc 6591 ca3c
00000060: 10c8 963d 6682 7ebd b27c 89bd bf1b 843d
00000070: b81a 7c3d 359d 053d 4a3c 943d 8e10 9cbd
00000080: 4cdc 8fbb 8438 98bc fa21 813c 7f7f b8bc
00000090: 4a9a 79bc b22c 513b 6604 5abc 22c7 ba3c
000000a0: f349 93bd 3cd0 873d 2166 833d 9eaf acbd
000000b0: 5355 4dbd 1a64 41bc 43d5 8abd bc4a 943d
000000c0: eb66 83bc 107e 2f3d dc9a d13c b38b 8dbc
000000d0: 2838 babc 5192 733b ee79 ffbb 388d 053c
000000e0: 9817 e4ba 31e4 b13c e10e b03b b8a9 463b
000000f0: a941 8639 725a d8ba 8fe4 c13b c8e1 393c
00000100: eaba 883d 1d7e 40bd a01c 94bd 876b a43d
00000110: daca 8c3d 29cc a63d 1c57 bd3d 7d52 babd
00000120: d8e9 073e c7d3 81bc baa7 a0bd 98aa ca3d
00000130: 933e 903d 16d8 f03d 3b5e 0e3e 00ca eebd
00000140: 3d00 90bd f37d 033d e32b 863d 11be 8ebd
00000150: 7f57 87bd 2311 d6bd 2fcc a1bd 4a87 5d3d
00000160: 4a52 973d fe41 5ebd 581a 84bd 258f 6b3d
00000170: bdf6 7a3d ab32 c73c 6ef5 933d d72c 8fbd
00000180: dd9a e9bb 1c93 933d 08d2 ae3b 2615 bf3b
00000190: 0641 7cbb 5510 393c 31fc e13b 93cd a63c
000001a0: 9a42 5d3d e676 c7bb 96ca c1bc b818 a93c
000001b0: 4eca ab3c 54c8 05bc 30b5 973c 37e8 28bd
000001c0: c0c7 1f3b 3c60 3cbd 6b9b 84bc 1cd1 1d3b
000001d0: 7d2d 7e3c 80aa 4abb e212 b1bb 600c 343c
000001e0: d3d1 ae3d 7481 c9bc 4ebf 84bb 44d2 3b3c
000001f0: 427e 4fbb 392c c53c 6115 063d af2d 8cbd
00000200: f301 633d 2b67 16bd 4131 9bbd 6e17 9a3d
00000210: c021 af3d ba1a 443d 1d70 8b3d 38b6 00bd
00000220: 14e7 f8bb 9d16 d3bb a39b c93c 9048 ddbc
00000230: 541a 6fbc bc1b ab3c fe3a bcbb f368 503d
00000240: 4719 a2bd d3e7 5d3d c0dc 723d 4227 7fbd
00000250: f58b 61bd 83a7 23bd b7cf aebd e723 b43d
00000260: 208f 9a3c 3182 ae3d 1ed7 89bb 5670 503c
00000270: 802d 2c3a d782 993d dcd0 123d 0acc 45bd
00000280: 92dc bfbd bbf0 c93c c788 603d 5b36 86bd
00000290: 7f5c 4abd 6523 54bd 4158 c9bd c3ee b33d
000002a0: 065a 60bc a3b7 153c 0117 3b3c 9614 8cbc
000002b0: a319 c3bb e1a9 873b e325 70bc b436 e93c
000002c0: 18d5 fbbc f989 d43c 2294 193d 6703 32bd
000002d0: 207f 45bd 4c49 f33b cfc8 2dbd 6386 a03c
000002e0: d4c8 dcbc 05b4 81bb df3f 8a3d b21d 9ebd
000002f0: bdc5 8abd 2e5f 9abc b6e2 8cbd cc4a 863d
00000300: c986 44bd 2c5f 01bd 0ae7 cc3c 8fe8 7bbd
00000310: 80ba 82bc ca58 cfbd 1a86 4abd 5b1f 1c3d
00000320: ecb6 9abd b959 1c3d 5a74 893d e4be 91bd
00000330: 2b9e 6bbd c76f 3fbd f3eb 9fbd e8cb 963d
00000340: b934 c2bd 0a5a 023c 6433 ed3d 23f0 08be
00000350: 14f4 e4bd 4845 e1bd 7d02 02be 8959 f53d
00000360: 9aa1 85bb a16e 683d 750c 93bc c9ec 4a3c
00000370: fa28 a6ba 1865 3fba 8c4b a3bb be62 843a
00000380: ddc5 10bd 7abd 793d 153f 4c3d 228c 8dbd
00000390: 6a1a 50bd 6286 a0bc 3c1d 13bd 124d 673d
000003a0: aa9a 7c3c 8203 8fbc 7382 1d3c f4d0 5bbc
000003b0: 061e a6bc 78a2 f13c 7c43 0cbb ce8c 69bc
000003c0: 9cdc 7d3c 57be 2a3d 5026 bf3c cab5 75bc
000003d0: 7dd7 c2bc 0b52 74bc bee4 4e3c 44d2 f0bc
000003e0: f4e3 9c3b c675 cebc 1bae 8e3c 7441 98bc
000003f0: 7aea 9bbc e83b b73a 90c6 17bc 1ea9 03bc

base_model.model.bert.encoder.layer.0.attention.self.value.lora_A.default.weight f4 [8, 768]
0.046242207 0.04421755 -0.029960286 0.060907397 0.07238299 0.010202345 0.087024935 -0.08710173
0.05413148 -0.053014893 0.13849933 0.037919212 0.070623316 -0.066805206 -0.042958926 0.01793291
-0.008373281 -0.090750515 -0.052044764 -0.07630583 0.05344503 0.036402937 -0.06945001 0.031769216
0.061200723 -0.043661043 0.03598847 0.02568953 0.010674197 0.08378182 -0.06060302 0.04184721
-0.060283758 -0.046080276 -0.069157206 -0.022357542 0.009211327 -0.0007303166 0.019868536 0.08531026
0.07615818 0.034459874 -0.065402515 -0.063708015 -0.027561879 0.034383256 0.054974627 -0.025780331
-0.091298915 -0.05891144 -0.044016756 0.07227996 -0.08284889 0.07465391 -0.025716098 -0.04816977
-0.06740097 0.034675986 0.0006802629 -0.06041336 0.028961532 0.10697551 0.046693113 -0.0067639295
-0.015485218 -0.05263395 0.030126236 -0.035116725 0.07614914 -0.045509364 0.039614834 -0.03424814
0.044094086 -0.0045909956 0.07256935 0.050859902 0.07948124 0.08516642 0.057597704 -0.06802296
-0.08982902 0.0791403 -0.037693415 0.07658182 -0.04299403 0.11709564 -0.039540663 0.07865159
-0.027168367 0.011744896 0.051197436 0.06906721 0.07718885 0.012885893 0.08366119 -0.105354995
-0.058816172 -0.079186685 0.042994045 0.04130185 -0.064641915 -0.06571953 0.0470502 0.06708904
0.027747683 0.022928255 -0.00222602 0.030199356 -0.07297844 0.08943574 0.06923468 0.065062314
0.05332936 -0.042794473 0.013836966 0.0290915 -0.053414956 0.09304692 0.072991334 0.0441808
-0.044336475 0.07137676 0.043624274 -0.06138374 -0.0060747247 -0.016443672 0.09820631 0.07906368
0.0670929 -0.053233467 0.033925552 0.044562705 -0.06023999 0.07706764 0.01820298 -0.08485673
0.02905641 -0.0846614 -0.05061433 0.07344989 0.030521015 -0.01837586 0.07708139 -0.06855896
-0.10330138 0.0665973 -0.08096408 0.077125825 -0.06752174 0.007983722 -0.035237674 -0.055404376
-0.06365615 -0.061439883 0.016990783 0.09595759 -0.015393386 -0.026587442 0.068489864 0.03313294
0.025970124 0.059611823 -0.060311045 -0.015236786 0.07215132 0.089859314 -0.040868483 -0.03531071
0.0466565 -0.036504466 -0.05896628 0.046291556 0.056247104 -0.077466086 -0.03374692 -0.018559815
-0.02304037 0.078784324 0.006908783 0.012904616 -0.013471886 -0.018010374 -0.058366083 -0.033974826
-0.02355401 -0.054681703 -0.017037705 -0.029572079 0.07277571 0.0064729154 -0.03138518 0.071466185
-0.01621661 -0.090637945 -0.053170215 0.05107111 0.0076413825 -0.008436847 0.006465165 0.09476346
-0.035675634 -0.08789323 -0.019141367 -0.053892765 0.049638055 -0.07336994 0.048195373 0.050829373
-0.02343074 0.020228092 0.047421973 -0.040455725 0.04408129 -0.04715029 -0.028672952 0.013084107
0.059777524 0.004321323 -0.0754282 -0.018526841 0.03968124 -0.095948726 0.0070890477 -0.09502529
0.029251268 0.17603645 -0.08373832 -0.06779434 -0.0014876779 0.08721003 -0.0916945 0.03487026
0.09971256 -0.00305023 -0.03302403 -0.029029462 -0.03165883 -0.020246046 0.04452935 -0.08267787
-0.030344376 0.020858593 0.04598099 -0.04823197 0.034219652 0.07197165 0.054282565 0.107856244
0.08453677 0.029437913 -0.00447478 -0.051061433 -0.0036843026 0.040490795 0.059450906 -0.07442573
00000000: 7868 3d3d 761d 353d 466f f5bc 097a 793d
00000010: 883d 943d bd27 273c 213a b23d 6462 b2bd
00000020: f9b8 5d3d 2526 59bd c5d2 0d3e 2d51 1b3d
00000030: f5a2 903d 2bd1 88bd b3f5 2fbd 0ae8 923c
00000040: 1630 09bc 68db b9bd e42c 55bd 3b46 9cbd
00000050: 2de9 5a3d 3f1b 153d cf3b 8ebd 7020 023d
00000060: 9cad 7a3d ecd5 32bd a568 133d d972 d23c
00000070: d4e2 2e3c ce95 ab3d df3a 78bd fb67 2b3d
00000080: 1aec 76bd acbe 3cbd 4ba2 8dbd 2a27 b7bc
00000090: 1beb 163c b872 3fba 57c3 a23c 25b7 ae3d
000000a0: d2f8 9b3d cc25 0d3d c1f1 85bd 5979 82bd
000000b0: 73c9 e1bc 75d5 0c3d 132d 613d 4631 d3bc
000000c0: edfa babd 1f4d 71bd ea4a 34bd 8407 943d
000000d0: aeac a9bd 26e4 983d 91aa d2bc aa4d 45bd
000000e0: 8509 8abd 6808 0e3d ac53 323a 0074 77bd
000000f0: bc40 ed3c fa15 db3d 4741 3f3d f4a3 ddbb
00000100: b6b5 7dbc b296 57bd 4ccb f63c 8ed6 0fbd
00000110: 15f4 9b3d 0768 3abd 2a43 223d c747 0cbd
00000120: 009c 343d 1070 96bb 3d9f 943d 7952 503d
00000130: 0fc7 a23d bb6b ae3d 92eb 6b3d 9f4f 8bbd
00000140: 47f8 b7bd 4f14 a23d 6964 1abd eed6 9c3d
00000150: 821a 30bd d7cf ef3d 64f5 21bd 1614 a13d
00000160: 3290 debc aa6d 403c 67b4 513d 1c73 8d3d
00000170: 3015 9e3d 5a1f 533c 8f56 ab3d 5cc4 d7bd
00000180: 3ae9 70bd a12c a2bd 861a 303d 212c 293d
00000190: fb62 84bd f697 86bd b6b7 403d fb65 893d
000001a0: 1c4f e33c 09d4 bb3c 6be2 11bb a464 f73c
000001b0: b875 95bd 162a b73d e9ca 8d3d 643f 853d
000001c0: e36f 5a3d 4249 2fbd 71b4 623c 4c51 ee3c
000001d0: a4c9 5abd 628f be3d 7b7c 953d edf6 343d
000001e0: 2a9a 35bd fb2d 923d 5eaf 323d 846d 7bbd
000001f0: 7c0e c7bb e1b4 86bc 6420 c93d 23ec a13d
00000200: 0168 893d 560b 5abd 85f5 0a3d 6287 363d
00000210: 35be 76bd a4d5 9d3d 6a1e 953c 5ec9 adbd
00000220: b507 ee3c f562 adbd f950 4fbd e56c 963d
00000230: 3507 fa3c f988 96bc d9dc 9d3d a468 8cbd
00000240: ad8f d3bd 2a64 883d 7fd0 a5bd 25f4 9d3d
00000250: d748 8abd 28ce 023c 6155 10bd b3ef 62bd
00000260: 285e 82bd 63a8 7bbd 4130 8b3c 6a85 c43d
00000270: 8a34 7cbc e8cd d9bc 6a44 8c3d 68b6 073d
00000280: 4cbf d43c 872b 743d b708 77bd b6a3 79bc
00000290: 12c4 933d 2908 b83d b665 27bd f7a1 10bd
000002a0: e31a 3f3d b585 15bd a086 71bd 379c 3d3d
000002b0: 5d63 663d 8aa6 9ebd 363a 0abd c10a 98bc
000002c0: 28bf bcbc ad59 a13d 1363 e23b e26d 533c
000002d0: 2fb9 5cbc 7e8a 93bc 4611 6fbd 3029 0bbd
000002e0: 57f4 c0bc ecf9 5fbd a892 8bbc 2541 f2bc
000002f0: 6e0b 953d c01a d43b bf8d 00bd dd5c 923d
00000300: b2d8 84bc 63a0 b9bd 03c9 59bd f12f 513d
00000310: 9064 fa3b b33a 0abc bcd9 d33b 5813 c23d
00000320: 9d20 12bd 5e01 b4bd 5bce 9cbc a9be 5cbd
00000330: 4651 4b3d fb42 96bd 8368 453d 7632 503d
00000340: d3f1 bfbc 62b5 a53c 8b3d 423d e7b4 25bd
00000350: 958e 343d aa20 41bd 8ae3 eabc b95e 563c
00000360: 47d9 743d e299 8d3b 1a7a 9abd 9ac5 97bc
00000370: cc88 223d c480 c4bd 3e4b e83b 9f9c c2bd
00000380: 5ba0 ef3c e642 343e ff7e abbd c2d7 8abd
00000390: 30fe c2ba 2c9b b23d 53ca bbbd 1ed4 0e3d
000003a0: 1936 cc3d 5ee6 47bb 3544 07bd 32cf edbc
000003b0: b0ac 01bd 09db a5bc 6864 363d 0453 a9bd
000003c0: c594 f8bc a4df aa3c 9056 3c3d e38e 45bd
000003d0: e829 0c3d df65 933d 6557 5e3d bce3 dc3d
000003e0: 9d21 ad3d c727 f13c 2da1 92bb cb25 51bd
000003f0: 5774 71bb add9 253d cb82 733d 846c 98bd

base_model.model.bert.encoder.layer.0.attention.self.value.lora_B.default.weight f4 [768, 8]
-0.012035616 -0.012121043 -0.008466769 0.010993309 0.01078051 -0.010558615 0.01278643 -0.012314682
0.008232505 0.008112285 0.009332628 -0.008933565 -0.007588043 0.009078697 -0.0073799826 0.009431214
0.005080003 0.005079771 0.0007479458 -0.0030564829 -0.0011180309 0.0029221657 -0.0027527458 0.007433303
-0.07182271 -0.07126838 -0.07265146 0.07387998 0.073786534 -0.0737769 0.07389099 -0.07141839
-0.047264274 -0.048166316 -0.053449236 0.046650574 0.05182485 -0.048991688 0.048975643 -0.047845695
0.021927143 0.020597931 0.016857725 -0.017228188 -0.018598083 0.018157149 -0.018988464 0.021247923
0.052035395 0.055864595 0.048596628 -0.053489592 -0.04816411 0.05115481 -0.054048598 0.056622718
0.06921375 0.067756146 0.06726976 -0.064355955 -0.06435934 0.06444897 -0.06625704 0.067563504
-0.0053113652 -0.0050332216 -0.0042333035 0.0040677246 0.005314907 -0.0044065583 0.0050674877 -0.004414857
0.05383376 0.05272502 0.05531006 -0.036843352 -0.0522058 0.044872418 -0.047043648 0.0550555
0.046952877 0.04246271 0.042171154 -0.03787797 -0.042534426 0.04082173 -0.039952546 0.04443704
-0.074647464 -0.07152203 -0.06823052 0.06711642 0.071460724 -0.07010593 0.0734308 -0.072627336
-0.0002370023 -0.024366112 -0.023041468 -0.0057319324 -0.009796884 0.0064619035 -0.010013411 -0.0039172354
-0.009129711 -0.009064437 -0.010881729 0.008712627 0.011511447 -0.009412889 0.010232252 -0.008339457
-0.08052415 -0.07974812 -0.07612363 0.078892626 0.07759712 -0.07792128 0.080416694 -0.07915578
0.09352131 0.096021734 0.09000637 -0.09965793 -0.098311566 0.09859694 -0.098528504 0.09555776
0.004109776 0.0291437 0.025520183 -0.03248272 -0.0060456945 0.009046817 -0.03218198 0.028254593
0.006890252 0.006519099 0.03396458 -0.028223773 -0.028607927 0.029775582 -0.027317015 0.03034586
0.00027955367 0.0017525281 0.00027395086 0.027647804 0.029600855 -0.02727604 0.027671205 0.002589474
-0.01883258 -0.018644957 -0.03085258 0.013125422 0.026066082 -0.01802856 0.020636942 -0.016485233
-0.030572286 -0.027995678 -0.036170892 0.023027327 0.030518128 -0.027386278 0.026859438 -0.0277291
0.024868619 0.026075326 0.023868585 -0.026667899 -0.022488402 0.023239357 -0.026798705 0.023936532
0.050997473 0.05088968 0.048368376 -0.055109475 -0.052580304 0.053362608 -0.0545296 0.050196007
-0.04301703 -0.04616291 -0.047169987 0.052343763 0.05277893 -0.051134814 0.053054053 -0.044757277
0.08634837 0.08910282 0.08719958 -0.09314151 -0.08944643 0.091065235 -0.0902799 0.08898205
-0.059695937 -0.065923624 -0.09230211 0.0894892 0.06809335 -0.06809349 0.08889734 -0.085317954
0.03175509 0.027265754 0.02143156 -0.017439716 -0.015512792 0.018791333 -0.01803421 0.029142577
0.034437384 0.03422622 0.03455364 -0.03560345 -0.033537295 0.035304934 -0.033781484 0.03533448
0.07362138 0.07224009 0.07532623 -0.074838065 -0.07341162 0.07425321 -0.07669802 0.07434356
0.006819509 0.0057508503 0.0028493344 -0.0036824744 -0.0015228114 0.0035114447 -0.0035205004 0.007336104
0.02383884 0.015503327 0.03339996 -0.02041591 -0.023878533 0.017969137 -0.0224567 -0.0072477125
0.08579697 0.0841238 0.037984546 -0.080986015 -0.07414088 0.07930844 -0.08156453 0.0852536
00000000: 0831 45bc 5797 46bc 34b8 0abc 481d 343c
00000010: bca0 303c 0bfe 2cbc 2d7e 513c 85c3 49bc
00000020: a1e1 063c 64e9 043c e1e7 183c 165e 12bc
00000030: 1ea5 f8bb d1be 143c c8d3 f1bb 6185 1a3c
00000040: 2776 a63b 3574 a63b cb11 443a 464f 48bb
00000050: e48a 92ba ce81 3f3b 6967 34bb 1193 f33b
00000060: c917 93bd 28f5 91bd 4aca 94bd 634e 973d
00000070: 651d 973d 5818 97bd 2954 973d ce43 92bd
00000080: 2f98 41bd 0b4a 45bd 96ed 5abd ac14 3f3d
00000090: 4b46 543d 82ab 48bd af9a 483d d9f9 43bd
000000a0: 8da0 b33c febc a83c 3619 8a3c 2122 8dbc
000000b0: 025b 98bc 4dbe 943c b28d 9bbc 2010 ae3c
000000c0: 1123 553d 46d2 643d 420d 473d e717 5bbd
000000d0: bb47 45bd b587 513d 1062 5dbd 39ed 673d
000000e0: f0bf 8d3d bcc3 8a3d bac4 893d 0ecd 83bd
000000f0: d4ce 83bd d2fd 833d c5b1 87bd bc5e 8a3d
00000100: f60a aebb b9ed a4bb 86b7 8abb 8c4a 853b
00000110: ac28 ae3b e464 90bb 2b0d a63b 81aa 90bb
00000120: ca80 5c3d 31f6 573d cd8c 623d 0ee9 16bd
00000130: c0d5 55bd 24cc 373d d7b0 40bd e081 613d
00000140: a951 403d 61ed 2d3d a9bb 2c3d ee25 1bbd
00000150: 9438 2ebd b034 273d 48a5 23bd 9d03 363d
00000160: c5e0 98bd 247a 92bd 71bc 8bbd 5574 893d
00000170: 005a 923d b393 8fbd e362 963d a4bd 94bd
00000180: d283 78b9 719b c7bc 76c1 bcbc efd2 bbbb
00000190: 1c83 20bc 60be d33b 4a0f 24bc 275c 80bb
000001a0: c994 15bc 0183 14bc 4849 32bc 68bf 0e3c
000001b0: 829a 3c3c 8538 1abc 2da5 273c 38a2 08bc
000001c0: d8e9 a4bd fb52 a3bd b5e6 9bbd 7592 a13d
000001d0: 3deb 9e3d 3195 9fbd 82b1 a43d 6d1c a2bd
000001e0: 1a88 bf3d 0ba7 c43d 4255 b83d 7519 ccbd
000001f0: 9357 c9bd 31ed c93d 50c9 c9bd c9b3 c33d
00000200: 4dab 863b c5be ee3c b40f d13c 9a0c 05bd
00000210: f61a c6bb 1a39 143c 40d1 03bd 2d76 e73c
00000220: a0c7 e13b 2b9e d53b 721e 0b3d 8b35 e7bc
00000230: 2c5b eabc eceb f33c efc7 dfbc e297 f83c
00000240: 0f91 9239 16b5 e53a 10a1 8f39 a67d e23c
00000250: 7e7d f23c 0072 dfbc b9ae e23c 2ab4 293b
00000260: c846 9abc 4fbd 98bc 8dbe fcbc 030c 573c
00000270: 8988 d53c a1b0 93bc ce0e a93c 0a0c 87bc
00000280: bb72 fabc 3157 e5bc ee27 14bd cea3 bc3c
00000290: 2701 fa3c 3059 e0bc 5308 dc3c 2328 e3bc
000002a0: 46b9 cb3c ec9b d53c 0d88 c33c a376 dabc
000002b0: 9939 b8bc 7760 be3c f588 dbbc 8c16 c43c
000002c0: bae2 503d b271 503d eb1d 463d 79ba 61bd
000002d0: 725e 57bd c092 5a3d 6e5a 5fbd 549a 4d3d
000002e0: a032 30bd 5215 3dbd 5135 41bd 6a66 563d
000002f0: b82e 583d bd72 51bd 354f 593d 6853 37bd
00000300: 6ad7 b03d 8a7b b63d b295 b23d fac0 bebd
00000310: b12f b7bd 6980 ba3d abe4 b8bd 393c b63d
00000320: ba83 74bd f702 87bd e308 bdbd 1d46 b73d
00000330: 8774 8b3d 9a74 8bbd cf0f b63d 2ebb aebd
00000340: a011 023d 6e5c df3c 3d91 af3c bcdd 8ebc
00000350: 5e29 7ebc 48f0 993c 7bbc 93bc 6abc ee3c
00000360: 370e 0d3d cb30 0c3d 1e88 0d3d ecd4 11bd
00000370: 675e 09bd e89b 103d 745e 0abd e3ba 103d
00000380: cec6 963d 9df2 933d a344 9a3d b344 99bd
00000390: d558 96bd 1112 983d da13 9dbd 7041 983d
000003a0: 3076 df3b a171 bc3b e6bb 3a3b ab55 71bb
000003b0: 1299 c7ba 4420 663b 32b8 66bb b363 f03b
000003c0: ac49 c33c ab01 7e3c 65ce 083d 443f a7bc
000003d0: ea9c c3bc 0334 933c 1df7 b7bc 387e edbb
000003e0: 52b6 af3d 1949 ac3d af95 1b3d ffdb a5bd
000003f0: 2cd7 97bd 776c a23d 4e0b a7bd 7099 ae3d

base_model.model.bert.encoder.layer.1.attention.self.query.lora_A.default.weight f4 [8, 768]
-0.067383185 -0.034979116 -0.0020196852 -0.031569667 0.047738735 0.07631842 -0.07603525 -0.012566083
0.0655526 -0.058202207 -0.11085908 0.011536199 -0.045807835 -0.017572677 -0.010050602 0.050286695
-0.0241065 0.015888905 0.0047239466 0.019735565 0.060661554 0.06337231 -0.03484299 0.07983224
0.0053483658 0.057844676 0.001903706 -0.024995742 0.04537584 -0.0584842 -0.003542227 0.0067821536
0.07856337 0.047835313 0.02018965 0.014735827 0.016263345 -0.09716858 -0.06835792 0.0047666505
-0.014990567 -0.034189936 -0.0766667 0.016244683 0.00898682 -0.019139884 -0.0581664 -0.012448543
0.03732431 0.015369193 -0.057101153 0.019346716 0.03720097 0.08226002 0.0073853107 0.014812698
-0.017901236 0.049023915 0.0010231097 0.055553347 0.029996455 -0.036940627 -0.059048362 0.00878093
0.04583029 0.04214398 -0.059701268 -0.015886232 0.009837889 0.0013956903 -0.038999382 0.053271893
0.09579589 -0.080496244 -0.0051981825 -0.095525734 -0.031140257 -0.08082198 -0.033700008 -0.03834942
-0.023656704 0.068512425 0.080358915 0.045295823 -0.05343452 0.070922665 -0.031092176 0.01540327
-0.0009827438 0.085429 -0.0074543906 0.0021881778 0.039458003 0.022687878 -0.03432833 0.0026979146
0.030478794 -0.04686767 0.021292664 -0.09028036 0.0029557438 0.045145463 0.023328157 -0.03863872
0.027403276 -0.060440782 0.01769537 -0.060289554 -0.07106578 0.10440673 -0.07501248 0.049954765
0.026284881 -0.0070914347 -0.003133494 0.07479935 0.059611328 0.03681952 -0.026961053 -0.010639155
0.029101226 0.06706869 -0.049693856 0.009685208 0.0067184484 0.050059143 0.004520614 0.019669244
-0.05760239 -0.0012483204 0.0026200837 0.012132246 -0.053536806 -0.057728294 -0.013994767 -0.055414956
0.08500117 -0.067156285 -0.027749188 -0.03716947 -0.02936645 -0.031464253 -0.09401554 -0.008228367
0.08244875 0.028805785 -0.01792665 -0.006730967 0.01668327 -0.0028953124 0.05667413 0.051775936
0.037455026 -0.013004372 -0.013521729 0.0072114985 -0.023320515 0.052906923 -0.029727181 0.044107027
0.03900151 -0.0015847022 -0.010377883 -0.048497707 0.06509949 -0.091461524 -0.06591982 0.021393426
0.05225262 -0.0526316 -0.0018350658 0.03675521 0.0006877932 -0.07858823 0.026691979 0.035999045
-0.002984483 -0.024652025 0.020673104 -0.10088796 0.027216928 0.07837255 -0.015272786 0.004184531
-0.01209961 0.0018521863 0.06250634 0.023741247 -0.014261005 0.044551875 0.027262492 -0.042470347
0.007686778 0.00791058 -0.08193837 0.058499664 -0.013582114 0.057250835 0.029325502 0.06477881
0.101868995 0.020951854 -0.0053254655 0.056050297 0.008854179 -0.05732053 0.015297149 0.0100637525
0.035657097 0.022219542 0.035788305 -0.02469243 -0.0036375653 0.009193795 0.018464103 0.03001643
0.10841514 0.059086207 -0.018190065 -0.013217656 -0.07378784 0.005118205 0.050661348 0.099492766
-0.13985531 -0.020355541 -0.039283816 -0.00265129 -0.020539246 -0.10172899 -0.06933079 0.037265707
0.005417295 0.0077774744 -0.027160492 0.073975936 -0.03883142 0.027033074 0.07982725 0.0025535154
0.005202695 0.015111757 0.037012596 -0.051804963 0.026695563 -0.023390168 0.09014151 -0.034625627
0.08507243 -0.0661759 -0.0689208 -0.027719785 -0.078582406 -0.029814243 -0.07017969 -0.08617241
00000000: 3200 8abd 4346 0fbd b25c 04bb 324f 01bd
00000010: b189 433d d54c 9c3d 5fb8 9bbd f9e1 4dbc
00000020: 7140 863d 7065 6ebd 160a e3bd 5302 3d3c
00000030: ffa0 3bbd 93f4 8fbc 48ab 24bc 6cf9 4d3d
00000040: ff7a c5bc 7329 823c 56cb 9a3b 7bac a13c
00000050: 4078 783d 57c9 813d 86b7 0ebd 167f a33d
00000060: 5841 af3b 8aee 6c3d c685 f93a dfc3 ccbc
00000070: 04dc 393d 218d 6fbd b524 68bb d43c de3b
00000080: d5e5 a03d f6ee 433d c464 a53c 8a6e 713c
00000090: b53a 853c 5200 c7bd 3dff 8bbd 9031 9c3b
000000a0: ff9a 75bc bf0a 0cbd 6e03 9dbd 9213 853c
000000b0: 743d 133c 3fcb 9cbc e43f 6ebd f9f4 4bbc
000000c0: 60e1 183d 11cf 7b3c e6e2 69bd 017d 9e3c
000000d0: 0b60 183d f177 a83d 7a00 f23b f5b0 723c
000000e0: 9da5 92bc 4dcd 483d dd19 863a e88b 633d
000000f0: 20bb f53c 0e4f 17bd b2dc 71bd e4dd 0f3c
00000100: 8bb8 3b3d 2a9f 2c3d 5189 74bd d823 82bc
00000110: 192f 213c 98ef b63a d1bd 1fbd a133 5a3d
00000120: a330 c43d 37db a4bd 8455 aabb ffa2 c3bd
00000130: da19 ffbc ff85 a5bd 0509 0abd 4814 1dbd
00000140: b4cb c1bc 3e50 8c3d 3793 a43d 1d88 393d
00000150: 28de 5abd e73f 913d 05b5 febc ff5d 7c3c
00000160: 69cf 80ba 66f5 ae3d f643 f4bb 8867 0f3b
00000170: b79e 213d eedb b93c dd9b 0cbd 7fcf 303b
00000180: aaae f93c 50f8 3fbd f46d ae3c e9e4 b8bd
00000190: 27b5 413b 73ea 383d b11a bf3c a243 1ebd
000001a0: d67c e03c c190 77bd e1f5 903c 2ef2 76bd
000001b0: f08a 91bd 32d3 d53d 25a0 99bd 5e9d 4c3d
000001c0: 6453 d73c 445f e8bb 4e5b 4dbb 6730 993d
000001d0: 022b 743d 11d0 163d 6ddd dcbc da4f 2ebc
000001e0: b265 ee3c 4f5b 893d c98b 4bbd b5ae 1e3c
000001f0: 6e26 dc3b d10a 4d3d a921 943b 6521 a13c
00000200: 7cf0 6bbd af9e a3ba b6b5 2b3b 54c6 463c
00000210: 6949 5bbd 8174 6cbd 4f4a 65bc cbfa 62bd
00000220: 1815 ae3d 3c89 89bd 4452 e3bc 043f 18bd
00000230: e991 f0bc a9e0 00bd 388b c0bd 46d0 06bc
00000240: e4da a83d 1cfa eb3c e9da 92bc 728f dcbb
00000250: 5aab 883c 48bf 3dbb 2223 683d 0113 543d
00000260: 716a 193d 4a10 55bc 3e8a 5dbc 6f4e ec3b
00000270: aa0a bfbc eeb4 583d 6b86 f3bc 92a9 343d
00000280: 0cc0 1f3d c8b5 cfba ff07 2abc 88a5 46bd
00000290: e252 853d 2e50 bbbd f800 87bd 4441 af3c
000002a0: d806 563d 3c94 57bd 9786 f0ba a28c 163d
000002b0: 054d 343a def2 a0bd 23a9 da3c bc73 133d
000002c0: 5197 43bb 0bf3 c9bc a45a a93c 599e cebd
000002d0: 09f6 de3c ca81 a03d b53a 7abc 641e 893b
000002e0: 713d 46bc 0fc5 f23a 5303 803d 017d c23c
000002f0: fea6 69bc 077c 363d 9755 df3c 63f5 2dbd
00000300: 5ee1 fb3b 619b 013c 4ecf a7bd 589d 6f3d
00000310: 8487 5ebc da7f 6a3d 093c f03c c1aa 843d
00000320: b1a0 d03d 39a3 ab3c 3e81 aebb ff94 653d
00000330: 1e11 113c efc8 6abd e5a0 7a3c 70e2 243c
00000340: 2d0d 123d c205 b63c c296 123d c747 cabc
00000350: 3864 6ebb 92a1 163c 0842 973c 04e5 f53c
00000360: c208 de3d 6104 723d 5503 95bc de8e 58bc
00000370: 141e 97bd 9eb6 a73b 4682 4f3d ddc2 cb3d
00000380: 3b36 0fbe aac0 a6bc 11e8 20bd 44c1 2dbb
00000390: ec41 a8bc 4a57 d0bd 4dfd 8dbd eda3 183d
000003a0: 9083 b13b 2fda fe3b ae7f debc b280 973d
000003b0: b20d 1fbd 7774 dd3c 787c a33d e158 273b
000003c0: 5e7b aa3b 4e97 773c 859a 173d 7131 54bd
000003d0: a7b0 da3c bd9c bfbc 1d9c b83d 9ad3 0dbd
000003e0: 743a ae3d 3b87 87bd 5926 8dbd 9a14 e3bc
000003f0: d0ef a0bd 003d f4bc 5fba 8fbd 297b b0bd
