241冯义博/第二周作业/model.pt (torch, 1759 bytes, 4 tensors)

layer1.weight f4 [10, 3]
00000000: da15 6d3f bc2a 56bf 7767 86bf 1bd4 ecbe
00000010: fceb abbf c290 d93f 7117 823f 505f 40bf
00000020: 80b3 1abf 6041 6bbf c3a5 c43d 53e2 8d3f
00000030: 4d6d 9fbe 1434 8f3f e871 4bbf 64e1 d93f
00000040: d5c2 bfbf b58c 503f 717a e2bf bb90 e53f
00000050: 4cfb 7cbf d89c b3bf 1020 8f3f b4aa a83f
00000060: 3e64 f3be af4e 7c3d 5b7f 563f 6434 e03f
00000070: 98aa f43f b2b7 d9bf
0.9261147 -0.8365896 -1.0500325 -0.46255574 -1.3431392 1.6997302 1.0163404 -0.75145435
-0.60430145 -0.9189663 0.09601929 1.1084694 -0.31138077 1.1187768 -0.7947068 1.7021909
-1.4981333 0.814647 -1.7693616 1.7934793 -0.9882095 -1.403224 1.118166 1.3177094
-0.47537416 0.061598476 0.8378808 1.7515988 1.9114561 -1.7009184

layer1.bias f4 [10]
00000000: ffb5 c1be 2c03 14bf 2595 4fbe deb5 f0bd
00000010: aeb3 e6bd 6e77 493e c8d2 89be 4ee2 333e
00000020: b1f4 6fbe 2cf9 423d
-0.37834165 -0.5781734 -0.20271738 -0.117534384 -0.1126474 0.19674465 -0.26918626 0.17566797
-0.23433186 0.04760091

layer2.weight f4 [3, 10]
00000000: eab7 353f 1419 17be d73d 123f c6e3 66be
00000010: 2b36 883d 9e8b 183f 9b93 b1be 87bf 37bf
00000020: f70f bebd 04c4 c53e 8904 19be e46e c4be
00000030: 8735 5ebe bfc4 823d 92a7 073f 3f40 23bf
00000040: afc7 543f 15e1 0f3e 8199 ff3d 8946 f33e
00000050: 1ddd e4be f6b9 673f 3a94 0abe 0525 cc3e
00000060: bc63 92be 0438 8c3e cee8 49bd 4126 883e
00000070: 1aa1 823e 86e9 42bf
0.70983756 -0.1475566 0.5712561 -0.22547826 0.06650957 0.5958804 -0.34682927 -0.7177662
-0.09280389 0.3862611 -0.14943136 -0.38365853 -0.21700107 0.063851826 0.52990067 -0.63769907
0.83117193 0.14050706 0.124804504 0.47514752 -0.44699946 0.9051813 -0.13533106 0.39871994
-0.28591716 0.27386487 -0.049294285 0.26591685 0.25513536 -0.7613758

layer2.bias f4 [3]
00000000: 7dd8 f8bc 332d a0bc a29b 593e
-0.030376667 -0.019552803 0.21250775
