131-邱健达/pth/model3.pth (torch, 31643 bytes, 5 tensors)

embedding.weight f4 [28, 28]
0	0x3ece2a74	0.40266764
1	0x3fa0e6d3	1.2570442
2	0xbcaa53ea	-0.020791966
3	0x3f5eb0fd	0.8698881
4	0x3ecce894	0.40021193
5	0xbe93f962	-0.289012
6	0xbdcf3b95	-0.10118786
7	0xbf3055f1	-0.68881136
8	0xbf11f88c	-0.5701988
9	0x3df0f369	0.11765177
10	0xbf6edaa8	-0.9330239
11	0xbbd15e8a	-0.0063894438
12	0x3ffff371	1.9996167
13	0xbfa0c3bd	-1.2559735
14	0xbf2a5e46	-0.665501
15	0xbe861692	-0.26189095
16	0xbfb27135	-1.3940798
17	0xbe8500ed	-0.2597727
18	0x3f218d7b	0.6310651
19	0xbfc7ff26	-1.562474
20	0xbf756b55	-0.958669
21	0xbf101c97	-0.56293625
22	0xbfa3bf37	-1.2792729
23	0xbe88be21	-0.26707557
24	0xbf2cab53	-0.6744892
25	0xbe9bea01	-0.30451968
26	0xbe0010d1	-0.12506415
27	0xbea18303	-0.31545267
28	0x3ef080ca	0.46973258
29	0xbf41ca58	-0.7569938
30	0x3ea802b9	0.32814577
31	0x4016e6b0	2.35783
32	0xbfbfe984	-1.4993138
33	0x3ffe7bcc	1.988153
34	0x3fd49fb1	1.6611234
35	0x3fb07185	1.3784643
36	0x3fb658e8	1.4245882
37	0xbfabbec5	-1.3417593
38	0x3fb6f83f	1.4294509
39	0xbeca4834	-0.39508212
40	0x3e230d44	0.15923029
41	0x400d79bc	2.210555
42	0xbf411dba	-0.75435984
43	0x3f14c2b8	0.5810962
44	0xc034473a	-2.8168473
45	0x3d41a1fc	0.04727362
46	0xbbbdc729	-0.005791564
47	0x3f7df12c	0.99196124
48	0x3fa26e64	1.2689939
49	0xbfaf1f8f	-1.3681506
50	0x3f7490af	0.9553327
51	0x40123f91	2.2851298
52	0x3fec0f47	1.8442162
53	0x3e8c5f6e	0.27416557
54	0xbfd1f5c7	-1.640313
55	0xbfc563d7	-1.5421094
56	0x3e655bfb	0.22398369
57	0xbfaf6070	-1.3701305
58	0x3f955183	1.16655
59	0x3dc4902f	0.09597813
60	0xbfcc791e	-1.5974462
61	0xbee2d986	-0.44306582
62	0xbe4ecc0a	-0.20195022
63	0x3f869526	1.0514266
64	0xbf1a4a3d	-0.6026953
65	0xbf45f247	-0.7732281
66	0x3fa46fb4	1.2846589
67	0x3f22be06	0.635712
68	0x3ed5714a	0.41687995
69	0x3dbd9bb5	0.092582144
70	0x3e962359	0.29323843
71	0x3dadc2e6	0.084844396
72	0x3dfbc74a	0.12293871
73	0x3f4b8be4	0.7951033
74	0xbf46cf44	-0.7766001
75	0xbf2a0c69	-0.66425186
76	0x3fc37027	1.5268601
77	0x3eb95896	0.36200398
78	0xbf047c31	-0.51752
79	0xc00b8164	-2.1797724
80	0xbfa7645c	-1.3077502
81	0x3f7e75d7	0.9939856
82	0xbf818734	-1.0119386
83	0xbec4bf56	-0.38427228
84	0xbe84cbb7	-0.25936672
85	0xbfc95ee0	-1.5732079
86	0x3e7a8960	0.24466467
87	0xbfbd7b6b	-1.4803289
88	0x3ec34c9b	0.38144383
89	0xbe828453	-0.2549158
90	0x3fe26dc3	1.7689747
91	0x3eb29d5e	0.34885687
92	0xbf1162a5	-0.56791145
93	0x4020e242	2.5138097
94	0x3ec57b7f	0.38570783
95	0xbf9e196c	-1.2351508
96	0x3f353903	0.7079012
97	0x3e429f7e	0.19006154
98	0x3fc2833f	1.5196303
99	0xbef68817	-0.48150703
100	0xbd08dd48	-0.033414155
101	0x400242ea	2.035334
102	0x3e85b6b0	0.26115942
103	0x3d1ada8d	0.037806083
104	0x3e13ae64	0.14421993
105	0x3d883ba4	0.066520005
106	0x3f262cd7	0.6491217
107	0x3f28a9f6	0.6588434
108	0xbfabc138	-1.3418341
109	0xbfed1963	-1.8523372
110	0xbeb0c3ed	-0.3452448
111	0xbec09945	-0.37616935
112	0x3f3c367f	0.73520654
113	0xbeff4bc4	-0.49862492
114	0xbf65e190	-0.89797306
115	0x3e3aff7d	0.18261524
116	0x3fdbb7a0	1.7165413
117	0x3fbe301c	1.4858432
118	0x3df5a7c9	0.11994893
119	0x3f2fc64a	0.6866194
120	0xbe439b87	-0.19102298
121	0x3f879c78	1.0594625
122	0x3cb08d44	0.021551736
123	0x3f10af81	0.565178
124	0x3fcf420d	1.6192032
125	0xbf0b0989	-0.54311424
126	0xbe193a25	-0.14963587
127	0xbeeafc03	-0.45895395
128	0xbe15002c	-0.14550847
129	0x3f4cebc7	0.8004727
130	0xbe097fe9	-0.134277
131	0x3f122a3d	0.570957
132	0xbf577a16	-0.84170663
133	0xbf09417e	-0.5361556
134	0x3ef6429d	0.48097697
135	0xbfa5110c	-1.2895827
136	0xbeccca48	-0.39998078
137	0xbf4e21c1	-0.80520254
138	0xbf5807f8	-0.8438716
139	0xbfc2ef39	-1.5229255
140	0x3f4c1c14	0.79730344
141	0x3fbe5580	1.4869843
142	0xbfdf8663	-1.7462887
143	0x3f4fb791	0.81139475
144	0x3e0011c7	0.12506782
145	0x3d1c56e4	0.038168803
146	0xbf519970	-0.8187475
147	0x3f984078	1.1894674
148	0x3e6690d4	0.22516185
149	0xbe5a3907	-0.21310817
150	0xbf8d77da	-1.1052201
151	0xbf765df7	-0.9623713
152	0x3f070ea3	0.5275671
153	0x3f8acada	1.0843155
154	0xbe4e6a45	-0.20157726
155	0xbe93a41c	-0.28836143
156	0xbf526083	-0.82178515
157	0x3e7d4a93	0.24735479
158	0xbf143816	-0.5789808
159	0x3f85115b	1.0395921
160	0x3d83f5b2	0.06443347
161	0xbf357bb5	-0.70891887
162	0xbebe6ce5	-0.37192455
163	0xbf768695	-0.96299106
164	0xbf28d066	-0.6594299
165	0x3fa6c56a	1.3028996
166	0x3f0804d5	0.53132373
167	0xbf85573a	-1.0417244
168	0xbf193557	-0.59847015
169	0xbeb084ab	-0.34476218
170	0xbca940dd	-0.020660812
171	0xbf4c3ca3	-0.79780024
172	0xbf4ebf0c	-0.80760264
173	0x3e8e440b	0.27786288
174	0x3f58da46	0.8470806
175	0x3f4330de	0.7624644
176	0xbf71a65e	-0.9439448
177	0x3df3507a	0.11880584
178	0xc04b0bd9	-3.1725981
179	0xbff9fc0a	-1.9530041
180	0xbe9d3131	-0.30701593
181	0xbfabb1cf	-1.3413638
182	0x3f630fc4	0.8869593
183	0xbf10071d	-0.56260854
184	0x3cdd7e5c	0.027037792
185	0x3f6e6fa8	0.93139124
186	0xbf048af4	-0.51774526
187	0xbdcca153	-0.09991708
188	0x3ee92689	0.45537212
189	0x3f74e169	0.9565645
190	0xbf58002b	-0.84375256
191	0x3fd47dff	1.6600951
192	0x3efb6d36	0.4910676
193	0x3f4efb24	0.8085196
194	0xc00081ed	-2.00793
195	0xbf227ed0	-0.6347475
196	0x3f505ca5	0.81391364
197	0x3f17d455	0.5930837
198	0xbeedc84a	-0.4644187
199	0xbeb220f0	-0.34790754
200	0xbe106945	-0.14102657
201	0x3ea9d3d7	0.33169433
202	0xbfb16507	-1.3858956
203	0xbefbd3fb	-0.49185166
204	0x3e264e67	0.16240846
205	0x3ebd71eb	0.37000975
206	0x3f96a909	1.1770335
207	0xbff6868d	-1.9259812
208	0x3db6ef96	0.08932416
209	0x3f4b2d88	0.7936635
210	0x3f0ce673	0.5503914
211	0xbec70ed4	-0.388785
212	0x3f40bbc0	0.75286484
213	0xbf840b40	-1.0315933
214	0x4007703a	2.1162248
215	0xbf19c909	-0.6007238
216	0xbfe3e474	-1.7804093
217	0xc0054788	-2.082491
218	0xbf23a88b	-0.6392905
219	0x3e80ec87	0.25180456
220	0xc01d3aa7	-2.4567049
221	0x400446dd	2.0668252
222	0xbf6f3406	-0.93438756
223	0xbf9ea7bf	-1.2394942
224	0x3f50d70a	0.81578124
225	0x3ed7f6b6	0.42180413
226	0x3d7004c8	0.05859831
227	0x3e509223	0.20368247
228	0xc007af91	-2.1200907
229	0x3f0e52b8	0.5559497
230	0xbf83d75f	-1.0300101
231	0xbcf72f4d	-0.030173922
232	0x3ee6f5af	0.45109317
233	0xbd2781c3	-0.040895235
234	0xbe8964fd	-0.2683486
235	0xbffe5ec6	-1.9872673
236	0xbe351335	-0.17683108
237	0xbf3bd1fc	-0.73367286
238	0xbd865aa1	-0.06560255
239	0xbe5d7a37	-0.21628653
240	0x3eecf4c0	0.4628048
241	0x3f0577d6	0.5213598
242	0x3de3ab63	0.11116674
243	0x3f9330d9	1.1499282
244	0x3e33a909	0.1754495
245	0x3f14f5aa	0.58187354
246	0x401ad42f	2.4192007
247	0x3ec1f88f	0.37884948
248	0xbe47df51	-0.19518782
249	0xbecaa549	-0.39579228
250	0xbeb05f50	-0.34447718
251	0x3ea2f589	0.31827953
252	0xbf66a34a	-0.9009291
253	0x3ea33c73	0.31882057
254	0x3ff7bfde	1.9355428
255	0x3ff94b6e	1.9476144

linear.weight f4 [51, 51]
0	0xbf19acc5	-0.6002925
1	0xbd1ef804	-0.038810745
2	0xbe17ed66	-0.14836654
3	0x3c11013b	0.008850391
4	0x3c93b1b4	0.018029071
5	0x3e2cb182	0.16864589
6	0x3f69686e	0.9117497
7	0xbefede5b	-0.4977902
8	0xbcbf7ad9	-0.023374008
9	0x3f439291	0.7639552
10	0xbf8b99cb	-1.0906309
11	0x3e6e959f	0.23299263
12	0x3e7e3f8d	0.2482893
13	0x3e33f6e4	0.1757465
14	0xbc151d31	-0.009101198
15	0x3e620fde	0.22076365
16	0xbd51282d	-0.051063705
17	0x3eb62407	0.35574362
18	0xbdd8a05e	-0.105774626
19	0x3d92b21a	0.071628764
20	0xbe5303a5	-0.20606859
21	0xbf5b3888	-0.85633135
22	0xbe64b6b7	-0.22335325
23	0x3c41682b	0.011804621
24	0x3f9db600	1.2321167
25	0x3d2368ee	0.03989499
26	0xbe0d9d3e	-0.13829514
27	0x3f11e41f	0.5698871
28	0x3fa19282	1.2622836
29	0xbf307e15	-0.68942386
30	0x3e497050	0.1967175
31	0xbe241fc3	-0.16027741
32	0x3dcd274c	0.10017261
33	0xbd7d8623	-0.0618955
34	0xbda192fa	-0.07889362
35	0xbcfba789	-0.030719535
36	0x3eb67b02	0.35640723
37	0xbeb417c4	-0.35174382
38	0x3ec93be6	0.3930351
39	0xbe8dff1e	-0.277337
40	0x3f736218	0.95071554
41	0xbc5843ca	-0.013199756
42	0xbe9b999a	-0.30390626
43	0x3e1e4d51	0.15459181
44	0x3ec67369	0.38759926
45	0x3f13dc06	0.57757604
46	0x3e445051	0.19171263
47	0xbf683528	-0.9070611
48	0x3de8481d	0.113418795
49	0xbdc74d66	-0.097315595
50	0xbe0793ca	-0.13239971
51	0xbf0d9df4	-0.5531914
52	0xbe1fde69	-0.15612186
53	0xbd490b23	-0.049082886
54	0xbe959b63	-0.29220113
55	0xbd69a75d	-0.057044376
56	0x3d1d7f02	0.038451202
57	0x3e9fdc4d	0.31222764
58	0xbe73a85b	-0.23794691
59	0xbe6570d8	-0.22406328
60	0x3e5d0d0b	0.21587007
61	0xbe8c0827	-0.2734997
62	0xbc992334	-0.018693544
63	0x3ee1b405	0.44082657
64	0x3e233f9c	0.15942234
65	0x3d476f8f	0.048690375
66	0x3f0e77d5	0.556516
67	0x3da9831d	0.08276961
68	0x3f480b32	0.7814208
69	0xbe2bc385	-0.16773804
70	0x3d88dbd2	0.066825524
71	0xbf2bd7d5	-0.6712621
72	0xbf606ede	-0.8766917
73	0xbe6a9ade	-0.2291064
74	0x3e3b1e88	0.18273365
75	0xbfaaab3e	-1.3333509
76	0xbd9052fb	-0.07047077
77	0xbe8e185f	-0.2775297
78	0x3d205747	0.039145734
79	0x3eccc09b	0.39990696
80	0xbf113282	-0.56717694
81	0x3e76ff74	0.24120885
82	0x3e620ea8	0.22075903
83	0xbdeb8c8c	-0.115014166
84	0x3e3d5201	0.18488313
85	0xbda4cb4a	-0.08046587
86	0xbe367ec7	-0.17821799
87	0x3f207956	0.62685144
88	0xbeb34e7e	-0.35020822
89	0x3f9736fb	1.1813654
90	0x3e348975	0.1763056
91	0xbfa4580a	-1.2839367
92	0x3e307578	0.17232311
93	0x3dc86be5	0.09786204
94	0x3e1d2eeb	0.15349929
95	0x3f8b64ec	1.0890174
96	0x3e5b6924	0.21426827
97	0xbcd7fd5a	-0.026365925
98	0x3fa41629	1.2819263
99	0xbd18b9a7	-0.037286427
100	0xbeaa5ec4	-0.33275425
101	0xbc42117c	-0.011844989
102	0x3f40cbd8	0.7531104
103	0xbe964228	-0.29347348
104	0xbe403642	-0.18770698
105	0xbe983df4	-0.29734766
106	0xbe4aafd1	-0.19793631
107	0x3e9c2eb2	0.30504376
108	0x3e3f6806	0.18692026
109	0xbe494522	-0.19655278
110	0xbe17dc3a	-0.14830104
111	0x3de268cf	0.11055147
112	0xbdb32160	-0.087466
113	0x3c1b20a4	0.009468231
114	0x3fa3d1c8	1.2798395
115	0x3e20ab70	0.15690398
116	0x3d73c9c7	0.0595186
117	0x3f536ae5	0.82584983
118	0x3db5b28c	0.08871946
119	0xbee184a1	-0.440465
120	0xbe8162c2	-0.2527066
121	0xbe83ed78	-0.25767112
122	0xbf718af4	-0.9435265
123	0xbe1e0e19	-0.15435065
124	0xbdb56104	-0.08856395
125	0x3e4a3dad	0.1975009
126	0xbed8c8c9	-0.42340687
127	0xbe87662c	-0.26445138
128	0xbdb4f632	-0.088360205
129	0x3d429ef2	0.047514863
130	0xbd46810a	-0.048462905
131	0x3f89658f	1.0734118
132	0x3e84f8e6	0.25971144
133	0x3e8b127f	0.2716255
134	0xbd5b7b09	-0.053584132
135	0x3e46f8a8	0.19430792
136	0xbd3410ff	-0.04396152
137	0xbe6a4029	-0.22876038
138	0x3fa8dde9	1.3192722
139	0xbf3d2442	-0.7388345
140	0xbf147b84	-0.5800097
141	0x3f1cf0a9	0.6130472
142	0xbed77ad9	-0.42085913
143	0x3dc6f0da	0.097139075
144	0x3e20578f	0.15658401
145	0x3dac46fd	0.084119774
146	0xbf34230c	-0.7036598
147	0x3e95d95e	0.292674
148	0x3e43e258	0.19129312
149	0x3ef1028d	0.4707226
150	0x3e6a8414	0.22901946
151	0xbeafb26d	-0.34315816
152	0xbebb00c6	-0.36524028
153	0x3ec3b23a	0.38221914
154	0xbe263a14	-0.16233093
155	0xbe106e69	-0.14104618
156	0xbe5d2a25	-0.21598108
157	0xbe82841c	-0.25491416
158	0x3e921432	0.28531033
159	0x3e5e6d18	0.21721303
160	0xbd54fe96	-0.052000605
161	0xbe1f45d7	-0.15553986
162	0xbc51ca11	-0.012804524
163	0xbdc39304	-0.095495254
164	0x3e4c9e76	0.19982323
165	0xbf9cb7b0	-1.2243557
166	0x3e4ddc6b	0.20103614
167	0x3ea4ddc7	0.32200453
168	0x3f59af78	0.8503337
169	0x3e85fd50	0.26169825
170	0xbe6b6de5	-0.2299114
171	0xbdbed330	-0.093176246
172	0xbd91ea79	-0.071248
173	0x3f4cd55e	0.8001307
174	0xbd765949	-0.060143743
175	0xbe08905a	-0.13336316
176	0x3e80ae8f	0.25133178
177	0xbe3fe4e5	-0.1873966
178	0xbe2867cb	-0.16445844
179	0xbf23e2af	-0.64017767
180	0x3d98d7d2	0.074630395
181	0xbd1c3a7e	-0.03814172
182	0x3ecc5727	0.39910242
183	0x3ecec482	0.403843
184	0x3ebec5f7	0.3726041
185	0xbe1c108f	-0.15240692
186	0x3f1290dc	0.5725229
187	0xbe353514	-0.17696029
188	0xbe7a030d	-0.24415226
189	0xbec1b04a	-0.3782981
190	0xbf812fbf	-1.0092696
191	0xbe4645d3	-0.19362573
192	0x3f4fd395	0.81182224
193	0xbe4545ac	-0.19264859
194	0x3df492c2	0.11942054
195	0x3eb8d73b	0.36101708
196	0x3e55725d	0.20844407
197	0xbe994184	-0.29932797
198	0x3e4e61c1	0.20154478
199	0x3e51f225	0.20502527
200	0x3e1d42e3	0.15357547
201	0x3b9ee923	0.0048495694
202	0xbf9ea57c	-1.2394252
203	0xbef38273	-0.47560462
204	0x3e1b87e3	0.15188555
205	0xbe8b780e	-0.27240032
206	0xbebd0a12	-0.36921746
207	0x3dbf8292	0.09351076
208	0xbe9b896c	-0.30378282
209	0x3f8de5c8	1.1085749
210	0x3e9e22d8	0.3088596
211	0xbe1e2e71	-0.15447403
212	0xbecc8b21	-0.39949897
213	0x3e4e2e5c	0.20134872
214	0xbd3a009a	-0.04541073
215	0x3e919aad	0.2843832
216	0xbed0f584	-0.40812314
217	0x3dede0be	0.11615132
218	0x3de3e1bc	0.1112704
219	0xbfa98219	-1.3242828
220	0x3ea4006e	0.32031578
221	0xbe235b52	-0.15952805
222	0xbe3942fa	-0.18091956
223	0xbd757bef	-0.059932645
224	0x3ebc54aa	0.36783344
225	0xbe1e7547	-0.15474425
226	0xbed7908f	-0.42102477
227	0x3eef5ac4	0.46748936
228	0xbe43b1a7	-0.19110738
229	0xbebca976	-0.36848038
230	0xbf6b1167	-0.9182343
231	0x3e986e6d	0.29771748
232	0x3b929e8c	0.0044744667
233	0x3e86d657	0.26335403
234	0x3f0162c7	0.5054135
235	0x3e8599ba	0.26093847
236	0xbeb6d929	-0.35712555
237	0x3f8ae492	1.0851004
238	0xbe2b8eb3	-0.16753654
239	0xbe7bca5a	-0.2458891
240	0xbed32234	-0.41237032
241	0x3ed4e696	0.41582173
242	0x3db4e082	0.08831884
243	0x3f19be1a	0.60055697
244	0xbe8512ff	-0.25991055
245	0x3ee6b7a1	0.45061973
246	0x3ea27c69	0.31735542
247	0x3e41bcb8	0.18919647
248	0xbed68c25	-0.41903797
249	0x3d4602d6	0.04834255
250	0x3e01a3a2	0.12660077
251	0x3cc537ad	0.0240744
252	0xbe35d395	-0.17756493
253	0x3f358860	0.70911217
254	0xbe5a0f9b	-0.21295016
255	0x3e0856a9	0.13314308

linear.bias f4 [51]
0	0x3e23c018	0.15991247
1	0x3e76b639	0.2409295
2	0x3e835f56	0.25658673
3	0x3eaa2d32	0.33237606
4	0x3ea5119f	0.32240006
5	0x3e84eabf	0.25960347
6	0x3d800280	0.06250477
7	0x3dc1ecf3	0.094690226
8	0x3dc3b032	0.09555091
9	0x3c924953	0.01785723
10	0x3e001066	0.12506256
11	0x3e877adb	0.2646092
12	0x3c92240c	0.017839454
13	0x3916144e	0.00014312679
14	0xbd06bbfb	-0.032894116
15	0xbd508dd2	-0.0509165
16	0xbd963fd3	-0.07336392
17	0xbd7dec2f	-0.06199282
18	0xbd8b3dec	-0.0679892
19	0x3d05f298	0.03270206
20	0x3ce94b72	0.028478358
21	0xbc47497b	-0.012163515
22	0xbcc495af	-0.023997156
23	0xbe040e9a	-0.12896195
24	0xbdbb292e	-0.09138714
25	0xbe823a6f	-0.25435206
26	0x3d09ef4b	0.033675473
27	0xbd9b5482	-0.07584478
28	0xbe1d92af	-0.15387987
29	0xbe4af9a6	-0.19821796
30	0x3bfc55ee	0.0077006733
31	0xbd07118d	-0.032975722
32	0xbe53636e	-0.20643398
33	0xbe26e8bb	-0.16299717
34	0xbe3f093c	-0.18655866
35	0xbe501ccb	-0.20323484
36	0xbde93142	-0.11386348
37	0xbd23190a	-0.0398188
38	0xbcb35774	-0.021892287
39	0xbe57b303	-0.21064381
40	0xbe210b9c	-0.15727085
41	0xbe291b4c	-0.16514319
42	0xbe809710	-0.25115252
43	0xbe5bce49	-0.2146541
44	0xbe66adab	-0.22527187
45	0xbe27422e	-0.1633384
46	0xbea3e56b	-0.3201097
47	0xbefeb2e4	-0.49745858
48	0xbe9cb5d9	-0.3060749
49	0xbeef534d	-0.4674324
50	0xbd127a0d	-0.035760928

rnn.weight_ih_l0 f4 [51, 28]
0	0x3cfb27eb	0.030658683
1	0xbe46497a	-0.19363967
2	0xbc1b2827	-0.009470022
3	0x3de9704d	0.11398373
4	0xbe41bc67	-0.18919526
5	0x3dbf7e9b	0.0935032
6	0x3e52d6df	0.2058978
7	0xbdbcc99b	-0.09218141
8	0x3e64bdfa	0.22338095
9	0xbe94d024	-0.2906505
10	0x3d21aee1	0.03947342
11	0x3dccc4c3	0.09998467
12	0xbd595038	-0.05305502
13	0x3ea888c3	0.3291684
14	0xbdd6618a	-0.10467823
15	0x3d4bc9fd	0.049753178
16	0xbe84a9e3	-0.25910863
17	0xbd230ced	-0.03980725
18	0x3da16233	0.07880058
19	0x3db827c0	0.08991957
20	0x3de089f7	0.10963815
21	0xbe82e3ff	-0.25564572
22	0x3c04859d	0.0080884965
23	0x3e8a8372	0.2705341
24	0x3e2f660e	0.17128775
25	0xbe06de1b	-0.13170664
26	0xbd85c74c	-0.065321535
27	0xbe4cd241	-0.2000208
28	0x3d7adbce	0.06124478
29	0xbd3f2ec9	-0.046675477
30	0x3de41df8	0.111385286
31	0x3dc16c79	0.09444518
32	0xbdb7c916	-0.08973901
33	0x3e047714	0.1293605
34	0x3e34ca00	0.17655182
35	0xbd1cdbb2	-0.038295455
36	0x3d272b97	0.040813055
37	0xbda8e5a8	-0.082469285
38	0x3db70480	0.08936405
39	0x3d49311c	0.0491191
40	0x3d48fa10	0.049066603
41	0x3eb6440b	0.35598788
42	0xbdf3d068	-0.11904985
43	0x3daa504c	0.08316097
44	0xbe421ae5	-0.18955572
45	0x3da6a731	0.08137358
46	0x3d2e5ac4	0.04256703
47	0x3c701510	0.014653459
48	0x3d13373e	0.035941355
49	0xbe6d4699	-0.23171462
50	0xbd5fd8ca	-0.054650106
51	0x3e4c1b47	0.1993228
52	0x3e2d59e1	0.16928817
53	0x3ca2b4d3	0.019861614
54	0xbe29084d	-0.16507073
55	0xbd70dee1	-0.058806304
56	0xbd14aa50	-0.036295235
57	0x3dad67bf	0.084670536
58	0xbd261959	-0.040551517
59	0xbdfde078	-0.1239633
60	0x3e067f3a	0.1313447
61	0xbda542e6	-0.080694005
62	0xbdf9fd2f	-0.12206494
63	0xbd826bf0	-0.06368244
64	0xbe137a43	-0.14402108
65	0x3c0aa954	0.0084632225
66	0xbc71cc06	-0.014758116
67	0xbde0b607	-0.10972219
68	0xbd73e417	-0.059543695
69	0xbe020e6d	-0.12700815
70	0xbd0d01ee	-0.03442567
71	0xbad707be	-0.0016405506
72	0x3e35da04	0.17758948
73	0x3da1b2b3	0.07895412
74	0xbd154224	-0.03644003
75	0xbdb6b479	-0.08921141
76	0xbd99ab5c	-0.07503387
77	0x3dce3cac	0.10070166
78	0x3cd6b34f	0.026208548
79	0xbe2c37ed	-0.16818209
80	0xbda7a177	-0.08185094
81	0x3d696cb2	0.056988426
82	0x3dc9769b	0.09837075
83	0x3d84708e	0.064667806
84	0xbd62265e	-0.05521237
85	0x3d1ee501	0.038792614
86	0x3d649d7c	0.05581425
87	0x3c045f31	0.008079336
88	0xbd5ba2f2	-0.053622194
89	0x3d6a58d5	0.057213623
90	0x3dfd807c	0.12378022
91	0x3d4fe007	0.05075076
92	0x3dfda978	0.12385839
93	0xbd82b6ea	-0.06382544
94	0x3d08d352	0.033404656
95	0xbcf3edd7	-0.029776497
96	0x3b30d8df	0.0026984734
97	0x3e550c1c	0.208054
98	0xbb39cec7	-0.0028352009
99	0x3d824b65	0.063620366
100	0xbda084fb	-0.07837864
101	0xbd8a18a2	-0.067429796
102	0x3c80f83f	0.015743373
103	0x3c105bca	0.008810947
104	0x3cd2a098	0.025711343
105	0xbd9e86dd	-0.07740567
106	0xbcb1e4fe	-0.021715637
107	0x3dd44840	0.10365343
108	0x3d91423e	0.07092713
109	0xbd247d61	-0.040158633
110	0xbd99aa99	-0.07503242
111	0xbe07f5fd	-0.13277431
112	0xbcd9c423	-0.026582783
113	0x3d2ee560	0.042699218
114	0x3d4f4527	0.05060306
115	0xbc96f329	-0.018426495
116	0xbcfeae1e	-0.031088885
117	0x3cd2a88a	0.025715131
118	0xbc859eb2	-0.016311023
119	0xbb34db35	-0.0027596478
120	0xbcc1d7ba	-0.023662437
121	0x3bbe0a43	0.005799563
122	0xbb7a2464	-0.0038168663
123	0x3cc901e5	0.024537036
124	0x3d61f028	0.05516067
125	0x3df412fd	0.11917684
126	0x3d7d467f	0.06183481
127	0x3cacf4c6	0.02111281
128	0xbbbc8822	-0.005753533
129	0x3ca5d1ae	0.020241585
130	0xbcfd9cd8	-0.030958578
131	0xbd1b8a59	-0.037973735
132	0xbdacf968	-0.08446008
133	0xbca690b8	-0.02033268
134	0xbc1c14c0	-0.009526432
135	0xbd561eeb	-0.05227558
136	0x3d9945bd	0.07484005
137	0x3c898ee1	0.016791763
138	0xbd3d2264	-0.046175376
139	0xbd091502	-0.0334673
140	0x3d526ec2	0.051375158
141	0x3d9740c5	0.07385401
142	0x3dbb64d5	0.091500916
143	0x3e139f3e	0.14416215
144	0xbc327409	-0.010891923
145	0x3cb12493	0.021623885
146	0x3ceb82e5	0.028748939
147	0x3e25020c	0.16114062
148	0xbb735261	-0.003712796
149	0x3e5e3d25	0.21703012
150	0xbd373823	-0.04473127
151	0xbd031cee	-0.03201001
152	0x3d5c0319	0.05371389
153	0xbc5eaee2	-0.0135915
154	0xbd3c86d2	-0.046027012
155	0xbd069d31	-0.032864753
156	0xbd184f44	-0.03718497
157	0x3dc1c271	0.09460915
158	0x3d8c0a02	0.06837846
159	0xbd4e9d75	-0.05044313
160	0x3ca23ed2	0.019805346
161	0xbd30ef98	-0.043197244
162	0x3d090e66	0.033460997
163	0xbc9e0826	-0.019290995
164	0x3d0ff806	0.035148643
165	0x3ccb6cb6	0.02483211
166	0xbd4b8ec4	-0.0496967
167	0xbc21414d	-0.009842229
168	0x3df1c161	0.11804462
169	0xbc0a648a	-0.008446822
170	0x3e7d5604	0.24739844
171	0x3dab7c32	0.08373298
172	0xbd40a554	-0.04703267
173	0x3dd35bb7	0.103202276
174	0x3d6f89f5	0.058481175
175	0x3dbe1e79	0.09283156
176	0xbcd84121	-0.026398243
177	0x3b628df7	0.003456948
178	0x3e25748a	0.16157737
179	0x3d14022d	0.036134887
180	0x3a9cf75a	0.0011975572
181	0x3d29696a	0.041360296
182	0xbddf6692	-0.109082356
183	0xbad81042	-0.0016484337
184	0xbe721f39	-0.23644723
185	0x3d8f2ef9	0.06991381
186	0xbd2bc2d5	-0.041933853
187	0x3cbaa5e9	0.02278419
188	0x3c548e70	0.012973413
189	0xbe31a673	-0.17348652
190	0x3d511040	0.051040888
191	0x3e6ad971	0.2293451
192	0x3d82b923	0.06382968
193	0x3d94310d	0.07235918
194	0xbe220ea2	-0.15825894
195	0xbe05b9ea	-0.13059202
196	0xbe0999c0	-0.13437557
197	0x3cbd8273	0.023133492
198	0xbe5057da	-0.20346013
199	0xbe93146e	-0.28726524
200	0xbd39e83f	-0.045387503
201	0xbca85bf4	-0.02055166
202	0xbd8e7c11	-0.069572575
203	0xbe1f5d90	-0.15563035
204	0x3da98510	0.08277333
205	0xbde0da43	-0.1097913
206	0xbdbb74c6	-0.09153132
207	0x3e727764	0.23678356
208	0xbcbe9d45	-0.023268351
209	0x3c841042	0.016121034
210	0x3d8a2e06	0.067470595
211	0x3da90033	0.08251991
212	0x3e453172	0.19257143
213	0xbe6f5e2f	-0.23375772
214	0xbc61322c	-0.013744872
215	0xbbe37ff5	-0.006942744
216	0x3d50a4ce	0.05093842
217	0x3dd8b160	0.105807066
218	0xbd14b59f	-0.03630602
219	0x3bff030b	0.007782345
220	0x3d2190bd	0.039444674
221	0xbdff5bf4	-0.124687105
222	0x3de8338b	0.11337956
223	0xbcc4e6ce	-0.024035838
224	0xbd66bca7	-0.056332257
225	0xbb35650a	-0.0027678632
226	0xbdabd9ef	-0.08391177
227	0xbdf8ad2a	-0.121424034
228	0xbd82aa14	-0.06380096
229	0x3d2dc78b	0.042426627
230	0x3cccefa7	0.025016619
231	0xbe38352c	-0.17989033
232	0xbb702578	-0.0036643427
233	0xb8f6c5ec	-0.0001176706
234	0x3d1acf52	0.037795372
235	0x3d4f4c82	0.050610073
236	0xbd9d308e	-0.07675277
237	0xbc17824f	-0.009247377
238	0x3bd886dc	0.0066078734
239	0x3d097f64	0.033568755
240	0x3d96eadb	0.07369014
241	0xbc1700dd	-0.009216514
242	0x3bef94da	0.0073114457
243	0x3d962f76	0.07333271
244	0xbb5e0f9a	-0.003388381
245	0x3e06db6b	0.13169639
246	0xbbd46885	-0.0064821863
247	0xbde54539	-0.11194844
248	0xbcb19556	-0.021677654
249	0x3c8c8788	0.01715447
250	0x3d237a8d	0.039911795
251	0xbcc9bd95	-0.024626533
252	0x3d810d18	0.063013256
253	0x3dd522a7	0.10407
254	0x3d43c1e4	0.04779233
255	0x3d93756b	0.0720013

rnn.weight_hh_l0 f4 [51, 51]
0	0x3e3302ba	0.17481509
1	0xbe1da866	-0.1539627
2	0x3d752e1c	0.059858426
3	0xbdb1f208	-0.08688742
4	0xbe03c3b7	-0.12867628
5	0xbe1b2142	-0.15149406
6	0xbcf1f3a9	-0.029535132
7	0x3c93f24e	0.018059876
8	0x3cff2860	0.031147182
9	0x3a57b538	0.0008228603
10	0xbdd3f62e	-0.103496894
11	0xbdb9a6c1	-0.09065009
12	0xbe8af5b9	-0.27140597
13	0xbd8be1be	-0.06830166
14	0xbc18c2bb	-0.009323771
15	0xbe5dcd26	-0.21660289
16	0x3dd60778	0.10450643
17	0xbe483228	-0.19550383
18	0x3ce4b463	0.027918046
19	0xbe087eb1	-0.13329579
20	0xbd0b07fb	-0.033943158
21	0xbc1734f9	-0.009228938
22	0x3e1a66f7	0.1507834
23	0xbd811013	-0.06301894
24	0x3da47bf6	0.08031456
25	0xbde3ab7e	-0.11116694
26	0x3dfc1d65	0.12310294
27	0xbd1374f6	-0.036000215
28	0x3dc901e5	0.098148145
29	0x3eb1947f	0.34683606
30	0xbd36f84f	-0.0446704
31	0xbdffb0c9	-0.12484891
32	0xbd04dcdd	-0.032437194
33	0xbe3d5d20	-0.18492556
34	0x3cb80b08	0.022466198
35	0xbe08a457	-0.1334394
36	0xbe095f27	-0.13415204
37	0x3e295d42	0.16539481
38	0xbf4137b8	-0.75475645
39	0x3e6ecb2c	0.23319691
40	0xbe066bcd	-0.1312706
41	0xbd060914	-0.0327235
42	0xbdf37b38	-0.118887365
43	0x3c71f071	0.014766798
44	0xbf3ce916	-0.7379316
45	0x3d58caf2	0.05292792
46	0x3c92fef3	0.017943835
47	0x3d1624b2	0.03665609
48	0x3cd0095b	0.025395086
49	0x3d1f566d	0.03890078
50	0xbd89861c	-0.067150325
51	0x3d932d78	0.07186407
52	0x3e5c3d96	0.21507868
53	0x3ed3d276	0.41371506
54	0xbcf449c2	-0.029820327
55	0x3e41ea05	0.18936928
56	0x3bd5987b	0.006518421
57	0x3db2adba	0.08724542
58	0x3df11083	0.117707275
59	0x3e83232a	0.25612766
60	0x3d958843	0.073013805
61	0xbcbe58c9	-0.023235695
62	0xbdca5caf	-0.09880959
63	0x3d50cd83	0.05097724
64	0xbe0bda1a	-0.13657418
65	0xbdfa0297	-0.12207525
66	0xbd7f66a1	-0.062353734
67	0xbca33e8a	-0.019927282
68	0x3e0c4d68	0.13701403
69	0x3dd2b242	0.10287906
70	0x3e887e0d	0.2665867
71	0xbcfaa675	-0.030596951
72	0x3d9e42da	0.07727595
73	0x3e03a963	0.12857585
74	0xbcabc095	-0.020965854
75	0xbce36fb9	-0.027763234
76	0x3e8e6e2c	0.2781843
77	0x3d754659	0.059881542
78	0xbd54c095	-0.051941473
79	0x3d8af8e8	0.06785756
80	0xbd6eba59	-0.058283184
81	0xbe33eab7	-0.17570005
82	0xbcd5ae56	-0.026084106
83	0xbdd85fdf	-0.10565161
84	0xbc8e61f4	-0.017380692
85	0x3db0018f	0.08594047
86	0x3ed0b6b4	0.4076439
87	0x3bd1e152	0.006405034
88	0x3d83d9c6	0.06438021
89	0xbd091400	-0.03346634
90	0x3df3a8b5	0.11897413
91	0x3e0f3489	0.13984884
92	0xbe86d47f	-0.26333997
93	0x3d47ea17	0.04880723
94	0xbd7e6717	-0.062110033
95	0xbba3ab2c	-0.0049947705
96	0xbe21ea41	-0.15812017
97	0xbe8d46de	-0.2759313
98	0xbddd356d	-0.10801206
99	0xbe217116	-0.15765795
100	0xbd618d8b	-0.055066627
101	0xbca3cf2e	-0.019996252
102	0x3a4689cf	0.00075736357
103	0x3e57dd39	0.21080483
104	0x3ead1429	0.33804443
105	0x3e193338	0.14960945
106	0x3d1eb4cb	0.038746636
107	0x3d28a774	0.04117532
108	0xbe896f75	-0.26842847
109	0xbd174264	-0.03692855
110	0x3e1d5fa4	0.15368515
111	0xbd89e565	-0.06733207
112	0x3e6acfc5	0.2293082
113	0xbdf93f50	-0.12170279
114	0xbe00df7a	-0.1258525
115	0xbe76b881	-0.2409382
116	0xbe2d1446	-0.16902265
117	0xbd902b07	-0.07039457
118	0x3d484046	0.04888942
119	0x3e244112	0.16040447
120	0x3de9673e	0.11396645
121	0x3e8bec33	0.27328643
122	0x3dd59156	0.10428111
123	0x3e49089b	0.19632189
124	0x3e754e06	0.23955545
125	0xbde68f3d	-0.11257789
126	0xbdb7764c	-0.0895811
127	0xbde841ec	-0.113406986
128	0x3e099663	0.13436274
129	0xbe111a14	-0.14170104
130	0x3db3f53a	0.08787008
131	0xbe348e62	-0.1763244
132	0xbe00563e	-0.12532899
133	0x3d558a5d	0.052133907
134	0x3d6ac71a	0.057318784
135	0xbe28217d	-0.16419025
136	0x3d8d9919	0.06913967
137	0x3e5d2149	0.21594729
138	0x3d55d963	0.05220927
139	0xbdbb2805	-0.091384925
140	0xbd351708	-0.044211417
141	0xbcb85f8c	-0.022506498
142	0x3e7eee35	0.24895556
143	0xbeed92ab	-0.4640096
144	0xbe89b946	-0.26899165
145	0xbd8e0ab9	-0.06935639
146	0x3da280c0	0.07934713
147	0x3da63933	0.08116379
148	0xbebe871d	-0.37212458
149	0xbe346382	-0.17616084
150	0xbe6f0ff1	-0.23345925
151	0xbd34cb22	-0.044139035
152	0x3d2d66e8	0.042334467
153	0x3dd3ca73	0.103413485
154	0xbcdaa1f7	-0.026688559
155	0x3d141677	0.036154237
156	0x3e2aa916	0.16666064
157	0xbe2c02df	-0.1679797
158	0x3bfddc17	0.007747184
159	0x3c1cd284	0.009571675
160	0xbe432a50	-0.1905911
161	0x3ec18d6a	0.37803203
162	0xbd4af0b3	-0.049545955
163	0xbd40a0c5	-0.04702832
164	0xbdd79fa8	-0.10528499
165	0xbcd07d34	-0.025450327
166	0x3d8352f6	0.06412308
167	0xbce02fa9	-0.027366476
168	0xbd869899	-0.065720744
169	0x3e21710c	0.1576578
170	0x3da1dcba	0.079034284
171	0xbebc1638	-0.36735702
172	0x3d38e11c	0.045136556
173	0xbdd53f9e	-0.10412525
174	0x3e3de823	0.18545584
175	0x3e5f8f7d	0.2183208
176	0xbe5bd28e	-0.21467039
177	0xbcd0116f	-0.025398938
178	0xbebe1ed6	-0.371329
179	0x3e49c9d3	0.19705896
180	0xbdc5f892	-0.09666552
181	0x3e216e29	0.15764679
182	0x3bf6e127	0.0075341645
183	0xbeae4ea2	-0.34044367
184	0xbd8071f7	-0.06271737
185	0xbd45c333	-0.04828186
186	0x3c74b223	0.014935049
187	0xbe94884f	-0.29010245
188	0x3e24bf1b	0.16088526
189	0xbbce0e3a	-0.006288317
190	0xbd765512	-0.060139723
191	0x3ddd26e1	0.10798431
192	0xbecf4836	-0.4048478
193	0x3e2c645b	0.16835158
194	0xbe94ad3c	-0.29038417
195	0xbeb14ea0	-0.346303
196	0xbd40027d	-0.046877373
197	0x3b98a38a	0.0046581673
198	0x3cc2a115	0.02375845
199	0xbe34ca92	-0.176554
200	0x3d5dc8eb	0.05414669
201	0xbe2ac32d	-0.16676016
202	0x3e20870a	0.15676513
203	0x3e39068d	0.18068905
204	0xbdfaa9c1	-0.12239409
205	0xbcaaff65	-0.020873735
206	0x3d8e9c8c	0.06963453
207	0xbc858a71	-0.016301366
208	0x3ede3b8f	0.43404815
209	0x3d818f3f	0.0632615
210	0xbde9afb2	-0.11410464
211	0x3e1b9129	0.15192093
212	0x3df15e93	0.11785617
213	0xbd057ccd	-0.032589722
214	0x3e37ff52	0.1796849
215	0xbf53f444	-0.82794595
216	0xbdc2b036	-0.09506266
217	0xbe144f03	-0.14483266
218	0xbde7238a	-0.112860754
219	0x3e17435c	0.1477179
220	0x3d59654c	0.05307512
221	0xbd8cba36	-0.068714544
222	0x3f851f7e	1.0400236
223	0x3e264114	0.16235763
224	0x3d51b0ae	0.051193886
225	0x3e457639	0.1928338
226	0xbdf3f692	-0.11912264
227	0x3d3fcebd	0.04682802
228	0xbdac401c	-0.084106654
229	0x3da36093	0.079774044
230	0xbb94f05a	-0.0045452537
231	0xbe25af25	-0.16180094
232	0x3cdb6ba1	0.02678472
233	0xbd6d68e9	-0.05796138
234	0x3a93b2f2	0.001126854
235	0xbc9dc9d8	-0.019261286
236	0x3e00ca97	0.12577282
237	0x3e5c2e5b	0.21502058
238	0x3e096153	0.13416032
239	0x3dc1736f	0.09445845
240	0x3e6aa898	0.22915876
241	0xbdb6b03c	-0.08920333
242	0xbdca86e1	-0.09889007
243	0xbe018c74	-0.12651235
244	0x3e8a6188	0.27027535
245	0xbd4233c4	-0.04741265
246	0xbe84f584	-0.25968564
247	0xbf592532	-0.8482238
248	0xbd9f05e1	-0.07764793
249	0xbedda15f	-0.4328718
250	0xbdde5ebb	-0.10857912
251	0x3d1b24c9	0.037876878
252	0xbedeb0da	-0.43494302
253	0xbe321c66	-0.17393646
254	0xbdf349c1	-0.11879302
255	0x3e00c3a2	0.12574628
