140-谭佳奇/第三周作业/by_pooling/model.pth (torch, 7034 bytes, 5 tensors)

embedding.weight f4 [12, 20]
0	0xbe734d56	-0.2375997
1	0xbea15d33	-0.31516418
2	0xbf70fada	-0.9413277
3	0xbf028a8b	-0.5099265
4	0xbf7e6f4c	-0.99388576
5	0x4000b492	2.0110211
6	0x3f42e3fb	0.7612912
7	0xbe4ea946	-0.2018176
8	0xbf961da5	-1.1727797
9	0x3fa7bd59	1.3104659
10	0xbea4622c	-0.3210615
11	0x3e064654	0.13112766
12	0x3ebbb64b	0.36662516
13	0x3f2f7e00	0.68551636
14	0x3f58d75c	0.8470361
15	0xbe994347	-0.2993414
16	0x3f9ceb3b	1.2259287
17	0x3fad99a7	1.3562516
18	0x3f3e040e	0.74224937
19	0xbea9bed4	-0.33153403
20	0xc0350787	-2.8285844
21	0xc024b5cd	-2.5735962
22	0x3fccb35f	1.599224
23	0x3fe9b6c0	1.8258896
24	0x401511af	2.3292043
25	0xbf6bb064	-0.92066026
26	0x3ededac8	0.43526292
27	0xbfcaee50	-1.5853977
28	0x401faf18	2.4950619
29	0xbf336595	-0.70076877
30	0x3eb23e2b	0.34813055
31	0xc00de7db	-2.2172763
32	0xc00e603c	-2.2246237
33	0x3fac9df5	1.3485705
34	0x3f953e47	1.165963
35	0xbfb5c752	-1.4201453
36	0x3efadcdf	0.48996636
37	0x3f55d70f	0.8353128
38	0xbf8771c8	-1.0581598
39	0x3e9486c8	0.2900908
40	0x3e58c514	0.2116893
41	0xbf41aa7c	-0.75650764
42	0xbf988dcb	-1.1918272
43	0x3f3c39c3	0.7352564
44	0xc04669e8	-3.100214
45	0xbf550c02	-0.8322145
46	0x3ec7ede9	0.390487
47	0x3f5d7cc9	0.8651853
48	0x3e89e1fb	0.26930222
49	0x3f408c8f	0.75214475
50	0xbf7ed2dc	-0.99540496
51	0xbeafced5	-0.34337488
52	0x3f1e5626	0.618502
53	0xbd0755e2	-0.03304089
54	0xbf216312	-0.63041794
55	0x3fb12c85	1.3841711
56	0xbebc9e47	-0.36839506
57	0xbf492a38	-0.78580046
58	0xc02b42a3	-2.6759422
59	0xbfc029cc	-1.5012755
60	0x3e1fdc60	0.1561141
61	0xbf0b02cc	-0.5430114
62	0xbf23659f	-0.63826936
63	0xbf3af02d	-0.7302273
64	0xbe65ad64	-0.22429425
65	0x3e168a7a	0.14701262
66	0xbea29cbe	-0.3176021
67	0x3f014726	0.5049919
68	0xbf4e933c	-0.8069341
69	0x3cc7c3d4	0.02438537
70	0xbfe150cc	-1.7602782
71	0x3ed55eca	0.4167388
72	0xbfbd3686	-1.4782264
73	0xbdf64598	-0.12024993
74	0xbe79f63d	-0.24410339
75	0x3fc4c624	1.5372968
76	0x3ed84a40	0.42244148
77	0x3e82331f	0.25429627
78	0xbf5b3513	-0.8562786
79	0x3f40e61a	0.7535111
80	0x3d1bfc5d	0.03808247
81	0x3f3a5151	0.7278033
82	0x3f856802	1.0422366
83	0xbfc9cf87	-1.5766457
84	0xbf769bf5	-0.9633172
85	0xbf8eacb0	-1.114645
86	0x3d63edb7	0.055646624
87	0xbe951fa5	-0.29125705
88	0xbff942f8	-1.9473562
89	0xbf7ca1f8	-0.98684645
90	0xbf1ecab1	-0.6202803
91	0xbecb0656	-0.3965327
92	0xbf33ff17	-0.7031111
93	0x3e8f9297	0.28041527
94	0x3e87d2ae	0.26527923
95	0x3ed0f24d	0.4080986
96	0xbe0e42e5	-0.13892706
97	0xbeea9130	-0.45813894
98	0xbe84b14d	-0.2591652
99	0xbf083a6d	-0.5321415
100	0x3fc00bfd	1.5003659
101	0xbff3976e	-1.9030588
102	0xbf9350f6	-1.1509082
103	0x3e212803	0.1573792
104	0x3c9adb51	0.018903406
105	0xbebe8db0	-0.37217474
106	0x3cd194bb	0.025583616
107	0xbeea824f	-0.45802543
108	0xbe5277ad	-0.20553465
109	0x3fa24ccb	1.2679685
110	0xbfb4544f	-1.4088229
111	0x3eb16508	0.34647393
112	0x3e1e8679	0.15480985
113	0xbfe1b659	-1.7633773
114	0xbec92ba7	-0.39291117
115	0xbf536426	-0.8257469
116	0x3ed8e887	0.42364904
117	0xbd681ec4	-0.056669965
118	0xbe82731b	-0.25478444
119	0xbee225f5	-0.44169584
120	0x3eda046c	0.425815
121	0xbf501ca6	-0.81293714
122	0xbfa790e6	-1.3091094
123	0xbf7ecde3	-0.9953291
124	0xbfc1bf4e	-1.5136507
125	0x3f1cb0df	0.61207384
126	0x403451e4	2.8174982
127	0xbfd4dbf2	-1.6629622
128	0xbce63967	-0.028103543
129	0x3f986fbd	1.19091
130	0xbfef34f7	-1.8688039
131	0x3fb4972e	1.4108636
132	0xbecafa53	-0.39644107
133	0xbf1e6f42	-0.61888516
134	0x3f17e9f2	0.5934135
135	0x3fb7b5b8	1.4352331
136	0xbf69bd24	-0.9130423
137	0xbf44c895	-0.76868564
138	0x3f5c6d10	0.86103916
139	0xbee63df8	-0.44969153
140	0xbf7d425c	-0.9892938
141	0x3e4d4545	0.20045955
142	0xbc34d016	-0.01103594
143	0xbee3c6d8	-0.44487643
144	0x3ec01fe6	0.37524337
145	0x3e9f4b99	0.31112364
146	0xbf916e6d	-1.1361824
147	0xbe0a6823	-0.13516288
148	0x3e8af80f	0.2714238
149	0xbf241d2e	-0.64107025
150	0xbeaea2d0	-0.3410859
151	0x3f0c05a5	0.5469611
152	0xbea41b5b	-0.3205212
153	0xbe8ff791	-0.28118566
154	0xbf15eccb	-0.5856444
155	0x3f74456f	0.9541845
156	0xbde4a5d9	-0.111644454
157	0xbef83e26	-0.48484915
158	0x3f4f4bce	0.80975044
159	0x3e98b0ff	0.29822537
160	0xbff4686b	-1.9094366
161	0x3e9ef8f3	0.31049308
162	0x3f2088e3	0.6270887
163	0x3f784cd5	0.96992236
164	0xbf2b7601	-0.66976935
165	0x3f9d444d	1.2286469
166	0x3e594ad8	0.21219957
167	0xbf92c51b	-1.1466402
168	0xbf77d93f	-0.96815866
169	0x3f508811	0.8145762
170	0x3dd9032c	0.10596308
171	0x3fb406ca	1.4064572
172	0x40013abb	2.0192096
173	0x3e9bcefd	0.30431357
174	0x3ee3c84b	0.4448875
175	0x3fd34a72	1.6507094
176	0xbeefbb19	-0.46822432
177	0xbfef7e53	-1.8710426
178	0x3e6819fa	0.2266616
179	0xbf91028d	-1.1328903
180	0xbee2f016	-0.44323796
181	0xbcc0d756	-0.02354018
182	0xbf53d5ac	-0.8274791
183	0x3cebaf6b	0.02877017
184	0xbf479c57	-0.7797293
185	0x3d2350d8	0.03987202
186	0x3ce6f79d	0.028194243
187	0x3f8d3e5d	1.1034657
188	0xbecca9ed	-0.39973393
189	0xbfa997e5	-1.324948
190	0xbf3fd1ca	-0.7492949
191	0xbfaa1ea4	-1.3290601
192	0x3ec74060	0.38916302
193	0x3ddf50e7	0.10904103
194	0xbeb07e45	-0.34471336
195	0x3ef558e7	0.4791939
196	0xbf3b1494	-0.73078275
197	0xbec5e6a0	-0.38652515
198	0xbf8b1fc2	-1.0869067
199	0xbeb2cc11	-0.34921315
200	0x3f3f5a37	0.7474703
201	0x3f350cb2	0.70722497
202	0x3cabeddf	0.02098745
203	0xbe03f6bb	-0.12887089
204	0x3f3f99bd	0.7484396
205	0xbeebbd10	-0.4604268
206	0xbf8d503f	-1.1040114
207	0xbece6e49	-0.40318516
208	0x3f2dff83	0.67968005
209	0xbe946585	-0.28983703
210	0x3f778398	0.9668517
211	0x3ea81739	0.32830217
212	0xbf5c1e2f	-0.85983557
213	0x3eb9eea0	0.3631487
214	0xbf8da536	-1.1066043
215	0xbf83af14	-1.0287805
216	0xbfac3570	-1.3453808
217	0x3f145af7	0.579513
218	0x400db549	2.2141898
219	0x3e509962	0.20371011
220	0x3f9f67f7	1.2453603
221	0x3de6dd8c	0.112727255
222	0x3f86aad2	1.052088
223	0xbfdf5c37	-1.7450017
224	0xbe44114c	-0.19147223
225	0xbed1dc85	-0.40988556
226	0x3fcc15a0	1.59441
227	0xbe50dde9	-0.20397152
228	0xbdd32f22	-0.10311724
229	0xbf3c67fc	-0.7359617
230	0xbf50c8ce	-0.81556404
231	0xbf21e3aa	-0.6323801
232	0x3f7e556f	0.9934911
233	0x3ef5b539	0.47989824
234	0x3f3ddea3	0.7416784
235	0xc0020c7d	-2.0320122
236	0xbf5db935	-0.8661073
237	0xbf4ca526	-0.79939497
238	0x3f932287	1.1494912
239	0x3f121325	0.5706046

linear1.weight f4 [32, 20]
0	0xbe46279d	-0.19351049
1	0xbe948f00	-0.2901535
2	0x3ea5e432	0.32400662
3	0x3e4eb9c3	0.2018805
4	0x3df9139a	0.12161942
5	0xbe11f374	-0.14253026
6	0xbde0d0fc	-0.109773606
7	0xbd41038c	-0.047122523
8	0x3e6cbaf6	0.23118195
9	0x3cf46e86	0.029837858
10	0x3de239d7	0.11046188
11	0xbedff47f	-0.43741223
12	0xbef34e50	-0.47520685
13	0x3ee6f92c	0.45111978
14	0x3dafc152	0.08581795
15	0xbdfc5721	-0.12321306
16	0xbc91f1a1	-0.017815413
17	0xbc914d6f	-0.017737119
18	0xbe1a9bfc	-0.15098566
19	0x3e3f0ebd	0.18657966
20	0xbedfe44f	-0.43728873
21	0xbf2da4e0	-0.67829704
22	0xbd9b9e38	-0.07598537
23	0x3ed6c866	0.41949767
24	0x3e780f64	0.24224621
25	0x3d965c24	0.07341793
26	0x3d8e5ba9	0.069510765
27	0xbe4586b9	-0.19289674
28	0x3ded2b94	0.115805775
29	0xbd0ee85a	-0.034889556
30	0x3e55919b	0.20856325
31	0xbe7214d1	-0.23640753
32	0xbf1a4459	-0.6026054
33	0x3dc10d5f	0.094263785
34	0x3f08e866	0.5347961
35	0xbd4921de	-0.049104564
36	0x3e90279e	0.28155226
37	0x3d8c6ad9	0.06856317
38	0xbe973738	-0.29534316
39	0x3dc21db7	0.09478324
40	0xbe714541	-0.23561575
41	0xbebc5b71	-0.36788514
42	0x3ed69beb	0.4191583
43	0x3ebbaa7c	0.36653507
44	0x3e35fa1e	0.17771193
45	0x3c44c9e5	0.012011026
46	0x3e47c8df	0.1951022
47	0xbe88a7bd	-0.26690474
48	0x3f0fd342	0.5618173
49	0x3d594d52	0.053052254
50	0xbc9547f1	-0.01822278
51	0xbe595c64	-0.2122665
52	0xbf09df42	-0.5385629
53	0x3ec897d5	0.3917834
54	0x3efe70a8	0.49695325
55	0xbdc2f9b8	-0.09520286
56	0x3d6bd112	0.05757243
57	0xbe147db8	-0.14501083
58	0x3cfe093d	0.031010265
59	0x3ba9eb27	0.005185503
60	0xbeafa968	-0.34308934
61	0xbf120346	-0.57036245
62	0x3e931fcd	0.287352
63	0x3f2c679c	0.67345595
64	0x3ebf7788	0.37395883
65	0x3e561420	0.20906115
66	0x3ecdadfa	0.40171796
67	0xbef29d59	-0.47385672
68	0x3ec6f928	0.38861966
69	0x3f1bd226	0.60867536
70	0xbcdd127f	-0.026986359
71	0xbd20a0b2	-0.03921575
72	0xbf132220	-0.57473946
73	0x3ea856f0	0.32878828
74	0x3f01afd8	0.5065894
75	0xbe1dbacc	-0.15403289
76	0xbdd53003	-0.10409548
77	0x3e256042	0.1615
78	0xbde6a582	-0.11262037
79	0xbd8b49bc	-0.06801173
80	0x3ea5d103	0.32386026
81	0x3de757bf	0.11296033
82	0xbec78d80	-0.38975143
83	0xbb8423a1	-0.0040325676
84	0xbc25fac4	-0.010130588
85	0x3f05a13e	0.5219916
86	0xbe3b8da4	-0.1831575
87	0xbde13d48	-0.109980166
88	0xbcc15588	-0.023600355
89	0x3ee7a78a	0.4524501
90	0xbe3000a0	-0.17187738
91	0x3e678325	0.22608621
92	0x3e56c9d3	0.20975427
93	0xbe8739f9	-0.26411417
94	0xbe8dd9db	-0.27705273
95	0x3d6d00ee	0.057862215
96	0x3e01c90e	0.12674353
97	0x3c24a15e	0.010048239
98	0x3de4e040	0.11175585
99	0xbe924e71	-0.2857547
100	0x3c9ea85c	0.01936739
101	0xbea8d258	-0.3297298
102	0x3e2dd4ee	0.16975757
103	0xbc248464	-0.01004133
104	0x3e3a13f3	0.18171673
105	0xbeb0536e	-0.34438652
106	0x3dbdc322	0.09265734
107	0x3c325df4	0.010886658
108	0xbd1ec40d	-0.038761187
109	0xbeb1e91b	-0.34748158
110	0x3c63d001	0.013904572
111	0xbddd4ba5	-0.10805444
112	0xbe4217ac	-0.18954343
113	0x3b1d40ce	0.0023994925
114	0xbdcc293d	-0.09968803
115	0x3c1d4d70	0.009600982
116	0xbe42b6fd	-0.19015117
117	0xbdcaec5c	-0.09908363
118	0xbdd59c00	-0.10430145
119	0xbd03d95d	-0.032189716
120	0xbf044472	-0.5166694
121	0xbf14d152	-0.581319
122	0x3ee98261	0.45607284
123	0x3e13fb5e	0.14451358
124	0x3e9fb886	0.31195468
125	0xbe6babf3	-0.23014812
126	0x3ed9dd3e	0.42551607
127	0xbef0aba7	-0.4700596
128	0x3eed2c82	0.4632302
129	0x3c0cb85e	0.008588878
130	0xbe30bf59	-0.17260493
131	0xbe41bf02	-0.1892052
132	0xbf070e6e	-0.5275639
133	0x3e8397aa	0.25701648
134	0x3ea3ac3a	0.31967336
135	0x3d72d2d0	0.059283078
136	0x3dbc5882	0.09196569
137	0x3e4879c8	0.19577706
138	0xbad413db	-0.0016180234
139	0xbdcf28b2	-0.10115184
140	0x3edeec0b	0.43539461
141	0x3f2d1bd1	0.6762057
142	0xbc43b404	-0.011944775
143	0xbee0fd64	-0.43943322
144	0xbecb53f1	-0.3971248
145	0x3c3175cc	0.010831308
146	0xbda926ea	-0.082593754
147	0x3e60c530	0.21950221
148	0xbea5f858	-0.32416034
149	0xbe4b6b74	-0.19865209
150	0x3dcd3af8	0.10021013
151	0x3e942a3a	0.28938466
152	0x3f1ac7e9	0.6046129
153	0xbe620f81	-0.22076227
154	0xbf1cd2fe	-0.6125945
155	0x3ea1f55c	0.31632507
156	0xbeb25dff	-0.34837338
157	0xbd47f003	-0.048812877
158	0x3ee460a0	0.4460497
159	0xbe9031ad	-0.281629
160	0x3e622e79	0.2208804
161	0x3ec73390	0.38906527
162	0xbe8ffa5a	-0.2812069
163	0x3d0f0916	0.034920774
164	0xbd6b38e7	-0.057427313
165	0x3eadc32e	0.33937973
166	0xbdd347be	-0.10316418
167	0x3e94a4d6	0.2903201
168	0x3d594bd4	0.05305083
169	0x3d0719fc	0.032983765
170	0x3d2def78	0.042464703
171	0x3d7bb041	0.061447386
172	0x3e5ec56e	0.21755001
173	0x3e0b7b3c	0.13621229
174	0xbe7427b1	-0.23843266
175	0x3e82d97f	0.2555656
176	0xbe14c89e	-0.14529654
177	0xbe3f5e51	-0.18688323
178	0x3ed634ae	0.41837066
179	0xbd5ba5a0	-0.05362475
180	0xbe7c82b2	-0.24659231
181	0xbf19374c	-0.5985
182	0x3e62175c	0.22079223
183	0x3eaf173f	0.34197423
184	0x3ebbc23f	0.36671636
185	0xbe64a0a2	-0.22326902
186	0x3d8fc4ec	0.07019982
187	0xbed6f780	-0.41985703
188	0x3e032ecd	0.12810822
189	0x3dc57c90	0.09642899
190	0x3e0b97a3	0.13632064
191	0xbeb54506	-0.35404223
192	0xbf1b7275	-0.6072152
193	0x3c91cc9a	0.017797757
194	0x3e3701f4	0.17871839
195	0xbde65a5f	-0.11247706
196	0x3e9817d5	0.29705682
197	0x3d2476f4	0.040152505
198	0xbed04377	-0.40676472
199	0x3e9727d0	0.29522562
200	0xbea3c0e2	-0.31983095
201	0xbf01caa0	-0.50699806
202	0x3e886a86	0.2664377
203	0xbdfd6d7b	-0.12374397
204	0x3e004260	0.1252532
205	0xbebac135	-0.3647553
206	0x3b154a2e	0.002277981
207	0xbdc68f00	-0.09695244
208	0x3e55ed00	0.2089119
209	0xbdd52798	-0.104079425
210	0x3e0f5caf	0.140002
211	0xbeeed7ca	-0.4664901
212	0xbeeb5d65	-0.45969692
213	0x3c27c49a	0.010239745
214	0x3e80f379	0.25185755
215	0xbeb01f37	-0.34398815
216	0x3e4aa7e1	0.19790603
217	0x3d40eca6	0.047100686
218	0xbe7c938c	-0.2466566
219	0x3dc0de41	0.094173916
220	0xbedd294d	-0.43195572
221	0xbe8dc846	-0.2769186
222	0x3e1bdad8	0.15220201
223	0x3e90bf51	0.28270963
224	0x3eac4b89	0.3365138
225	0xbec19da0	-0.3781557
226	0x3e32cb58	0.17460382
227	0xbd22d87a	-0.03975723
228	0x3eaa84bb	0.3330439
229	0xbe920b7e	-0.28524393
230	0x3ea0a494	0.31375563
231	0xbd2ad0c8	-0.041703016
232	0xbde249b7	-0.11049216
233	0x3ec70ada	0.38875467
234	0x3eb000f5	0.3437573
235	0xbe57ecf2	-0.21086481
236	0xbe74daca	-0.23911586
237	0xbd469171	-0.048478547
238	0xbb1114c6	-0.0022137626
239	0x3e0deddb	0.13860266
240	0x3ee3e4e5	0.4451057
241	0x3f014003	0.504883
242	0xbeacd462	-0.33755785
243	0xbe618e2c	-0.2202689
244	0xbef2f9da	-0.47456247
245	0x3eba54ec	0.36392915
246	0xbe2f6228	-0.17127287
247	0x3dcad197	0.09903257
248	0xbda67be0	-0.08129096
249	0x3e81d8a0	0.25360584
250	0xbe579c50	-0.21055722
251	0x3eea70a4	0.45789063
252	0x3f3b349a	0.7312714
253	0xbe45eea3	-0.19329314
254	0xbe981c8a	-0.29709274
255	0x3eee2ac0	0.4651699

linear1.bias f4 [32]
0	0xbe4c7373	-0.19965915
1	0xbe49948f	-0.19685577
2	0x3d845ddd	0.064632155
3	0x3e0fe483	0.14052014
4	0x3cb0ca1f	0.021580754
5	0x3981a008	0.0002472403
6	0xbd831312	-0.06400122
7	0x3b7a1f4c	0.0038165627
8	0xbdf26100	-0.118349075
9	0x3df5e432	0.120064154
10	0xbe180b19	-0.14847983
11	0x3d9f3fc8	0.07775837
12	0x3cedd489	0.029032009
13	0x3e69df4d	0.22839089
14	0x3d10e845	0.03537776
15	0x3d26371e	0.040579908
16	0xbda6431c	-0.08118269
17	0x3e061901	0.13095476
18	0x3d59302d	0.05302446
19	0xbd636e59	-0.055525158
20	0x3dc448f7	0.095842294
21	0x3d7d4576	0.06183382
22	0xbbe87f5f	-0.007095262
23	0x3db689ae	0.08912979
24	0xbd499612	-0.049215384
25	0x3d2a36a0	0.041556
26	0x3e078ba3	0.13236861
27	0x3e333d35	0.17503817
28	0x3e4e1e00	0.20128632
29	0xbd89eb98	-0.06734389
30	0x3dbb2747	0.09138351
31	0x3dde1d95	0.10845486

linear2.weight f4 [10, 32]
0	0x3db3a2a3	0.08771255
1	0xbe87b87e	-0.26507944
2	0x3ddc11b9	0.10745568
3	0x3c4c9240	0.012486041
4	0xbed7d653	-0.42155704
5	0x3ea61cc9	0.32443836
6	0x3e27a084	0.16369826
7	0x3e1b716e	0.15179989
8	0xbca6ef56	-0.020377796
9	0xbdcfed80	-0.101527214
10	0x3d8fff15	0.07031075
11	0x3ee4530c	0.4459461
12	0xbe452f86	-0.1925641
13	0xbd8d6b39	-0.06905217
14	0x3e085951	0.13315322
15	0xbe317b34	-0.17332155
16	0xbe0e57bf	-0.1390066
17	0xbe90bcaa	-0.2826894
18	0xbe0a49d8	-0.13504732
19	0xbe1128f1	-0.14175774
20	0xbe03035e	-0.12794253
21	0x3e737496	0.23774943
22	0xbe7b8dc0	-0.24565792
23	0xbe61c943	-0.22049432
24	0x3e721610	0.23641229
25	0xbe451c45	-0.19249065
26	0x3dfde48e	0.12397109
27	0x3d251044	0.040298715
28	0x3e43a2e6	0.1910511
29	0xbcc7c450	-0.024385601
30	0xbea3c461	-0.31985763
31	0x3e7b5343	0.2454348
32	0xbe246695	-0.16054757
33	0xbdeca704	-0.11555293
34	0x3ea04528	0.31302762
35	0x3e9b8cbb	0.30380806
36	0x3e502f17	0.20330463
37	0x3e095be2	0.13413957
38	0x3e81f7f0	0.25384474
39	0xbe61df01	-0.22057725
40	0xbe5c99f1	-0.21543099
41	0x3e4e1e85	0.2012883
42	0xbc9cbc92	-0.019132886
43	0x3c173505	0.009228949
44	0x3d21035b	0.03930984
45	0xbdadc2db	-0.08484431
46	0xbd22ac25	-0.03971495
47	0xbe0881b4	-0.13330728
48	0xbec281a1	-0.37989524
49	0x3c987c54	0.018613972
50	0xbdb7d205	-0.08975605
51	0xbe2a7827	-0.16647397
52	0x3b351278	0.0027629416
53	0xbe5d8e22	-0.2163625
54	0xbe8e69cf	-0.278151
55	0x3da730ef	0.0816363
56	0x3e4bdd81	0.19908716
57	0xbc9ab37b	-0.018884411
58	0xbdfda720	-0.12385392
59	0xbd7053c1	-0.058673624
60	0x3d9a0ef4	0.07522383
61	0x3dc2b6e2	0.095075384
62	0xbdca18e1	-0.098680265
63	0x3d2ac17f	0.04168844
64	0x3deb9990	0.11503899
65	0x3db83f6c	0.08996472
66	0x3e405e35	0.18785937
67	0x3ef1f655	0.4725825
68	0x3e14e321	0.14539768
69	0xbe2c7d21	-0.16844608
70	0x3e89c151	0.269053
71	0xbe04061d	-0.12892957
72	0x3e794cd7	0.24345718
73	0xbc66d1ae	-0.0140880775
74	0xbe65e7a6	-0.22451648
75	0x3eb6a4fe	0.35672754
76	0x3deddd1f	0.11614441
77	0xbf0043e9	-0.5010362
78	0xbe1a436e	-0.15064785
79	0x3e110279	0.141611
80	0xbe4ce3b2	-0.20008734
81	0x3d1849a8	0.03717962
82	0x3de24565	0.11048392
83	0xbecaace4	-0.3958503
84	0x3c8e8aee	0.017400231
85	0x3d66b7d5	0.05632766
86	0xbecae0fc	-0.39624774
87	0xbd27c8cd	-0.040962983
88	0x3ec118fb	0.3771437
89	0x3e579fa5	0.21056993
90	0xbe9eaa13	-0.3098913
91	0x3e553fcd	0.2082512
92	0x3da2788e	0.0793315
93	0x3e6a0c5a	0.22856274
94	0xbe776413	-0.24159269
95	0xbd4f8873	-0.050667237
96	0x3dca3683	0.098736785
97	0x3e3932cd	0.18085785
98	0x3d116245	0.035494108
99	0x3e8fef3f	0.28112218
100	0x3e1db989	0.15402807
101	0xbcc22ac9	-0.023702042
102	0x3e28deb6	0.16491207
103	0xbeb4eb97	-0.3533599
104	0xbe2a1207	-0.1660844
105	0x3e18fb15	0.1493953
106	0x3db87f45	0.0900865
107	0xbd3d572e	-0.04622572
108	0xbd3d3e09	-0.04620174
109	0x3d5ecf78	0.054397076
110	0xbe4dfb17	-0.20115314
111	0xbebf99cf	-0.37422034
112	0xbd6e2256	-0.058138214
113	0x3dcffe43	0.101559184
114	0xbc383ef7	-0.011245481
115	0x3dc92dcb	0.098231874
116	0xbcf5d98d	-0.030010963
117	0xbf2627f0	-0.6490469
118	0xbcd2d56a	-0.02573653
119	0x3d5d3aa2	0.054010995
120	0x3d80eda1	0.06295324
121	0xbdc77501	-0.097391136
122	0xbee98880	-0.45611954
123	0xbe8bb930	-0.27289724
124	0xbe25ea0f	-0.16202568
125	0x3e9fe82c	0.3123182
126	0x3e46b590	0.19405198
127	0xbe2fac2c	-0.17155522
128	0xbde0ea11	-0.109821446
129	0x3da9efc3	0.08297684
130	0x3dde6422	0.108589426
131	0x3e83a932	0.25715023
132	0x3e578eb6	0.21050534
133	0x3e2e44d7	0.17018448
134	0x3ea83392	0.32851845
135	0xbe83b926	-0.25727195
136	0xbe4dc065	-0.20092924
137	0x3e40456e	0.18776485
138	0xbd885c15	-0.06658188
139	0xbd3d4563	-0.04620875
140	0x3dc9834b	0.09839495
141	0xbd80b675	-0.06284801
142	0xbe85893c	-0.26081264
143	0xbcd61e56	-0.026137512
144	0xbd8a8551	-0.06763709
145	0xbda72403	-0.081611656
146	0xbdc3e8e2	-0.09565903
147	0xbdd0e546	-0.101999804
148	0xbc817f7a	-0.015807856
149	0x3b8028db	0.0039111204
150	0xbe00ee97	-0.12591015
151	0x3d5bce47	0.05366352
152	0xbd6de9b8	-0.05808422
153	0xbd6e4874	-0.058174565
154	0xbda9c788	-0.08290011
155	0xbe4ecc7a	-0.20195189
156	0xbd958a98	-0.07301825
157	0x3e57ac6d	0.21061869
158	0xbeb0247e	-0.3440284
159	0x3dd4f970	0.10399139
160	0xbe29eac0	-0.16593456
161	0x3e1d6f8c	0.15374583
162	0x3d7a087b	0.061043244
163	0x3e41f537	0.18941198
164	0x3de3a1d2	0.11114849
165	0x3e341bba	0.17588702
166	0x3e4eef15	0.2020839
167	0xbe9f1440	-0.31070137
168	0xbe2e6943	-0.17032342
169	0x3e4f6254	0.20252353
170	0xbd20dd8f	-0.039273795
171	0xbe6546ad	-0.22390242
172	0xbc51a171	-0.012794838
173	0xbdb78624	-0.08961132
174	0xbbdc7ac1	-0.0067285006
175	0xbe1bb31b	-0.15205042
176	0x3c6cb582	0.014447572
177	0xbd6c1328	-0.057635456
178	0xbcd5bffe	-0.026092526
179	0x3e126260	0.1429534
180	0xbc95ebc3	-0.018300897
181	0xbe81d6d8	-0.25359225
182	0xbc97b525	-0.018518994
183	0x3e4d6438	0.20057762
184	0xbd27c163	-0.040955912
185	0xbe24fdbc	-0.16112417
186	0xbe677d8d	-0.22606488
187	0xbe59e239	-0.21277703
188	0xbdcde646	-0.10053687
189	0x3e4ca627	0.19985257
190	0xbd995013	-0.07485976
191	0xbe1e7c6a	-0.15477148
192	0x3e034eac	0.1282298
193	0x3dec3134	0.11532822
194	0x3e112b2d	0.14176627
195	0x3e8d22ce	0.27565616
196	0xbc801eea	-0.015639741
197	0x3e238db5	0.15972026
198	0x3e416e19	0.18889655
199	0xbe727b57	-0.23679863
200	0xbd00d748	-0.03145531
201	0x3e2f930a	0.17145935
202	0x3e4b7ee9	0.19872631
203	0x3e5fddd6	0.21861967
204	0xbd88988a	-0.066697195
205	0xbe9f00d2	-0.31055313
206	0xbdcf11db	-0.101108275
207	0xbe20f6bb	-0.1571912
208	0xbe8310c0	-0.25598717
209	0xbe835e98	-0.25658107
210	0x3d6f0113	0.058350634
211	0x3de7cc27	0.11318236
212	0xbe4ea78b	-0.201811
213	0xbdc1d8b7	-0.09465163
214	0xbe6dd490	-0.23225617
215	0x3e846775	0.2586018
216	0xbde4573a	-0.1114945
217	0xbde7d796	-0.11320417
218	0xbe248a02	-0.16068271
219	0xbe0e078e	-0.1387007
220	0xbe9e9341	-0.3097172
221	0x3eaaf715	0.33391634
222	0xbec9cad8	-0.3941257
223	0x3e891d27	0.26780054
224	0x3e4a7124	0.19769722
225	0x3df31bff	0.11870574
226	0x3e607c1e	0.21922347
227	0x3e3db8bd	0.18527503
228	0xbe380cf1	-0.17973687
229	0x3e481053	0.19537477
230	0x3eb54101	0.35401157
231	0xbeaa2736	-0.3323304
232	0xbe308c0f	-0.17240928
233	0x3e79029f	0.24317406
234	0x3e37bee6	0.17943916
235	0x3e219d95	0.15782769
236	0xbeb80e07	-0.35948202
237	0xbe467e62	-0.19384149
238	0xbe061082	-0.13092235
239	0xbe56a1c4	-0.20960146
240	0xbe3099e8	-0.1724621
241	0xbe9a1e69	-0.30101326
242	0x3de1cffb	0.11025997
243	0x3e7f1218	0.24909246
244	0xbe620944	-0.22073847
245	0xbdc64a04	-0.09682086
246	0xbe271e7c	-0.16320223
247	0x3d80b024	0.06283596
248	0xbdbce599	-0.0922348
249	0xbe81e13c	-0.25367153
250	0xbd993a51	-0.07481826
251	0xbea17250	-0.31532526
252	0xbe952316	-0.2912833
253	0x3e9fa84c	0.31183088
254	0xbe96ccdd	-0.29453173
255	0x3e9d803e	0.30761904

linear2.bias f4 [10]
0	0x3d09fb17	0.033686724
1	0x3d80cacf	0.06288683
2	0xbd563d3a	-0.052304484
3	0xbda9dc47	-0.08293968
4	0xbdb6f09c	-0.08932611
5	0x3d76af34	0.06022568
6	0x3dc73855	0.09727541
7	0x3e680018	0.22656286
8	0x3de57010	0.11203015
9	0x3e153bf9	0.14573659
