260-邢奔奔/week2/model.pt (torch, 26271 bytes, 30 tensors)

layer1.weight f4 [40, 10]
00000000: 5866 77be 921a 4dbd 7c1e 07be 92ce 53bd
00000010: 3df2 8b3e 4e11 0abe 1e49 f8bd 630e 1bbe
00000020: 7352 b4bd 5f16 f43e 453e 5cbe 327f 4ebd
00000030: eba5 7a3e 77fc 59be 8ce3 ca3e 9a0f 623e
00000040: ab6c 7ebe 790a 61be 611e 363e 6b6f f1bb
00000050: de36 b2bd 0164 c53d 767a 5a3d 3b55 85bc
00000060: 2f84 00be e5b6 76bd 79b3 a4bd f276 f23e
00000070: 527c 393d 6876 d9bd dba6 12be 2ae3 c7bc
00000080: 1b93 9fbd 9afd b13d 0c56 f4bd a1c6 7fbd
00000090: 5363 723d f017 6abb b9f3 cd3e 06c6 e6bd
000000a0: ac37 0abe 23e9 1dbd 073e c83e 043c f4bd
000000b0: bd07 5fbd ab1b 80bd 07a6 093e 5c59 56bd
000000c0: 5277 9fbd fa65 f1bd 6d99 e33e 2f87 933d
000000d0: 242f 4fbe c740 003e f7c7 a3bd a416 91be
000000e0: bd8d 4a3e 5bed 98be 2e80 453e b543 76be
000000f0: bdf9 dabd 59c0 b93c 886f 013f c13d 21bd
00000100: b9a7 31bd 1e8e acbd 7b06 e0bd e0ec 1bbd
00000110: d117 4e3d a359 b1bd b5e8 30be 13b2 1bbe
00000120: 614f 6c3e 59b9 0ebe 7372 2cbe 6785 c13e
00000130: 4016 4e3e bb5c f03d 44a6 d23d d7d6 5fbe
00000140: aea2 2bbd fd5b ec3e 54dc 47bd c89c 853d
00000150: 4300 0dbc b54d debd 282c debd a4da 9bbd
00000160: 5b45 67bd 189f 8fbd 4f5b c9bd 36ed c63e
00000170: 04e1 4bbd 4440 dabd 73d2 14be ec4b 0c3e
00000180: 9d23 6f3e 81d9 21be df96 d8bd aec4 13be
00000190: 5101 01be 9537 19be 538f 1cbd 889a 383e
000001a0: 4e80 0cbe 07c3 aabd e74d ef3e 0701 89bb
000001b0: 2e02 2fbe 114b dc3d 5de3 1cbe 3853 66bd
000001c0: f76b 0bbe b67f f1bd 7fec 3a3e 8881 ecbd
000001d0: 8fde 98bd ade0 023f 4b52 e2bd 5205 86bd
000001e0: 2d8a d3bd 9b98 c03c c836 84bd e0de c73e
000001f0: 75e6 29be 58b8 873c c80f 0cbe 0d76 56bd
00000200: 94b0 ddbd 878d 483e d308 9ebb 6a5a 9b3e
00000210: 54c5 50bd 3c1a 82be 126e be3e fbe5 d83b
00000220: b3c5 64be 8fed 67be ea2e 0abe 20e8 4b3e
00000230: 462a b6bc cfe9 fbbd 8e29 05be 2a43 40be
00000240: d329 95bd 2cf9 ff3e 1a8e 2dbe 7b15 1d3e
00000250: ddfa 173d a998 1fbe 4471 a0bd 42e7 c9bd
00000260: 7b8b b7bd ba15 ae3d 5d83 6abc a86f bc3e
00000270: db41 d03c 99ce bcbd 255c 2cbd 351a 85bd
00000280: b1ef 003d c90c a9bd 465b 973d 4a22 38be
00000290: 0f54 e23e 5283 3abe 3bd5 473e 94f2 27be
000002a0: ea0e 1dbe 31e2 6abe a19f e73d 283e 5f3e
000002b0: 2ec0 5ebd f30e ccbd 42ea 9abd e22d cdbd
000002c0: 9777 50be 25ff 56be 63d6 f93e cfad febd
000002d0: df3d 92bd 0f7d cebd 70ef a0bd 93c6 ffbc
000002e0: b68c ecbd f0d5 0ebe 2d88 b4bb ebbb 25bd
000002f0: 966d b73d 3fd0 d03e 1f03 aebd f3b0 9abc
00000300: b085 28bd c5b8 07bd 1ae9 7a3d 5d31 c3bd
00000310: 1148 12be 071c d3bc 3662 003f 8b2d 6abd
00000320: e4d2 833e 45f0 7fbd de64 833e 2e62 88be
00000330: 61fa 61be b31a 4e3e 7d41 b8be 4503 603e
00000340: 3122 9b3e fcdf 883e a63f 1a3d 2f68 c2bd
00000350: ceb6 76bd 3c04 003d 43c0 f03e 6f05 03be
00000360: 8a8f a5bd 9e1f d4bd 299e b0bd ad96 ef3d
00000370: 2545 12be 113c abbd 28ad 323d 7631 d73d
00000380: a12d 9b3e bde3 473e ae1b 6e3e ce75 493e
00000390: 11be 6f3d 75ae b23e cb4c 80be 67c0 2cbe
000003a0: eef5 5c3e 4b50 c33e e016 103e b8ba 0abe
000003b0: 7f40 2a3e 80d2 46be 76b2 6c3e 9ec8 51be
000003c0: 15d1 0abe 51fb 063f 7564 f53d eac6 d6bd
000003d0: 8a74 6bbd 8f92 b7bd e0d2 8fbd 99ab ac3c
000003e0: 12b2 d3bd a069 a6bc 471f 9bbd f0b0 95bd
000003f0: e65a b23c 6d3a 2bbd 6212 1bbd 95ac 82bd
-0.24160135 -0.050074168 -0.13195223 -0.051710673 0.2733325 -0.13483164 -0.12123321 -0.15142207
-0.088047884 0.47673318 -0.21508129 -0.05041427 0.24477355 -0.21287714 0.3962673 0.22076264
-0.24846141 -0.21976651 0.17785026 -0.0073680184 -0.08701871 0.09638215 0.053339444 -0.016275993
-0.12550424 -0.060233016 -0.08042044 0.47356373 0.045284577 -0.10618287 -0.14321463 -0.024400312
-0.0779173 0.08690949 -0.11930475 -0.062445287 0.059176754 -0.0035719834 0.40225008 -0.11268239
-0.134978 -0.038552415 0.39109823 -0.119255096 -0.05445074 -0.06255277 0.1344224 -0.052331313
-0.077864304 -0.117870286 0.44452992 0.072035186 -0.20232826 0.1252471 -0.07997125 -0.28337586
0.19780631 -0.29868588 0.19287178 -0.24049266 -0.10692165 0.022674726 0.5056081 -0.039365534
-0.043372843 -0.08425544 -0.10938736 -0.0380677 0.05031568 -0.08659675 -0.1727627 -0.15204649
0.23077156 -0.13937892 -0.16840534 0.3779709 0.20125675 0.11736437 0.10285619 -0.21859299
-0.04190319 0.4616393 -0.048794106 0.06524044 -0.008606019 -0.10854665 -0.10848266 -0.07610062
-0.056462627 -0.070127666 -0.09831869 0.38852853 -0.04977514 -0.10656789 -0.14533405 0.13700837
0.23353429 -0.15805627 -0.105756514 -0.14430496 -0.12598158 -0.14962609 -0.038222622 0.18027699
-0.1372082 -0.0833798 0.46739122 -0.0041810307 -0.17090675 0.10756505 -0.15321107 -0.056231707
-0.13615404 -0.11791937 0.18254279 -0.115481436 -0.07464325 0.5112408 -0.110508524 -0.065439835
-0.10329089 0.023510268 -0.06455761 0.39037228 -0.16591819 0.016567394 -0.13677895 -0.052358676
-0.10824695 0.19585238 -0.0048228293 0.30342418 -0.050969437 -0.2541064 0.37193352 0.0066192127
-0.22341041 -0.22649215 -0.13494459 0.19912767 -0.022236954 -0.12300455 -0.13004133 -0.18775621
-0.07283368 0.4999479 -0.16948739 0.15340225 0.037104476 -0.15585579 -0.07834104 -0.09858562
-0.08962151 0.08500238 -0.014313546 0.36803937 0.025422027 -0.09219093 -0.042080063 -0.06499139
0.031478588 -0.08254392 0.07390456 -0.1798183 0.44204757 -0.18214157 0.19514935 -0.1640113
-0.1533772 -0.22937848 0.11309744 0.21801054 -0.054382496 -0.09963789 -0.075642124 -0.10018517
-0.2035812 -0.20995767 0.48796377 -0.12435495 -0.07140707 -0.10082447 -0.07858169 -0.031222617
-0.11550276 -0.13948798 -0.0055093975 -0.040462416 0.08956449 0.4078388 -0.08496689 -0.018883204
-0.04114312 -0.033135194 0.06125746 -0.095309 -0.14285304 -0.0257702 0.5014986 -0.05717234
0.25746834 -0.062485 0.25662893 -0.26637405 -0.22068168 0.20127372 -0.35987464 0.21876247
0.30299523 0.26733387 0.037658356 -0.09492528 -0.06023293 0.03125404 0.47021684 -0.12795042
-0.080840185 -0.10357593 -0.08623917 0.11698661 -0.14284189 -0.08361066 0.043622166 0.10507481
0.3030825 0.19520469 0.23252746 0.19673845 0.05853087 0.34898725 -0.25058588 -0.1687027
0.2157819 0.38147196 0.14071226 -0.1354779 0.16626166 -0.19416237 0.23114952 -0.20486686
-0.13556321 0.5272723 0.11982051 -0.104871586 -0.057484187 -0.08963501 -0.07022643 0.021077918
-0.103366986 -0.020314038 -0.07574325 -0.07309139 0.02177186 -0.041803766 -0.037859328 -0.06380574

layer1.bias f4 [40]
00000000: a0f4 4cbd 7208 7fbe acd9 ed3d 9206 d3bd
00000010: 584b c63d 12aa ebbd 36b7 fabd 9ab0 24be
00000020: 88c7 09bd 9e6f e6bd 76fb f8bd 9834 173e
00000030: 76d5 093e d697 71be 27da 1dbe 30bd f83d
00000040: 81e6 8c3e 299a 4ebe 4ef2 503e 9076 8c3c
00000050: 4ad1 afbd 2a95 47be 3422 5dbe 581b 0fbe
00000060: 876b 973e a0f1 203c bea1 7f3e e6f8 52be
00000070: a542 863e 2443 943d a027 a9bc ec3a 813d
00000080: f013 9dbc f97c 96be 5f31 a03e 3dd5 85be
00000090: fae6 6fbe e03e 543c b928 9d3e 6ea2 6b3e
-0.05003798 -0.24905565 0.11613783 -0.103039876 0.096823394 -0.11507048 -0.12241976 -0.16082993
-0.033637553 -0.11251758 -0.12157337 0.14766157 0.13460335 -0.23593077 -0.1541525 0.1214546
0.2751961 -0.20175995 0.20404932 0.017146379 -0.085848406 -0.19490495 -0.21595079 -0.13975275
0.29574224 0.009823233 0.24964043 -0.2060276 0.2622272 0.072393686 -0.020648777 0.063100666
-0.019174546 -0.29392222 0.31287667 -0.2613925 -0.23427954 0.012954444 0.3069513 0.23011181

Bn_1.weight f4 [40]
00000000: a016 773f 71e5 7e3f 40ef 743f 572f 803f
00000010: f13f 813f 3df2 7d3f 659c 863f fbf2 723f
00000020: 2b5c 843f f450 7c3f 869b 7a3f 40a1 7f3f
00000030: fd8f 7a3f bd29 763f b0c8 803f c1b3 7d3f
00000040: 929f 7a3f eafd 7c3f ed59 743f 1df5 803f
00000050: 45bd 7d3f 4ea0 753f 9d38 6d3f 52d7 793f
00000060: 8853 833f 9fca 7d3f bc38 823f ffe0 833f
00000070: 7bbc 7d3f 2954 813f d9e7 7f3f b777 793f
00000080: a0f2 843f da8c 803f 07d5 723f f8bf 853f
00000090: b420 803f 4f9a 7b3f d054 793f 427e 733f
0.965189 0.9956885 0.95677567 1.0014447 1.0097638 0.9919775 1.0516478 0.9490201
1.0340627 0.98561025 0.9789356 0.9985542 0.9787596 0.9615744 1.0061245 0.9910241
0.97899735 0.9882494 0.95449716 1.0074803 0.9911693 0.9594773 0.9266451 0.9759418
1.0259867 0.991373 1.0173564 1.0303038 0.99115723 1.0103809 0.99963146 0.97448295
1.0386543 1.0042984 0.94856304 1.0449209 1.000998 0.9828233 0.9739504 0.9511453

Bn_1.bias f4 [40]
00000000: 88f4 bbbd 080f 563d c9c1 e9bd 257d 9cbd
00000010: 91ee b0bd 8bb6 8c3d 2d96 a4be c7ff 233c
00000020: 5fd7 64be c659 a6bc 3e82 13bd 2570 20be
00000030: 9def 3abd 0931 2f3c 4673 99bd a922 cfbd
00000040: 224d 26bd 925b 51bd a8dd 99bd 7368 6ebe
00000050: 30b3 3a3d 563b febd e9dc 16bc 27c4 0e3d
00000060: db9a 36be 857d b4be 0dc6 dabc b4c9 1abe
00000070: 2d2d 22be 6121 633b 0e9b cabd 059c d8bc
00000080: 6776 79be a53a 59be 6480 01bd 265b 40be
00000090: 5fb1 adbc 955e 093c 10d6 153b 9ee6 05bd
-0.091775 0.05226043 -0.11413915 -0.07641057 -0.08639253 0.06870755 -0.32145825 0.010009713
-0.22347783 -0.02030648 -0.03601288 -0.1566778 -0.04563867 0.010692843 -0.0749269 -0.10114033
-0.040600903 -0.05111272 -0.07512981 -0.23282032 0.045581043 -0.12413661 -0.0092079425 0.034855034
-0.1783251 -0.35252014 -0.026705766 -0.15116006 -0.15837546 0.0034657347 -0.098928556 -0.026441583
-0.24361573 -0.21213777 -0.031616583 -0.1878477 -0.021202741 0.0083843665 0.0022863187 -0.032690637

Bn_1.running_mean f4 [40]
00000000: f199 25be 757e 53be fe08 5a3e 972a cdbd
00000010: 3f83 fb3c 54dd 19be f622 b2bd 65bd 91bd
00000020: 1c9f edbc 9ebc 0bbe 6499 cabd 703c a33d
00000030: c14c 073e 871a 79be 074e 75be c93d f73d
00000040: 7dc4 1a3e ccf3 66be a002 243e fb31 493d
00000050: 94b2 573e 2085 13be 58dc d23e bc36 45bd
00000060: 67d1 ad3e 0430 6d3c ecd4 1d3e 97a3 4dbe
00000070: e413 913e e40e 1a3d b409 21bd ff8c 5a3e
00000080: aa31 283d 4310 9bbe b82f f33e ec5d 82be
00000090: df85 a9be 5c70 eebc 07f3 8b3e 0df1 aa3e
-0.16172005 -0.20653708 0.21292493 -0.10017889 0.030702231 -0.15025836 -0.086980745 -0.07116202
-0.029006533 -0.1364617 -0.09892538 0.07970512 0.13212873 -0.24326526 -0.23955546 0.120723315
0.15114017 -0.22553939 0.16016626 0.04911993 0.21064216 -0.14406252 0.41183734 -0.048147902
0.33948824 0.01447678 0.15413254 -0.20081936 0.28335488 0.037611857 -0.039315894 0.21342848
0.04106299 -0.30285844 0.47497344 -0.25462282 -0.33109948 -0.029106312 0.27333853 0.33387032

Bn_1.running_var f4 [40]
00000000: 5ba7 193d 9ab3 2c3d 38ac c03c 1359 9e3c
00000010: 8619 a23c 295b 423d 597c cf3c 30cb 0b3d
00000020: aabc b03c 0d3d e13c 2204 f53c 9a28 043d
00000030: 1897 b63c d715 1e3d 08b0 073d 0ec6 753c
00000040: 0bc2 0e3d 5ac4 123d d086 9e3c ef43 cd3c
00000050: 2ae9 5b3d d0bb c73c 2741 043d d444 263d
00000060: 13bd ed3c 4a25 953c b575 153d 2e78 b13c
00000070: 24c7 103c f3a3 9a3c 4aac ee3c 2f8c da3c
00000080: cf92 e63c 57d4 d13b d397 833c cb70 eb3c
00000090: 513e e83c 4c31 043d 0d78 f63c 5a08 d73c
0.03751312 0.04216347 0.02351962 0.019329583 0.019787561 0.04745022 0.025327848 0.03412932
0.021574337 0.027494932 0.029909197 0.032265283 0.022288844 0.038595047 0.03312686 0.015000833
0.034853023 0.035831787 0.019351393 0.025056807 0.05368916 0.024381548 0.032288697 0.040592983
0.029020822 0.018206257 0.036489207 0.021663751 0.008836541 0.018877005 0.029134888 0.026678173
0.028146176 0.0064034867 0.016063606 0.028740307 0.028350027 0.032273576 0.030086542 0.0262491

layer2.weight f4 [30, 40]
00000000: 7598 b0bc 8058 18bd dccb 25bd 0623 dc3c
00000010: dbca f63d bcad 0e3d 684d 813d 9bbe 233d
00000020: 9dfd 15be 1690 a83d 9324 233e 5ec1 d2bc
00000030: 232a 05be 1eb7 35bd db23 cbbc 9768 efbc
00000040: 83b8 c03d 0d53 dbbd c9b6 d93c ddbf d0bd
00000050: 5f25 6bbd f074 b3bd e692 4a3d e9a6 043d
00000060: 0c8e ba3c 6575 9cbd 972c b43d cf8f d0bd
00000070: 554c 96bd d07a bfbc 6140 ecbc a765 533b
00000080: f3f1 d3bd 2286 37bd f37d 85bd 9bd5 203e
00000090: 20fe 4fbd 0615 873d a51c 3bbd b9e1 e437
000000a0: 4682 893d 7670 e9bd 5eff 97bc c8d6 573d
000000b0: 901d eabd ecc1 45bd 0a16 35bd b6e1 a5bd
000000c0: 1db2 e43d ebb3 48bc 488b 8f3c 5de5 06be
000000d0: 7716 a53c 71ff a7bd 53f9 e6bd afec c93d
000000e0: dfd2 b2bb 4cf2 0fbd 2fe9 ad3d b0c8 e8bd
000000f0: 6a09 c4bc 2a88 86bd 094d 613d efa1 9abc
00000100: b25f 21be aab5 11bd 1047 b23c f5ec 553e
00000110: 0543 82bd 1f5d c63d bbed 103d 14a3 d23b
00000120: dbfd 113e dd07 613e 4cef 253d 63ab 4d3c
00000130: 3b21 0ebe a215 a63c 93e6 c1bd f066 d13d
00000140: 8442 e43d 6898 373c a5d0 bebd 77fe 96bd
00000150: 632b 013e 7694 08be 2618 3d3e 617a c13d
00000160: 5e11 02be c0ec 8fbd 8d69 703d 1fac 4f3c
00000170: 6f61 46bd e55e 6dbd e57c 22be 3e81 d2bd
00000180: 3451 8abd 07a8 0dbc 8dee f33c 41cd b9bd
00000190: 1821 dabd b9c1 773c b25d dc3d c75d 9c3d
000001a0: 772b 943d b9f3 2fbd 43a2 f83d 827e a2bd
000001b0: 2098 8fbd 526a ef3c 2038 d93d 606c cfbd
000001c0: ae40 833e 04b6 15be 47ce a0bd 6b31 da3c
000001d0: b2a9 f5bd 559a b6bc ad43 1bbd 8976 653c
000001e0: 5368 bcbd f562 29bd 269a 923d 042d 6dbd
000001f0: e5ec ae3d 8c23 0cbe 99ff ff3d e89c e03d
00000200: 3df3 23be 6284 023e 0777 963d 6706 93bc
00000210: 5fca 9a3d 659c 51bd 4881 a23d ef47 213e
00000220: 5c57 ab3c 0a2d 26be dc87 83bb 2462 a93c
00000230: 41c2 d9bc 2030 a9bd ad08 8bbd 96d4 04be
00000240: 87fe c73d 7843 f03d 7ded 67bd c909 62bd
00000250: 0ced 833d 3e36 9abc e3ce 9e3d a305 a3bd
00000260: cc92 f8bd 85f5 b13d a415 9cbd d467 ecbd
00000270: 18f6 ad3d 8c74 09be d6f6 7a3d 6715 a73d
00000280: 6477 e43d 28e2 17bd 8a7c 01be bb6f 6f3d
00000290: b159 14bc e13f 1ebd d92e 5abd ff1a 363b
000002a0: 8ce9 e6bd a61f 2dbc b038 933d 415c d1bc
000002b0: 8611 ed3d 9fac 22bc b73d 4ebc 9c36 3fbd
000002c0: c8ce 2fbd 6431 91bd 4aeb 643c f8cf c03d
000002d0: 3789 87bc 4167 253d bdb6 d8bb 0fac 423d
000002e0: 16d9 02be 5bf2 7bbc 8e41 803c 203e 1e3c
000002f0: 858e 2fbe 01ee 40bd 6498 c6bd bf42 bebd
00000300: 62e0 543e 6648 b6bd 5719 903d 31af 683e
00000310: 0044 82bd 0af7 3f3d 6863 003d 8c08 1f3d
00000320: e559 cbbc 50d7 6f3d e8df 03bc 9d1b e5bd
00000330: e804 bf3d 9c2b 98bd 2219 813e 1bc0 943c
00000340: 66de 81bd 0a4f d5bc 5574 71bd 88af 0bbe
00000350: 373f 7bbd 32fe 08bd 9e97 eb3d 0925 d03d
00000360: d9ce 13bd 7115 0bbd 80a8 edbd 0f19 eabd
00000370: 4b2f 33bc faaa 3dbd c51c bd3c c2c0 ce3c
00000380: 5cae 48bd 95bc da3c 00a9 ed3c 03c3 a8bc
00000390: c200 263e ce1b 0f3d 67d0 2a3d 8730 3fbd
000003a0: 0d37 d5bb 12d0 a7bd d3b8 dbbc bbf4 a7bd
000003b0: 5e66 23bd 1cf3 03bd 48fe ac3c 0f49 4f3d
000003c0: 8575 5e3b fd0d de3d 41a2 a03d e2e7 0a3d
000003d0: 3324 bc3d ac62 06be 9ba4 083e 827a 34bd
000003e0: 0625 b7bd 1948 d7bd 5021 36bd f643 2d3e
000003f0: 7038 2bbd d2c2 21bd 22f9 633c 3343 00be
-0.021557072 -0.037193775 -0.04047762 0.02687217 0.1205041 0.034833655 0.06313592 0.039976697
-0.14647527 0.08230607 0.1593192 -0.02572697 -0.13004355 -0.044364087 -0.02479737 -0.029224677
0.09410193 -0.107092 0.026576417 -0.10192845 -0.057408687 -0.087625384 0.0494565 0.03238574
0.022772811 -0.07639579 0.08797567 -0.10183679 -0.07338778 -0.023373991 -0.028839292 0.0032256634
-0.103488825 -0.044805653 -0.065181635 0.15706484 -0.05077946 0.06595807 -0.045681614 2.7284828e-05
0.06714301 -0.11398403 -0.018554386 0.052695066 -0.1143142 -0.04828064 -0.04421047 -0.080996916
0.11166785 -0.012249927 0.01752247 -0.13173433 0.020152314 -0.082030185 -0.112780236 0.09859597
-0.0054572667 -0.03514318 0.08491742 -0.11366403 -0.02393027 -0.0656894 0.055005107 -0.018876044
-0.15759161 -0.03557364 0.0217624 0.20891173 -0.06360439 0.0968573 0.035382967 0.006428132
0.14256994 0.21975656 0.040511414 0.012553069 -0.13879864 0.020273987 -0.09467807 0.10224712
0.11145499 0.01120577 -0.093171395 -0.07372754 0.12614207 -0.13337883 0.18466243 0.0944717
-0.12701938 -0.07027578 0.05869441 0.012675314 -0.048432764 -0.057951827 -0.15867956 -0.10278557
-0.067537695 -0.008646018 0.029776836 -0.09072352 -0.106508434 0.015121871 0.107600585 0.07635074
0.07234853 -0.04295704 0.12140324 -0.07934286 -0.070114374 0.029225502 0.10606408 -0.10128093
0.25635284 -0.14620215 -0.07851844 0.026634892 -0.119952574 -0.022290388 -0.037906338 0.014005312
-0.09199586 -0.04135414 0.07158308 -0.05790426 0.08541278 -0.13685435 0.12499923 0.109674275
-0.16010757 0.12745813 0.073469214 -0.017947389 0.075581305 -0.05117454 0.07934815 0.15750097
0.02091568 -0.16228119 -0.0040139984 0.02067668 -0.026581885 -0.08261132 -0.06788764 -0.1297172
0.09765344 0.11731619 -0.05662297 -0.055185113 0.064416975 -0.018824693 0.07754304 -0.079600595
-0.12137374 0.08689407 -0.07621315 -0.11543241 0.08494204 -0.13423365 0.061270557 0.08158379
0.111555845 -0.037080914 -0.12645164 0.058456164 -0.009054587 -0.03863514 -0.053267334 0.0027787087
-0.11275014 -0.010566628 0.07188547 -0.025556685 0.11575608 -0.009928851 -0.012587956 -0.04668294
-0.04292181 -0.07089499 0.013972113 0.09414667 -0.016544921 0.040381674 -0.006613581 0.04752737
-0.12778124 -0.015377606 0.015656259 0.009658366 -0.1714421 -0.04710198 -0.09697035 -0.092900746
0.2078872 -0.08900528 0.07036083 0.2272308 -0.06360626 0.046866454 0.0313448 0.03882651
-0.024823138 0.058554947 -0.008048989 -0.111869074 0.09327108 -0.07430193 0.25214487 0.01815801
-0.06341247 -0.026038665 -0.058948833 -0.13641179 -0.061339583 -0.033445545 0.11503528 0.10163314
-0.036085937 -0.033955995 -0.116044044 -0.11430561 -0.0109365685 -0.046305634 0.023085007 0.025238398
-0.048994407 0.026701251 0.02901125 -0.020600801 0.16211227 0.034938626 0.041702654 -0.04667714
-0.0065068067 -0.08193983 -0.02682153 -0.082009755 -0.039892547 -0.03221427 0.021117344 0.050606783
0.0033944559 0.10842512 0.078434475 0.033912547 0.09186592 -0.13123578 0.13344042 -0.044062145
-0.089426085 -0.105117984 -0.044465363 0.16920456 -0.04180187 -0.039492436 0.013914378 -0.12525634

layer2.bias f4 [30]
00000000: bbf0 a0bd 0fd5 f8bd 90fd a9bc 9a49 c1bd
00000010: 06d7 d83d d9ab febd 76d0 a4bd 1da2 9fbd
00000020: 6a40 01be 446e 573d 6c7d 7bbd 81c0 14be
00000030: b0e5 133d eb5f 1f3e d65c 81bd 32cf 05be
00000040: b99c 0b3e ce0a eabd 4aaf fa3d fe42 9c3d
00000050: 11b7 033e a116 a4bd 2038 dabb 0034 31bd
00000060: d2d0 a83d 42b4 12bd 5d76 bdbd 6b15 043e
00000070: f4dd 4ebd 1664 f73d
-0.07858416 -0.12150013 -0.02075079 -0.094378665 0.105878875 -0.12435121 -0.08047573 -0.077945925
-0.12622228 0.052595392 -0.06139891 -0.1452656 0.03610772 0.15563934 -0.06316535 -0.1306732
0.13634004 -0.11427842 0.12240465 0.07629965 0.12862803 -0.080121286 -0.0066595227 -0.04326248
0.08242954 -0.03581644 -0.09251092 0.12898795 -0.05050464 0.12079637

Bn_2.weight f4 [30]
00000000: 32a4 7d3f db30 7c3f da30 763f b7c7 7d3f
00000010: 073b 7f3f 5d25 823f e7f9 823f 63c6 803f
00000020: 77a5 793f 1e05 823f 3b07 843f d93a 803f
00000030: b6b1 7d3f 0eee 733f eac8 783f 8c49 803f
00000040: f358 813f c31d 803f 459a 7f3f 902c 813f
00000050: 27a3 813f 4273 813f 9796 7c3f 9a51 823f
00000060: 1444 7e3f 206d 773f 988b 803f f28e 7a3f
00000070: 11f3 7a3f 5c60 7b3f
0.9907867 0.9851205 0.9616829 0.99132866 0.99699444 1.0167652 1.0232514 1.0060543
0.97518104 1.0157812 1.0314707 1.0017959 0.9909929 0.9528512 0.9718157 1.0022445
1.010527 1.0009083 0.9984477 1.0091724 1.0127915 1.0113299 0.9866728 1.0181153
0.9932263 0.96650887 1.0042601 0.9787437 0.9802714 0.9819391

Bn_2.bias f4 [30]
00000000: fe48 3fbe 6c01 94bd f3ff 1fbd 1083 c83a
00000010: e550 84bc a00f babd 94ce f33c 6a41 0b3d
00000020: 1791 56bd 3905 c8bc a8c7 5cbd a930 2dbc
00000030: 015b 083c 6ab7 1fbd 0467 94bd 0ec7 463c
00000040: 5c50 25be 30c6 52be 1fe8 eebd c0c3 c3bd
00000050: cd0d c6bd d070 a0bd f208 fdbd da3a 3f3d
00000060: 682b dabd 0f03 c7bd f0f2 86bd 475a ddbd
00000070: c13f 9cbc 960f 18bd
-0.18680188 -0.07226834 -0.03906245 0.0015297849 -0.016151855 -0.090850115 0.02976159 0.03399793
-0.052384462 -0.024416553 -0.053901345 -0.0105706835 0.008322478 -0.038993277 -0.07246211 0.012132419
-0.16143936 -0.20583415 -0.11665367 -0.09558821 -0.09670601 -0.07834017 -0.12355222 0.046686985
-0.1065281 -0.0971738 -0.065893054 -0.10808235 -0.019073369 -0.03712424

Bn_2.running_mean f4 [30]
00000000: ef88 4cbe 8449 33be f5a1 39be 7d2f 1bbe
00000010: 3f64 783d c06b 72be 88ba 61be 7059 93bd
00000020: 06a2 bdbe d2b5 debe 22c1 85be 03d6 6bbe
00000030: c0fe a1be e62a 6b3d 1ba1 8abe 469c bdbc
00000040: 2939 f7bd ba7e 1bbe 7376 4d3d 53e8 08bd
00000050: ffb8 09be 54f6 90be a728 91be 65e3 12be
00000060: ff58 1f3e 585e 16bf e8ef 89be 4613 753d
00000070: 7c10 dcbe ad96 c93d
-0.19974111 -0.17508513 -0.18128188 -0.15154834 0.060642477 -0.23673916 -0.22043812 -0.07194793
-0.37037677 -0.43498093 -0.2612391 -0.23030858 -0.3163967 0.057413958 -0.2707604 -0.023145806
-0.12071449 -0.15185061 0.05016179 -0.033424687 -0.13449477 -0.28312933 -0.28351328 -0.14344557
0.15561293 -0.5873771 -0.26940846 0.059832834 -0.42981327 0.09843192

Bn_2.running_var f4 [30]
00000000: 38f4 593e c96a 593e d303 883e 048f 603e
00000010: 9e77 273e 83d0 393e 49e0 503e 6a3f 6a3e
00000020: 6892 3d3e 132b 9d3e 1c07 893e f02f 7a3e
00000030: eb40 8c3e 64fe 723e a47f 813e 5e64 6f3e
00000040: 6391 9b3e 84ee b03e 304f 623e a630 693e
00000050: 53e2 863e aa59 6e3e a440 9a3e 0187 403e
00000060: 80ce 873e 289e 933e 348c 903e 3a54 5c3e
00000070: 90f7 9b3e 1666 873e
0.21284568 0.21232142 0.26565418 0.21929556 0.16354224 0.18145947 0.20398058 0.22875753
0.18512881 0.30696926 0.26763237 0.24432349 0.27393278 0.23729855 0.25292695 0.23378131
0.3038436 0.34556973 0.2210052 0.22772464 0.26344547 0.23276392 0.30127442 0.188015
0.26524734 0.288316 0.28231966 0.21516505 0.30462313 0.26445073

layer3.weight f4 [20, 30]
00000000: b1be 3bbe 9e84 89bc b438 ecbd 2a71 2e3c
00000010: 4f11 e4bb 7c50 44bd 774e 843d 43fd 3c3d
00000020: e078 d43c 168b 353e c903 133e 9a12 273c
00000030: 6cbb c7bc b5a9 c6bd ebad 08be 5092 22be
00000040: 537b 243d b653 20be b25e f6bd 6097 42bd
00000050: 1f9d 143e 20f9 8cbd 6474 b7bd a03f 0abe
00000060: bf24 b5b9 102c 15bd 9a06 473e 862c f6bd
00000070: 3183 a7ba bc53 0bbe 8f47 46bd f418 0c3e
00000080: aba1 90bc 958a 083d f3c7 e7bc 5f39 573e
00000090: a9de 003e a7da 8d3c 5e20 b83d 20fe ec3d
000000a0: a5e8 4dbe 6d47 8abb 4c3a ca3d cb35 99bd
000000b0: b031 f3bc c70a b3bd 35fd c33c 3d3c d6bc
000000c0: ac6d ffbd 60a8 e13c d4b3 1bbe d6b4 eb3d
000000d0: 7460 dfbc 7230 9d3d 0b7f 10be b292 30be
000000e0: f306 633d 43dd 01bc aa26 14be f308 483e
000000f0: 49c9 c63d 2f02 3ebb bdb5 6c3e d8b1 61bc
00000100: be0c babd 38a7 273e 116b 523e 65ce 103e
00000110: f110 3f3e ecbf e6bd a60a 8abc 8d58 773c
00000120: b327 873d 49ae 05be 9f2d 99bd c264 36bd
00000130: 634e dabd 3964 853b e4c7 b3bd 2e64 833d
00000140: b484 093e e594 2f3d 8f17 223e 22cf 283d
00000150: 2c23 b6bd c8be ce3d 82ef 153d 5600 efbd
00000160: f695 d0bd a5b2 323e e78e 343c a21c 80bd
00000170: 08bb bf3b 8846 49bc dcc1 dbbd d7d5 b939
00000180: 1e7f 84bd e920 013e 9f18 0a3e 5d2a 213e
00000190: 0680 31bd 90f5 f6bd 9175 443e e5b3 2b3d
000001a0: cb4f 1bbd fafe 5dbe e68d e2bc 8e89 a53d
000001b0: 7422 feba f44d 5fbb e480 42bd d5d2 04be
000001c0: c2ee bd3c 6cbc 90bc ad45 91bd 6ac4 233e
000001d0: a923 23be 8b4d 11be da64 cbbc ffb5 abbc
000001e0: 6692 ccbd ec9d bdbd 8491 fabd b70e 3b3c
000001f0: 4732 6bbb 7359 cf3d 9ad3 02be 0759 65bc
00000200: ce70 1ebd 35b6 28bd afe1 44bb 07bc 033e
00000210: 60c3 e83c cbd5 c1bd f1ea 613d 098e 94bd
00000220: c450 35be 586d 543d 58d4 a2bd 4905 38be
00000230: 00f7 55bc 823f 903c 43f6 6b3b 1459 363e
00000240: 2676 87bc f362 e23d 2eca 4dbd d63a 243e
00000250: 4a44 333d 1118 93bd 8526 dd3d 5040 edbd
00000260: 47f0 5c3d fdfd a1bb c703 af3d fcce 1cbe
00000270: b570 003d bcc9 0abc 5f9f ebbd 4322 65be
00000280: d94c 393e 4413 0dbd 087d 34be f0cc af3d
00000290: 386f c13d 356c ad3d d965 01be 6351 e13d
000002a0: ade7 9dbd b848 eabd fdbd 013e a295 c5bd
000002b0: 82bf 823c b951 d73d dcb8 bdbd 1216 61bd
000002c0: 80d3 493d de33 25bc a9e9 10be b847 10be
000002d0: 4f6a aebd faee c1bc 6d90 18be 23a2 83bc
000002e0: 2348 0c3e 5577 29be 315f d93d fe5a 1f3e
000002f0: 7e3e edbc d89d 9dbd 0254 70bd 4383 65bd
00000300: 910d 99bd a26d 0d3d ea2a 3bbe ce2b 16be
00000310: e8f0 37be f012 853e 261a d23c 7544 d53b
00000320: d361 dfbd 21c5 7cbd 9c95 973d 54dc 373e
00000330: 8453 423e 5d74 203e 91a1 bbbc 58d0 a3bd
00000340: dfda 933c 24da 283b d12f 9a3d 9118 3fbd
00000350: dbe3 e8bd 205a a1bb 11ef d7bc bdab 4abd
00000360: 5b6a 163e 9f66 82bb 7183 cb3d 2873 9bbd
00000370: 2304 bf3d 52e9 29be 568d 77bd 79de a8bd
00000380: 8419 cdbb 80c4 cb3b 4877 aa3d c661 21be
00000390: c229 283e 7e33 533e 613c c23d 9b15 1cbe
000003a0: 9448 a2bd da15 10be 9dd8 01bd da02 0dbe
000003b0: 6b66 533d 9aea d53c a9fd 803d 0fa0 3cbd
000003c0: eb1e f7bd dd34 113d 61ac 69bd 4b42 d33d
000003d0: dfd7 52bd 1521 fdbc df6c 013e 37c1 8cbc
000003e0: 7db0 6abd 441f 1ebe 8491 00bd df8e 7fbd
000003f0: 32ae e7bd 9a6b 92bd 783d 28be c1c1 90bd
-0.18334462 -0.01678687 -0.11534253 0.010647098 -0.006960071 -0.04792832 0.064602785 0.046139967
0.025936544 0.17728838 0.14356913 0.010197306 -0.024381362 -0.09700338 -0.13347594 -0.15876126
0.040156674 -0.15656933 -0.120297804 -0.047507644 0.14513062 -0.06883454 -0.089577466 -0.13500834
-0.00034550388 -0.036418974 0.19436112 -0.12020211 -0.0012780187 -0.13606161 -0.048408087 0.13681394
-0.017655214 0.033335287 -0.028293585 0.21017979 0.12584938 0.017316176 0.089905486 0.11571908
-0.20108278 -0.0042199404 0.098744005 -0.07480963 -0.029686779 -0.0874229 0.02392445 -0.02615177
-0.1247209 0.027546108 -0.15205318 0.11509101 -0.027267672 0.07675256 -0.14110963 -0.1724346
0.05542655 -0.007926288 -0.14467874 0.19534664 0.09706361 -0.0028993 0.23116203 -0.013775311
-0.09084462 0.16372383 0.20548655 0.14141233 0.18658806 -0.11267075 -0.01685078 0.015096796
0.06599369 -0.13054766 -0.07479405 -0.044529684 -0.10659482 0.0040707854 -0.087783605 0.06415592
0.13429528 0.042866606 0.158293 0.041213162 -0.08893427 0.100949824 0.036605366 -0.11669986
-0.10184853 0.1745096 0.011020399 -0.06255461 0.0058511533 -0.012284882 -0.10730335 0.00035445273
-0.06469558 0.1261021 0.13485955 0.15738817 -0.043334983 -0.12058556 0.19185473 0.041919608
-0.037917893 -0.21679297 -0.027655553 0.08082877 -0.001938893 -0.0034073563 -0.0474862 -0.12971051
0.023185138 -0.017667972 -0.07093368 0.15992895 -0.15931572 -0.14189737 -0.024828363 -0.020960806
-0.09988861 -0.09258637 -0.12234786 0.0114170825 -0.0035888122 0.10124483 -0.12776032 -0.013998277
-0.038681798 -0.04118939 -0.0030041744 0.12864695 0.028413475 -0.09464606 0.0551557 -0.072536536
-0.17706591 0.05186209 -0.079506576 -0.17970766 -0.013059378 0.017608408 0.0036004938 0.17807418
-0.01653583 0.11054029 -0.05024164 0.16038069 0.043766297 -0.07182325 0.10798363 -0.11584532
0.053940084 -0.004943608 0.08545642 -0.15313333 0.031357486 -0.008470949 -0.11505007 -0.22376351
0.18095721 -0.0344422 -0.1762582 0.085840106 0.094450414 0.084679045 -0.12636508 0.110018514
-0.07710204 -0.11439651 0.12670131 -0.09647681 0.015960459 0.10513634 -0.09263775 -0.05495269
0.049273968 -0.010083167 -0.14151634 -0.14089859 -0.085163705 -0.023673523 -0.14898844 -0.016068524
0.13699393 -0.16549428 0.106138594 0.15562055 -0.028960463 -0.07696122 -0.058673866 -0.056033384
-0.07473291 0.034528382 -0.18278089 -0.14665148 -0.17962992 0.2599101 0.025647234 0.006508405
-0.1090733 -0.061711434 0.074015826 0.17955142 0.18977171 0.15669389 -0.02290419 -0.07998723
0.018048702 0.0025764788 0.075286515 -0.046654288 -0.11371585 -0.004924074 -0.026359113 -0.04948019
0.14689009 -0.0039795185 0.0993718 -0.07590324 0.09326961 -0.16592911 -0.060437523 -0.08245558
-0.006259145 0.006218493 0.08323532 -0.15759954 0.1642218 0.20625111 0.094841726 -0.15242617
-0.079239994 -0.14070836 -0.03170072 -0.13770619 0.051611345 0.026112843 0.06298382 -0.04605108
-0.12066444 0.035450805 -0.05704916 0.10315379 -0.051475402 -0.030899564 0.12639187 -0.017181976
-0.05729722 -0.15441614 -0.031388775 -0.062392112 -0.11312522 -0.071494296 -0.16429698 -0.070682056

layer3.bias f4 [20]
00000000: dd0c a7bd 1049 90bd cc40 1f3e 585e bbbc
00000010: 70d3 fd3c 9cb7 64bd 5c07 cc3d 72f1 dbbd
00000020: 1235 0f3e 2c67 2b3d cf14 c7bd de59 0e3e
00000030: 9862 b03d 1cd7 95bd ecdf 693d dce2 d93d
00000040: ca4e 72bd 6dc7 0ebe 24dc 49bd a30c 27be
-0.0815675 -0.070451856 0.15552062 -0.022872135 0.03098461 -0.055839166 0.09962341 -0.107394114
0.13985088 0.04184644 -0.09720766 0.13901469 0.08612555 -0.073164195 0.057098314 0.10638973
-0.05915717 -0.13943262 -0.049282208 -0.16313414

Bn_3.weight f4 [20]
00000000: 575e 813f 1296 813f a408 853f af01 833f
00000010: eb4f 833f bab2 793f 6d4c 7d3f 782c 873f
00000020: d65e 723f 5735 803f 9391 6d3f a9f1 733f
00000030: a3df 803f cd89 843f cd29 773f 4318 773f
00000040: d611 803f d916 7c3f d825 853f 1ede 7d3f
1.0106915 1.0123923 1.0393262 1.0234889 1.0258764 0.9753834 0.9894474 1.0560446
0.9467596 1.0016278 0.92800254 0.9529062 1.0068249 1.0354553 0.9654816 0.96521395
1.0005443 0.9847236 1.0402174 0.9916705

Bn_3.bias f4 [20]
00000000: 7d55 683c 4956 a03d 7da9 923d 8027 a83d
00000010: aeac d339 fb52 17bc ad92 68bb cb3a 9a3d
00000020: d2fa 363d 2876 5b3d 1ea3 2b3d 5dbe 56bd
00000030: 59f5 ca3b ea83 da3d 518c 93b9 3732 b03d
00000040: b379 3cbc 7c8f b63b 547a 333d b9eb 09bd
0.014180538 0.078289576 0.071612336 0.08210659 0.00040373713 -0.009236093 -0.0035487816 0.07530745
0.044672795 0.05357948 0.041903608 -0.05242764 0.0061937985 0.10669692 -0.0002814257 0.08603328
-0.011503625 0.005571304 0.043817833 -0.03367207

Bn_3.running_mean f4 [20]
00000000: a08a b9be 672b 08bd f2b2 f83e 9685 2ebe
00000010: c719 e3bd e0d2 86be 48d8 263d 1996 56be
00000020: beec bcbd 2e67 683e 099b 43be 196c 0a3e
00000030: b910 18be 2b54 7cbe d109 94be 31ee 103d
00000040: 0cbb 7fbe ec43 f3be 1c8c 88be 5002 05bf
-0.36238575 -0.033244517 0.48574024 -0.17043146 -0.11088901 -0.2633276 0.040733606 -0.20955695
-0.092248425 0.2269561 -0.1910211 0.13517798 -0.14850129 -0.24641483 -0.2891374 0.035383407
-0.24973696 -0.47512758 -0.26669395 -0.51956654

Bn_3.running_var f4 [20]
00000000: ba2b 8a3e 3ab0 9e3e 24b5 c83e 4642 5e3e
00000010: f4dc 603e 1ddb 953e d75d 943e d202 8a3e
00000020: 3aa8 483e ef96 b23e 6760 993e 5319 ac3e
00000030: 72d1 af3e 4262 953e f9d4 963e 9c04 873e
00000040: b9af b23e ac87 973e 8fdb 7c3e b161 863e
0.26986486 0.30993825 0.392007 0.21704969 0.21959287 0.29268733 0.28977844 0.26955277
0.19595423 0.34880778 0.29956362 0.3361307 0.34339482 0.29176527 0.2945936 0.26370704
0.3489969 0.29595697 0.2469313 0.26246408

layer4.weight f4 [40, 20]
00000000: 1dfa 543e 2ea1 ffbc 653a 133e 7312 303e
00000010: adae 613d 8bdf 43be 439e f5bd 03ba c2bc
00000020: 2bce 3d3e 7715 f2bd b279 f8bc bc51 b9bd
00000030: 1493 363e 7250 48bd 25b5 cbbc e466 c13d
00000040: 245d 3c3e 080d 30be 4df9 75be 52ea 5ebe
00000050: a894 e83d 90ae b33c 32a0 febd 8df2 953d
00000060: ac48 f5bd c2d3 a1bd f5c9 24be b9d8 06bd
00000070: 2da7 d8bd 2cde 21bd 34e8 5cba 2169 13be
00000080: be4e 853e 0aba 08be 86f9 e1bd 8b3b 883d
00000090: 6db5 53bd 7c06 363e fe2b 22be 5edd 9bbd
000000a0: 43e2 5dbe 6d7c b63d 0495 31bd 8c77 28be
000000b0: 3c12 2d3e ae33 163d 8c52 00be 0be4 6dbe
000000c0: fe71 27be 4889 7dbd 24c3 573d 6f91 113e
000000d0: 1773 23be 278a af3b 05e2 553d 4324 f63d
000000e0: 72ab 073d 5a18 b9bc 1f85 443e 05b2 9fbd
000000f0: a5e7 f5bd 07ca ba3d 00ec e63b 75b9 1d3e
00000100: 2eda 2cbe bae1 c9bc a77f 47be 4355 423e
00000110: 0aaa 66be 0d5e 243e cbf8 5cbe bebf b5bd
00000120: e2dc f03c 06de 15be 7519 5e3d ddfa 34be
00000130: de26 c6bd bce0 9e3d 2792 5b3e 6c0b 5dbe
00000140: 3135 a1bd db0f 0ebe 6dca 073e 95aa 40bd
00000150: da00 c63d c354 473e ab2c 3dbd 5a24 ccbd
00000160: 2c6c 51be 21e1 75bc df87 81bd cfdd 70bc
00000170: ff05 be3c 16b6 00be 17d6 a1bd 1f8d f0bc
00000180: 1a10 a0bc f6d7 ddbc a803 40be a65e ebbd
00000190: b0d1 37bd 2a6b edbd 26d3 853d 1ed7 e2bd
000001a0: c31b 573d 16c8 c73d fa9c 11be 38a0 973e
000001b0: 81f6 26be e87f 16be 7f6b 883d 00d5 3b3d
000001c0: 5145 9dbd f552 97bd 17bb 00bd b137 28be
000001d0: 7299 44be 807f cb3d b2a5 2bbe 7c1c 41be
000001e0: 4d6d fcbb 19cb 2f3e fe7b f23b 9e42 89bd
000001f0: 7fb4 903d feff 00be 2ee0 09be 6ac6 52bd
00000200: 7ff3 0e3e ca50 1cbe bb09 2a3d 110f f9bd
00000210: b54e 81bd c4d2 223d a042 49be 3d0d f5bd
00000220: 993c e4bd 1560 dabd 51f9 22bc 06db 8fbd
00000230: 7b81 593d 022e 83bc aaad 52be 47aa 793d
00000240: 3ae8 f6bd b90e 6bbe 1945 2ebd 74ab 28be
00000250: f23d 2e3e c2dc 3dbd 868e 87bc 3974 933d
00000260: 480c ea3d c508 343e 16de e9bc 425e a83d
00000270: 952e 133e 2372 723e d0e8 4fbd e7c8 2b3d
00000280: 6d25 2c3e c2d1 70be bf42 b5bc fea2 56bd
00000290: 1379 773e a981 5f3e efb6 dfbd 91fb 253e
000002a0: 4e36 233e df38 90bd 5a88 343d 4ca0 e43d
000002b0: 51d1 5abd e41f a6bd d909 383e 5826 ac3d
000002c0: 4a9a 82bd 6b61 dc3d 38ab 4cbe 0cc8 553e
000002d0: cab1 e3bc 5a97 b1bc e622 043c 16be 543d
000002e0: 2172 8d3e a903 033e ac39 39bc 1d61 82be
000002f0: 65f7 d73b 2136 433c a259 1d3e c007 97bd
00000300: b8e3 fabd b525 cb3d c8f3 1ebd 5300 d3bc
00000310: 7d7b 3c3e de8a f33c 4bc5 e1bd 08dd 823d
00000320: b1a3 a6bd b166 153d d778 293e 3f26 8b3e
00000330: 8821 333e b6c8 33be 7789 47be a1fb 8c3d
00000340: d05d 053d 94e3 0a3e 2f98 8e3d 44d6 d7bb
00000350: f556 19bc 87a9 58be 7746 b03d b553 14be
00000360: 1fc3 f9bd d3c1 37be a377 4f3e bc8e 503e
00000370: 8ea0 43bc 2eb0 e03c 03da c83d 8ec0 eabd
00000380: ab82 203e d867 f1bd f9bf 173d c5a9 49be
00000390: 505e 7c3b 3ede 633e 0fbb 78bd 1602 6e3e
000003a0: 8c24 0bbe 8a1d a6bd 553d b4bd b1b7 4b3e
000003b0: 98a5 603e 06f4 233e 5b18 3fbe c950 893d
000003c0: 2f1b cebd 70c5 a8bd 6a11 083e 49ba 4cbd
000003d0: 3981 eabd 63ef d83d 6568 a5bd 696a cd3a
000003e0: 6c74 0d3e bce6 6ebe 1ac6 e8bd 0349 16be
000003f0: 46e6 52be cfe2 283c e30d 12bc 3334 063e
0.20798536 -0.031204786 0.14377744 0.17194538 0.055098224 -0.19128244 -0.11993077 -0.023770338
0.18535678 -0.118205 -0.030331466 -0.09048793 0.17829543 -0.048904844 -0.02486665 0.09443453
0.18394905 -0.17192471 -0.24020882 -0.21769074 0.11356479 0.021933824 -0.124328986 0.073216535
-0.11976752 -0.07901718 -0.16092665 -0.032921527 -0.10578761 -0.03951852 -0.0008426935 -0.14395572
0.26036638 -0.13352218 -0.11033921 0.06651982 -0.051686693 0.17775911 -0.15837094 -0.07610582
-0.21668343 0.08910451 -0.043355003 -0.16451854 0.16901487 0.03667038 -0.12531489 -0.23231523
-0.16352078 -0.0618985 0.052676335 0.14215635 -0.15961872 0.005357045 0.052217502 0.12018635
0.033122487 -0.02259462 0.19191407 -0.077976264 -0.12007073 0.09120565 0.0070471764 0.15402777
-0.16880104 -0.024643768 -0.19482289 0.18977837 -0.22525802 0.16051503 -0.21579282 -0.088744625
0.0294022 -0.14635476 0.054223496 -0.17673822 -0.09675382 0.077577084 0.21442471 -0.21586388
-0.078714736 -0.13873236 0.13260813 -0.04703768 0.09668131 0.19465928 -0.046185177 -0.09967871
-0.2045142 -0.015007288 -0.063247435 -0.014701321 0.023196219 -0.1256946 -0.079021625 -0.029364167
-0.019538928 -0.027080517 -0.18751395 -0.11492662 -0.044877708 -0.115927055 0.06534414 -0.110761866
0.05251671 0.0975496 -0.14220038 0.29614425 -0.16304971 -0.1469723 0.06661128 0.04585743
-0.07679237 -0.0738887 -0.031428423 -0.16427495 -0.1919916 0.09936428 -0.16762426 -0.18858522
-0.0077034594 0.1716732 0.007400035 -0.06702159 0.07065677 -0.12597653 -0.13464424 -0.051458754
0.13960074 -0.15265194 0.041513186 -0.12161077 -0.0631384 0.039751783 -0.19654322 -0.119654156
-0.111443706 -0.106628574 -0.009947137 -0.07024197 0.053101998 -0.01601315 -0.2057406 0.060953405
-0.120560125 -0.22954835 -0.042546365 -0.16471654 0.17015818 -0.04635311 -0.016547453 0.07199902
0.11428124 0.1758147 -0.028548282 0.08221103 0.14373238 0.23676352 -0.050759137 0.041939642
0.16811152 -0.23517516 -0.022126554 -0.052401535 0.2416728 0.21826805 -0.10923564 0.16209246
0.15938684 -0.07042097 0.044075347 0.11163387 -0.053422276 -0.081115514 0.17972507 0.08405751
-0.063770846 0.107607685 -0.1998719 0.20877093 -0.027794737 -0.021678615 0.008064961 0.051939093
0.27626136 0.12794365 -0.011305254 -0.25464717 0.006590771 0.011914761 0.15366223 -0.07374525
-0.12250465 0.099193014 -0.038806707 -0.02575699 0.18406482 0.029729303 -0.11023959 0.063898146
-0.081366904 0.036474887 0.16550003 0.27177617 0.1749326 -0.17557034 -0.19486032 0.06883932
0.03256017 0.13563377 0.069626205 -0.0065868217 -0.009359111 -0.2115842 0.0860719 -0.14485057
-0.121954195 -0.17945032 0.20260482 0.20366949 -0.011940135 0.027427759 0.098072074 -0.11462508
0.15674846 -0.11787385 0.037048314 -0.19693668 0.0038508363 0.22252747 -0.060725268 0.23242983
-0.1358816 -0.08111103 -0.08800761 0.19894291 0.21938169 0.16011056 -0.18661635 0.06704862
-0.100637786 -0.08240783 0.13287893 -0.049982343 -0.114504285 0.105925344 -0.08076552 0.0015671971
0.13813943 -0.23330206 -0.1136591 -0.1467629 -0.20595655 0.010307982 -0.008914444 0.1310585

layer4.bias f4 [40]
00000000: 963c 3f3e 7ef3 c4bd 80b0 93bb 3088 08bc
00000010: 9054 5cbe 22fb 2f3e b4d7 27be d452 e53d
00000020: c0fc 8a3b 80e5 b6bd bc77 cc3d d8b9 4b3e
00000030: 5228 303e 269a 423e a0dd ea3d c854 77bd
00000040: 1611 cbbd 3b47 54be 2e82 313e aa60 b7bd
00000050: 000c d33d 229b 163e 409b 083b 480f df3d
00000060: 22d6 4d3e ce8b 2ebe 8460 d83d 0039 e83c
00000070: 44b2 32be e1d1 17be 307a 343e 50c8 03be
00000080: 6ff8 1cbe 4454 da3d fc44 5abd 3ac8 83bd
00000090: 6208 02be cade 3fbe fabd 3c3e 2043 603e
0.18675455 -0.09616755 -0.0045071244 -0.008333251 -0.21516633 0.17185643 -0.16390878 0.11197439
0.004241556 -0.089304924 0.09983775 0.19895113 0.17202881 0.19004115 0.11468053 -0.060383588
-0.09915368 -0.20730297 0.17334816 -0.08953984 0.10305023 0.14707616 0.002084449 0.108915865
0.20101216 -0.17045519 0.10565284 0.028347492 -0.17450815 -0.14826156 0.17624736 -0.12869382
-0.15329145 0.10660604 -0.053288445 -0.064346746 -0.1269851 -0.18737331 0.18431845 0.21900606

Bn_4.weight f4 [40]
00000000: 285b 7e3f 1c11 803f ef9a 7a3f 75d6 833f
00000010: b088 813f 685e 7e3f e241 853f 7600 7f3f
00000020: 852f 803f 3081 793f 1767 7f3f 2aa3 7c3f
00000030: 63ad 7f3f 4a00 813f 6479 7b3f 1e85 813f
00000040: c598 7f3f b69b 813f 27cb 7c3f 60e1 783f
00000050: 4052 803f fc4f 7e3f 2fc0 7c3f c4d4 803f
00000060: 0e34 7c3f 5bda 7c3f f6e3 803f 6307 813f
00000070: db9d 7f3f 4503 7c3f f787 803f 227f 813f
00000080: 368b 7f3f 8afa 813f a305 7a3f 12fb 813f
00000090: 1861 7f3f ac0f 7e3f a8b4 7f3f a97f 803f
0.99357843 1.0005221 0.9789266 1.0299822 1.0119839 0.993628 1.0410731 0.9961008
1.0014502 0.9746275 0.9976668 0.9868647 0.9987394 1.0078213 0.982321 1.0118749
0.9984248 1.0125644 0.98747486 0.97218895 1.0025101 0.99340796 0.9873075 1.0064931
0.9851693 0.98770684 1.0069568 1.0080379 0.99850243 0.9844249 1.0041493 1.0116923
0.99821794 1.0154583 0.9766485 1.0154746 0.9975753 0.99242663 0.99885035 1.0038959

Bn_4.bias f4 [40]
00000000: 60e4 033d ae65 ab3b 6587 a13c bc45 843c
00000010: 2cfc 26bc fb34 4cbc 6dca 3f3d 0e0f 323d
00000020: 9993 803d 60a6 c33c 64cd bd3c 55b8 193d
00000030: 794c 2f3c 576a 153c 7ec3 dabc 388c af3d
00000040: 31bd ac3c 389c b93b fe09 8b3c 5912 ddbb
00000050: b554 c53c 506f ec3c 086c d73c 82be 163d
00000060: f939 003d 00ec b43c 44b1 213c 059b 0dbc
00000070: 3386 5a3d 0164 7d3c 3762 4b3d b538 593d
00000080: 7aa4 d33c 3c56 ad3d 6435 b33c a4cf 1f3d
00000090: dc26 2b3d 93ac 023d b98b 723d 3451 6e3c
0.032200217 0.005230627 0.019717881 0.016146533 -0.010191958 -0.012463803 0.046823908 0.04347139
0.06278152 0.023883045 0.023169227 0.03752931 0.010699385 0.009119592 -0.026704546 0.085716665
0.021086307 0.0056643747 0.016972538 -0.006746572 0.024088243 0.028861672 0.02629663 0.036802776
0.031305287 0.02208519 0.009868924 -0.008642917 0.05335064 0.015465737 0.04965421 0.053032596
0.025835264 0.084637135 0.021876045 0.03901638 0.041785106 0.03190286 0.05921528 0.0145457275

Bn_4.running_mean f4 [40]
00000000: 2f94 2d3e 868b acbe 3dae 2dbe 5d7e 7dbe
00000010: b276 11bf 9a97 3cbe 579a fdbe 556a 4c3e
00000020: 69a0 953e 3e4a cc3c 6b44 773e 2740 ac3e
00000030: 818b 80bd 4a1b 7c3d 84f1 83be d0d6 86be
00000040: 0d69 9cbe 62cf febe a681 0d3f 655c 7fbd
00000050: 33cc fa3c 91aa 94bc 6a92 6c3b c1b3 e9bd
00000060: c60c 953e c98a 7bbe 593f 00be a310 b5be
00000070: c971 483c efc2 eebe 3e18 c33e e948 b9bd
00000080: d21c 01bf 138c 453e d40f 9d3e d282 cbbe
00000090: fdd2 c6be 17d2 8fbe 61c4 a43e 538a c5bd
0.16951059 -0.33700198 -0.16960998 -0.24755235 -0.5682174 -0.18417206 -0.49531814 0.19962437
0.29223946 0.024937745 0.24147193 0.33642694 -0.06276608 0.061549462 -0.257702 -0.26335764
-0.30548897 -0.49767596 0.5527595 -0.062343974 0.030614948 -0.018147739 0.0036098012 -0.114112385
0.29111308 -0.24564661 -0.12524165 -0.35364255 0.01223416 -0.46633098 0.38104433 -0.0904711
-0.504346 0.19291715 0.30676138 -0.39748245 -0.38832846 -0.28089973 0.32181075 -0.09645524

Bn_4.running_var f4 [40]
00000000: aa08 943e 1933 4e3e bf8d 743e f783 a23e
00000010: e888 113e 9131 523e 7ea8 513e 67a7 673e
00000020: 4e60 8b3e c9e4 2d3e 83b1 793e 815a 9b3e
00000030: 7693 283e 85b2 623e 6084 843e 46ad 833e
00000040: fae3 243e 3907 803e 9535 4b3e d901 a13e
00000050: d6fe 1d3e af35 573e 01ea 2c3e 13a2 353e
00000060: 118d 863e 8d30 8b3e cfce 573e 1737 063e
00000070: 1568 8a3e 181b 813e 0ce7 8c3e 1def 113e
00000080: 9248 743e 6333 6e3e a386 433e beaa 9d3e
00000090: 2c47 923e 9e93 423e 2b1f 943e 1d64 573e
0.2891286 0.2013668 0.23882197 0.31741306 0.14212382 0.2052672 0.20474431 0.22622453
0.27221912 0.16981806 0.24384122 0.30342487 0.16462502 0.22138412 0.25882244 0.25718135
0.16102591 0.2500551 0.19844659 0.31446722 0.15429243 0.21016572 0.1688614 0.17737608
0.262795 0.2718548 0.21074985 0.13106953 0.27032533 0.25215983 0.27520025 0.1425137
0.23855808 0.2326179 0.19094329 0.30794328 0.28569925 0.19001624 0.2893003 0.21034284

layer5.weight f4 [10, 40]
00000000: 2190 8b3d 77d9 8a3d bbb3 e3bc 5c73 d73b
00000010: 145e 94bd abcb c1bd 7395 3ebd 5efb 293a
00000020: 779d 4bbd 1d93 38bc 0850 c63c 824c 17bd
00000030: 163e 8ebd d7c2 94bd a54a b2bd 6cb1 06be
00000040: 403c 8fbd 3bf8 91bd eb67 bebd f407 afbd
00000050: 7d54 b13c 70dc 86bd f77c eabd 6136 c2bb
00000060: 5493 083c 04e3 cfbc 0586 753d db5b 38bd
00000070: 9aa8 b8bd ea82 793d dafa dbbd a37e cdbd
00000080: b70a 27be 134c 47bd dec8 8bbd d904 05be
00000090: 3a89 a3bd d02a 873b 7c38 aa3d 05c1 b93d
000000a0: 88cd fcbd 6066 aabd adeb 5dbc 1020 023e
000000b0: 5b40 0dbe d96f 423d 7d63 a1bd 2a1e 0c3d
000000c0: 8bc5 b0bd 69b0 9fbd 6685 273d 8178 c9bd
000000d0: 22a7 9d3d c311 ea3d b80c 173e 1a63 423d
000000e0: 85bd c3bd f17b e7bd 35ef 9d3c 8274 653d
000000f0: f94e 973d 23a7 11be ec6d d4bd 07b8 603d
00000100: 0d84 88bd 4946 23be 3a37 b5bd a752 4e3d
00000110: 0f47 ccbc 3d53 adbd 1720 c0bd ed86 2cbe
00000120: c75b d3bd 2ec5 66bd 47b8 4a3d 0a66 6f3c
00000130: f678 c43c a5fa 12be 0be7 a9bd d95b 1cbe
00000140: f6c5 2e3d d34b 68bd 6c00 91bd 9355 0a3e
00000150: d4f4 4a3d 68c3 533d c3d8 a53d 03a7 25be
00000160: 66ca e5bd 4e81 bebd 21e5 a83d 4726 10bc
00000170: e2b2 643d 64c5 f6bd 69e8 e1bd 5259 013d
00000180: f228 8ebd 5661 8b3d 51ad ba3c f770 e2bd
00000190: cdea edbd 92da 103e d203 153d f196 c0bd
000001a0: 16d1 843d 3892 0dbe fb06 02be e33f 253d
000001b0: d511 1b3d 102c 00be 74e5 fdba cf29 90bd
000001c0: ca73 013e 7641 05be 72b6 32bd 8f5d 37be
000001d0: c0ad 08be dff0 2f3d 86b8 a2bc aac9 823d
000001e0: e643 233c 3277 df3d 2163 82bd 524e a7bd
000001f0: 4af1 1fbe 2846 99bd 8d5b b53d e6fc fc3d
00000200: 137b 85bd a826 9dbd afd0 f3bd 9995 47bd
00000210: 0825 f6bd 671e 0a3e 141a 893c 83aa 6a3d
00000220: b559 c4bd 5659 033e 7c2f c8bd 9e4f 7abc
00000230: 951c 1dbe 43d6 a8bc 722f 793d bccf 09be
00000240: 17ab 2b3d 4f83 313d 79b5 06bd bf00 ae3c
00000250: b44b 80bd d6d1 b53d 6b01 343d 26fb dd3d
00000260: 969f ccbc 7c6f aabd 16d2 103d d62f 553d
00000270: 495a 28bc ab18 d1bd f5e1 f53c 29fa 1cbe
00000280: 30d2 1fbe 8f83 b8bc 40a0 b13d 8c31 b23d
00000290: 2ac6 35bd cca8 52bc e84f 77be dc7c d53c
000002a0: 72a6 363d 4bfd 09be ea36 f7ba eb96 7c3d
000002b0: 64c1 c7bd 2b40 94bd 2054 31bb a53e bb3d
000002c0: c95f 09be b891 4e3d 6992 abbd 0421 afbd
000002d0: ea75 853d 3287 0dbd 060e dc3b 89be 02bd
000002e0: 0735 a5bc 350c 7b3d 895d 003e df3e 0cbc
000002f0: c519 e8bd 7f87 debd 281b b7bd 48c4 963d
00000300: 86e6 783d c84a 1a3e 5f8f 5dbd ced7 28be
00000310: 4569 163e 7345 c43d 1b2a 403d 6d39 183e
00000320: 0a09 b9bd 6d2e 01be 4899 ec3d 1042 2ebe
00000330: 299f 653c b5b2 553b 856f 023e 71d1 c5bd
00000340: e2e2 2a3d 8106 a23d 84ef 353d c9d7 4ebc
00000350: 232e 0fbe f710 64bd 20ab 9e3c 2505 31be
00000360: 5770 dbbd da24 04bd 8101 3cbd bb47 86bd
00000370: 25de 013d c1d4 423d e918 073e 6a48 c53d
00000380: fb46 02bd 12cf d1bd 9d1c 52bd 8876 a63d
00000390: 2b59 33be c212 113e 902d fdbc ad8b 04bd
000003a0: 636d 1f3c ecec 02be e55c 343d e322 c93d
000003b0: ab54 b13d e3d2 8c3d e12e 13bd 7005 c3bb
000003c0: 6538 16bd 0f30 953d 32b2 9cbc 2e92 513d
000003d0: 4a57 343e 2ff1 e93d 4194 d2bd 77e8 20be
000003e0: be77 c6b8 5f65 1fbd e1e9 f1bd c85b 55bd
000003f0: d7d6 2e3c 2788 53bd b669 c3bc 2d1e a2bc
0.068146 0.067797594 -0.027795663 0.006575031 -0.072445065 -0.09462675 -0.046529245 0.0006484295
-0.049710717 -0.011265543 0.024208084 -0.036938198 -0.06945436 -0.07263725 -0.087056436 -0.13153619
-0.06993914 -0.07127424 -0.092971645 -0.08546439 0.021646732 -0.06585014 -0.114496164 -0.0059268926
0.008335907 -0.025376804 0.059942264 -0.045009475 -0.09016533 0.060915865 -0.107412055 -0.1003392
-0.16312681 -0.048656534 -0.06825422 -0.1299013 -0.07985158 0.0041249767 0.08311555 0.09070019
-0.123438895 -0.08320308 -0.013544959 0.12707543 -0.13794081 0.047469947 -0.07880304 0.034208454
-0.08631428 -0.077973194 0.040898703 -0.098374374 0.07697894 0.11429169 0.14750946 0.047457792
-0.09557632 -0.11302937 0.019279102 0.056019314 0.0738811 -0.14223914 -0.103725284 0.054863002
-0.06665812 -0.1594478 -0.08848424 0.050371792 -0.024936227 -0.08463142 -0.09381121 -0.16848345
-0.103202395 -0.05634039 0.049492147 0.01461173 0.02398346 -0.14353426 -0.08296021 -0.15269412
0.04266926 -0.056712937 -0.070801586 0.13509206 0.049549893 0.051700026 0.08097985 -0.16176991
-0.11220245 -0.09302007 0.08246828 -0.0087981885 0.05583466 -0.12049368 -0.11030657 0.031579323
-0.069414034 0.06805675 0.022787722 -0.110567026 -0.1161705 0.14145878 0.036380596 -0.0940379
0.064851925 -0.1382531 -0.12697975 0.04034413 0.037858803 -0.12516809 -0.001937075 -0.07039224
0.12641826 -0.13013253 -0.043631025 -0.17906784 -0.1334753 0.042954322 -0.019863378 0.063861206
0.009964919 0.109114066 -0.063665636 -0.08169235 -0.15619388 -0.07484084 0.088553526 0.12352924
-0.06517615 -0.07673389 -0.119050376 -0.04872665 -0.12018782 0.1348816 0.016736068 0.05729152
-0.09587423 0.12827048 -0.09774682 -0.015277771 -0.15342934 -0.02060998 0.060836263 -0.1345815
0.04191121 0.043338116 -0.03288791 0.02124059 -0.06264439 0.08877914 0.043946665 0.108389184
-0.02497844 -0.08322045 0.035356604 0.052047573 -0.010275432 -0.10209783 0.030014971 -0.15329804
-0.15607524 -0.02252367 0.086731434 0.087008566 -0.044378437 -0.012857627 -0.24151576 0.026060514
0.04459233 -0.1347553 -0.001886097 0.061667364 -0.09753683 -0.072388016 -0.00270582 0.09142808
-0.13415445 0.050431937 -0.08377535 -0.08551219 0.06516631 -0.03455276 0.006715539 -0.03191999
-0.020166887 0.06129094 0.12535681 -0.0085599115 -0.1133304 -0.108656876 -0.089407265 0.073616564
0.06076672 0.1506759 -0.054091807 -0.16488573 0.14688595 0.09583559 0.046915155 0.14865656
-0.09034927 -0.12615366 0.115526736 -0.17017388 0.0140149975 0.0032607738 0.12737854 -0.096590884
0.04172028 0.07911397 0.044417873 -0.012624689 -0.13982444 -0.05568024 0.019368708 -0.17287119
-0.107147865 -0.032261707 -0.04589987 -0.0655665 0.031705994 0.04756618 0.13193096 0.096329525
-0.031805974 -0.10244574 -0.05129682 0.08128077 -0.17514484 0.14167312 -0.030905515 -0.032359768
0.00973067 -0.12785691 0.044033904 0.09821107 0.08658727 0.06876161 -0.03593338 -0.005951576
-0.036674876 0.07284557 -0.019127939 0.0511648 0.17611423 0.11422955 -0.102821834 -0.15713678
-9.4636795e-05 -0.038915034 -0.11812187 -0.052089483 0.010671339 -0.051643517 -0.023854118 -0.01978978

layer5.bias f4 [10]
00000000: 9406 5d3d 0a7c 20be 4c3d e6bd bc26 09be
00000010: 2f58 1dbe 205b cdbb 78d1 ce3c a4bb 48bd
00000020: 0054 65ba 1c17 503d
0.05396135 -0.15672317 -0.1124216 -0.13393682 -0.1536567 -0.0062669665 0.025246367 -0.049007073
-0.0008748174 0.05080329

Bn_5.weight f4 [10]
00000000: 0dbe 833f 04cc 923f 3f13 933f c0bb 8f3f
00000010: 5e16 8f3f a29f 8b3f e66d 8e3f d823 8d3f
00000020: bd13 893f 0ab5 843f
1.0292374 1.1468511 1.1490248 1.1229172 1.1178701 1.0908091 1.1127288 1.1026564
1.0709149 1.0367749

Bn_5.bias f4 [10]
00000000: 4ade 1f3e 6ce9 653b 93ae 0b3d 7866 a83d
00000010: 1b2b cc3d e8ae f83d 52e9 343d b49c e63d
00000020: 1477 c33d dd8d 2f3e
0.1561214 0.0035081757 0.034102034 0.08222669 0.09969159 0.12142736 0.044167824 0.112603575
0.09544197 0.1714396

Bn_5.running_mean f4 [10]
00000000: 4c6b 12bf 3fbc 38bf 6919 f3be f259 bbbe
00000010: f500 87be 998e 39be 1dad 5bbe ebf8 11be
00000020: f3c0 15bf 0327 27be
-0.5719497 -0.7216224 -0.47480324 -0.3659206 -0.26367918 -0.18120803 -0.21452756 -0.14255111
-0.5849754 -0.16323476

Bn_5.running_var f4 [10]
00000000: 13f7 4a3e 43eb c13e 38bb cf3e 270d b73e
00000010: 3d61 e13e 57d7 c43e 63f3 d53e 7688 ec3e
00000020: 4d14 aa3e 678b bd3e
0.19820814 0.37874803 0.40572524 0.35752222 0.440195 0.3844554 0.41787252 0.4619786
0.33218613 0.37020418
