406-jyb/week7/cnn.pth (torch, 210239 bytes, 5 tensors)

weight f4 [2520, 20]
000000 18 7a 14 3f 30 3b 78 bf 80 86 33 bf 7e b0 a4 be
       0.579988 -0.9696531 -0.70127106 -0.32165903
000010 a0 42 92 bf ca 52 7a 3f a3 c6 2f 40 06 bf aa bf
       -1.1426582 0.97782576 2.7464988 -1.3339546
000020 d0 89 9a be 7b 0a c7 3f 22 59 cd 3e 10 2c e6 bd
       -0.30183268 1.5550073 0.40107065 -0.11238873
000030 6c f2 31 bf 77 7c 9c 3d d5 d6 f9 bd 1a f1 c9 3f
       -0.6951053 0.07640927 -0.12199179 1.5776703
000040 23 a2 3b bf 19 86 78 3f b9 48 ba 3e a5 89 1f bf
       -0.73294276 0.97079617 0.36383608 -0.62319404
000050 dd d6 8e 3f c6 ff 49 bf 3a 79 b2 3e 94 17 5d bf
       1.1159321 -0.78905904 0.34858114 -0.863641
000060 b0 b2 9e 3e af 10 dd be 75 8c 0b bf 6f 3b 85 3f
       0.30995703 -0.4317679 -0.54511195 1.0408763
000070 1c 10 a2 bf 04 18 f1 be 29 1a 00 40 2d ce 62 be
       -1.2661166 -0.47088635 2.0015967 -0.22148962
000080 15 39 ed bf cb c1 2f bf 14 34 2a 3f a4 68 32 bf
       -1.8533045 -0.6865508 0.66485715 -0.6969092
000090 0e 71 72 bf d2 bd c7 3f 5d 1b a3 bf a9 b9 3a 3f
       -0.9470376 1.5604804 -1.2742726 0.72939545
0000a0 02 00 aa bf e3 0c 66 bf 76 e1 5a bf 44 be cb 3e
       -1.3281252 -0.89863414 -0.85500276 0.397936
0000b0 86 09 24 40 95 dd d3 bf 93 4a dc bf c0 38 9e bf
       2.5630813 -1.6551996 -1.7210258 -1.2361069
0000c0 b3 7e a6 bd 17 a2 d6 3f 97 08 db 3e 9a 84 0a 3f
       -0.08129635 1.6768216 0.4277999 0.54108584
0000d0 c0 ad 9f 3f 12 9c b9 bf d8 54 d6 bd 7d 0e 9b 3e
       1.2474899 -1.4500754 -0.104654014 0.3028449
0000e0 e2 8c 05 c0 37 f8 b3 bf 09 f2 93 bf 89 42 61 3f
       -2.0867238 -1.4060124 -1.1558238 0.8799215
0000f0 1e df c4 bf 2b e4 cc bf 7f 55 d8 3d dd 9c e6 be
       -1.538059 -1.6007131 0.10563182 -0.45041552
000100 8a b7 9e bf f7 99 32 bf 6f 82 5d bd cc 04 56 3d
       -1.2399762 -0.6976618 -0.05407947 0.05225067
000110 8e 19 bd be b1 fa 59 be dd e1 cc be fb 69 1a 3f
       -0.3693356 -0.21287037 -0.4001607 0.60317963
000120 d0 ab 8c 3e 34 e2 84 bd 37 39 cc bc 0e 55 eb bf
       0.27474833 -0.06488457 -0.024929626 -1.8385332
000130 b5 c5 0f c0 fe 82 f2 3f f5 4e da bf 45 c4 8a 3f
       -2.246442 1.8946226 -1.7055346 1.0841147
000140 ef ef 12 3f 4b cb 24 bf 62 c7 35 bf 56 c9 51 3f
       0.5739736 -0.643727 -0.7100736 0.8194784
000150 2a 28 5f 3f dd 09 5a 3d 3c 13 30 c0 70 4c b5 bf
       0.8717066 0.053232063 -2.751174 -1.4163952
000160 b3 70 05 3f 78 cd e0 be 3a 81 59 3f bd f4 31 3f
       0.5212509 -0.4390676 0.8496281 0.69514066
000170 7a 10 c2 3e d5 32 64 bf b0 f6 9b bd ec 9e 06 3e
       0.37903196 -0.89140064 -0.07615411 0.13146561
000180 cb f8 13 3f d5 b0 0b 3f cd c6 bf 3d a9 df c8 bf
       0.578015 0.545667 0.0936409 -1.5693256
000190 4e ac 09 3f d2 4f 67 bf 73 cc e8 3e dc 54 1c 3f
       0.5377854 -0.9035617 0.45468482 0.61066985
0001a0 83 bc 6a bf e6 59 6a bf 22 12 88 3f be e0 cc bf
       -0.91693896 -0.91543424 1.0630534 -1.6006086
0001b0 2f cd 9f 3f 40 14 ab 3f 51 52 62 be a0 1b a3 bf
       1.2484492 1.3365555 -0.22101714 -1.2742805
0001c0 8a e8 77 bf ce dc 03 40 fd 75 ae be d7 a6 9a bf
       -0.968392 2.0603518 -0.34074393 -1.2082165
0001d0 5a a6 21 3e 47 b9 86 bd 42 49 0b 3f f2 d4 93 3f
       0.15786114 -0.065783076 0.5440866 1.1549361
0001e0 03 9a e1 bf 71 9a 1d 3f a9 15 69 bf bc 2b b6 3f
       -1.7625126 0.61563784 -0.91048676 1.4232097
0001f0 09 1c 01 bf a0 d0 b4 bf d6 3b 12 be 02 06 c9 be
       -0.50433403 -1.4126167 -0.14280638 -0.39262396
000200 47 6e 50 bf 09 e0 7d bf ac fe d6 3e c6 7a 29 3e
       -0.8141827 -0.99169976 0.41991174 0.1655074
000210 36 96 13 bf fd 9a b3 3e 2b 14 e7 be 35 bf 81 3c
       -0.5765108 0.35079184 -0.45132574 0.015838245
000220 a6 2a b8 bf 3f 86 bb 3f 3a bd a5 3f 71 d3 6a bc
       -1.4388015 1.4650344 1.2948372 -0.014332638
000230 bd a0 82 bd 33 98 d2 bf 34 f3 42 bf c5 2b d6 3f
       -0.06378315 -1.6452698 -0.7615235 1.6732107
000240 fa d4 44 bf 9b 1b 3b 3e b4 f4 20 3f b4 1f 7c bf
       -0.76887476 0.1827225 0.6287339 -0.98485875
000250 9a 99 7a be d9 eb 27 3f db 36 be 3f 81 a1 31 be
       -0.24472657 0.6559425 1.486049 -0.17346765
000260 79 6d 6f bb fc 24 a9 3e 9c e0 cc bc 31 bc dd be
       -0.0036533757 0.3303603 -0.025009446 -0.4330764
000270 7c e0 1e 3f a4 4a 99 3f 00 9e 3d c0 51 f9 40 3f
       0.62061286 1.1975904 -2.9627686 0.75380427
000280 72 8a 40 bf f3 cb 7b 3f 72 6c ae bf 23 5a fb be
       -0.7521125 0.98358077 -1.3626845 -0.49092206
000290 87 16 23 3e ee 53 47 bf f3 09 7a 3f 2f 8e be be
       0.15926562 -0.7786244 0.9767143 -0.37217852
0002a0 19 d3 36 3c e8 48 c2 3f fd f7 7c bd e5 68 48 bf
       0.011158728 1.5178499 -0.061759938 -0.78285056
0002b0 20 ac b2 3f a8 30 c4 3e 6b 15 83 be f3 16 da 3f
       1.3958778 0.38318372 -0.25602278 1.7038254
0002c0 7f e8 33 3f 48 71 d2 bf 65 47 7d bf c7 74 59 3f
       0.70276636 -1.6440821 -0.98937064 0.84943813
0002d0 63 c4 32 be 50 50 0b bf 28 b3 3d bf f9 2c 85 3f
       -0.17457728 -0.5441942 -0.74101496 1.040435
0002e0 d9 1b a4 3f 8e b3 f2 be 72 2f 9c bf 5d 05 f4 be
       1.2820998 -0.47402614 -1.2201979 -0.47660342
0002f0 7b 10 90 bf f4 95 a2 3f 7a 62 e9 3f 57 7e 73 3e
       -1.125503 1.2702012 1.8233178 0.23778664
000300 51 33 80 3e 24 b3 3c be 13 7e 1c bf e9 a2 26 3f
       0.2503915 -0.18427712 -0.61129874 0.6509233
000310 26 06 08 bf 82 e4 0f 40 e7 7c e9 bc e2 50 49 3f
       -0.5313438 2.248322 -0.02850194 0.7863904
000320 25 11 e2 3e b8 13 11 40 bf ed e3 3e eb 78 ac be
       0.44153705 2.2668285 0.44517323 -0.33686003
000330 d5 9b 7a be 60 29 50 3f 6e 65 32 be 1c b9 28 bf
       -0.24473508 0.81313133 -0.17421505 -0.65907454
000340 6f 26 00 40 38 d0 e8 be 31 47 bc bf 94 cf a4 bf
       2.0023458 -0.45471358 -1.4709226 -1.2875848
000350 60 6c 0b bf 40 c0 e2 be 60 7a 92 bf 61 da a7 3f
       -0.5446224 -0.442873 -1.1443596 1.3113519
000360 db 70 2a 40 38 21 e0 bf e9 e7 ff bd 7f 06 77 3f
       2.6631382 -1.7510138 -0.12495405 0.9649429
000370 b8 8f 9f 3f 0d df 43 c0 76 54 60 bf e8 68 bc bf
       1.2465734 -3.060489 -0.8762888 -1.4719515
000380 c2 a1 80 bf 30 5c 27 c0 56 b3 c7 bf 58 b4 2f bf
       -1.0049365 -2.6150017 -1.5601604 -0.6863456
000390 98 11 9e bd 39 f1 ce bf 5a 58 08 40 07 5c 85 bf
       -0.077181995 -1.6167365 2.1303926 -1.041871
0003a0 49 99 71 bf cd 13 21 be 53 41 a3 3f ca 81 9c bf
       -0.9437452 -0.1573021 1.275431 -1.2227108
0003b0 16 b9 af 3f f8 47 a2 be 8d 47 7d bf db a1 9e bf
       1.3728359 -0.31695533 -0.989373 -1.2393144
0003c0 06 51 aa bf bd 2d 9d be 03 d3 cf be 12 a8 1d c0
       -1.3305976 -0.30698958 -0.40590677 -2.4633832
0003d0 29 c3 a3 bf 84 78 81 3e 1d 7b 3f 3f 44 43 40 bc
       -1.2793933 0.2528726 0.7479723 -0.011734787
0003e0 eb 9a e6 3e bf 1d 91 be 7e 61 9f 3f aa b1 70 bf
       0.45040068 -0.28343007 1.2451627 -0.94021094
0003f0 f1 08 83 3e dd cb 65 3f 98 05 81 bf 49 77 5d be
       0.2559276 0.89764196 -1.0079832 -0.21627535

weight f4 [20, 20, 3]
000000 49 25 68 3e f5 d4 10 3e 9c 68 df 3c a3 bc 9a 3e
       0.22670473 0.14143737 0.027271561 0.30222043
000010 9b 9e 40 3e f5 00 dc 3d 9e 4c c5 3d c1 b4 68 3e
       0.18810503 0.1074237 0.09633754 0.22725202
000020 35 56 44 3d 2d be aa be 96 6b 99 be fb 1e ee bd
       0.047933776 -0.33348218 -0.29964894 -0.11627003
000030 8f ce 8e be a6 80 8d be f4 05 3a be 7b fa c7 3e
       -0.27891967 -0.27637213 -0.18166333 0.3905829
000040 d1 bb 26 3e 77 dc 87 3e 88 1e 66 bc 56 1c 17 be
       0.16282584 0.2653539 -0.014045365 -0.14756903
000050 52 21 bd bc 7d c2 1d 3e c6 61 61 3e 40 9d 51 3d
       -0.023087177 0.15406223 0.22009954 0.051175356
000060 2d 9c ea 3e 45 37 c8 3e cd 93 af 3e ed 5a 47 3b
       0.45822278 0.39104667 0.3429245 0.0030419186
000070 4a 33 fe bb b5 b3 7b bd d5 68 10 bf 49 5d 83 be
       -0.007757579 -0.06145068 -0.5640996 -0.25657108
000080 bd 89 c8 be 0f 29 42 bf ec ba 97 be cd 19 73 be
       -0.39167586 -0.758439 -0.29634798 -0.23740311
000090 90 f5 9c 3e d3 f9 4c 3e 84 d4 5b 3d af 13 2f 3e
       0.306561 0.20017175 0.053669468 0.17097352
0000a0 ee 83 40 3e 53 d9 5c 3e 32 32 0d bf 7c d5 8e be
       0.18800327 0.21567278 -0.55154717 -0.2789725
0000b0 e5 d7 40 be 9c 2c 4d 3e 03 a5 55 3d fa 3f 7b 3e
       -0.18832357 0.20036548 0.05215932 0.24536124
0000c0 0c 5d bf 3e f0 6a 96 3c 94 df 4d 3e 4c b9 4a be
       0.37375677 0.018361539 0.2010482 -0.19797248
0000d0 af 78 4b be 2d 95 c8 bd df 95 f1 3e 88 f4 83 3e
       -0.19870256 -0.09794078 0.47184655 0.257725
0000e0 e0 80 cc 3e 2b 21 8d be fe 93 9a be d2 a7 d4 bd
       0.39942074 -0.27564368 -0.30191034 -0.10383572
0000f0 11 45 22 be c4 99 54 be d6 01 2a be 26 19 41 be
       -0.15846659 -0.20761782 -0.16602263 -0.1885725
000100 47 70 45 be 39 b8 53 be cc dc 84 be f4 88 3d be
       -0.19281112 -0.20675744 -0.25949705 -0.18509275
000110 a1 6e 75 bd 6d 22 d2 3e 7d f0 78 3e b6 26 2f 3e
       -0.059919957 0.4104189 0.24310489 0.17104611
000120 86 d6 96 3d 7a a6 e3 3d 9a f3 f5 3d 72 31 a7 be
       0.07365136 0.11115737 0.12009354 -0.3265491
000130 41 4b 90 be 9e bc c6 bd 8a bc 4d 3d 0e ff 2c 3d
       -0.28182414 -0.097039446 0.050228633 0.042235427
000140 74 64 fa 3c e0 2a cd bc cb db 7f bd 21 84 68 3c
       0.030565478 -0.025044858 -0.06246547 0.014191658
000150 d3 ef dc be 78 d9 c6 be bc 32 6f be a6 fa 4a bc
       -0.4315172 -0.3883779 -0.23359197 -0.012388861
000160 e0 0c e8 3d 5f 1d f8 bb 9f 67 15 3f 3d 08 80 3e
       0.11330581 -0.0075718607 0.5836124 0.25006285
000170 53 80 80 3e f1 cd 22 3f 70 bd a6 3e 45 13 37 3e
       0.25097904 0.6359549 0.32566404 0.17878444
000180 6c 1f 54 be 61 f2 49 be cd 31 f8 bd 07 ea 8e be
       -0.20715111 -0.19721366 -0.12118874 -0.27912924
000190 78 e4 79 be f8 64 8d be a4 aa bc 3e 91 f9 8c 3e
       -0.2440356 -0.27616096 0.36848938 0.27534154
0001a0 84 2a 62 3e c4 c0 27 be 1a 16 0f be 58 8a b1 3c
       0.22086531 -0.16382128 -0.13973275 0.021672413
0001b0 e8 2a 7e be 6c 1b 04 be 17 70 22 be 2a c8 aa 3d
       -0.24821055 -0.12901086 -0.15863071 0.083389595
0001c0 58 bc bc 3c 48 a5 c6 3c 8f 5a 94 be ad 42 44 bd
       0.023039028 0.024248734 -0.2897534 -0.04791515
0001d0 db 2f 61 be d7 0f c0 3e 6c 15 2f 3e ba 96 5c 3e
       -0.21990912 0.37512085 0.17098016 0.21541873
0001e0 6f 33 71 3e b1 eb a4 3e c8 e2 f6 3c f3 d9 21 3e
       0.23554777 0.32211068 0.030137435 0.15805797
0001f0 c0 6e 4a 3e e4 07 69 3e d8 b0 86 3e 66 0d 13 3d
       0.1976881 0.22756916 0.26306796 0.03590145
000200 9c ca e8 3d 5b 22 c1 be b2 d7 9a be b7 32 84 bd
       0.1136677 -0.37721524 -0.30242687 -0.064549856
000210 7f 9b 2b be 4d 75 79 be ae 4d fb bc 91 58 b6 3e
       -0.16758536 -0.24361153 -0.030676689 0.35614446
000220 5a 17 99 3e 21 00 e1 3d 30 dd af 3d 10 e5 a5 bd
       0.29900628 0.10986353 0.0858711 -0.08100331
000230 b8 c4 1a be ac eb f1 3c 60 c6 a6 3d cc 4f 2a 3e
       -0.15114105 0.029531322 0.08143306 0.16632003
000240 4c af 06 3f 80 c6 c0 3e 61 a8 a4 3e 5b 8c 1e bd
       0.5261123 0.37651443 0.32159713 -0.038708072
000250 52 59 49 bd 13 04 3f be f6 26 17 bf 63 42 d7 be
       -0.049157448 -0.18653898 -0.59043825 -0.42042837
000260 3c b8 bb be c1 2d 20 bf 6c b8 9c be f4 b3 94 be
       -0.36663997 -0.62569815 -0.30609453 -0.29043543
000270 6c 51 9e 3d 71 49 f1 3d 54 eb c2 3d 0d c2 6c 3e
       0.07730374 0.11781586 0.095175415 0.231209
000280 2a 20 99 3d 4d 9b 89 3e d4 c8 b1 be 0d 1b 11 be
       0.07476838 0.26876298 -0.34723532 -0.14170475
000290 b6 92 63 be ac c9 1a 3e 06 4d 84 3e 54 29 33 3e
       -0.22223935 0.15115994 0.25840014 0.17496234
0002a0 77 f5 a9 3e d9 d5 55 3e 96 1d 4d 3e a0 8f 60 be
       0.33195087 0.20882358 0.20030817 -0.21929789
0002b0 2f 43 77 bd 8b b1 09 be 40 34 a9 3e fe b0 72 3e
       -0.060366806 -0.13446634 0.33047676 0.2370033
0002c0 fe fb a6 3e 17 a0 f0 be 01 9a 08 be f1 10 97 be
       0.3261413 -0.4699714 -0.13339998 -0.29505113
0002d0 6b 1b 21 be ff 09 21 be 2f ee f5 3d 34 64 82 be
       -0.15733115 -0.1572647 0.120083205 -0.25467074
0002e0 3e a4 19 be e9 f6 12 3d 6d c0 79 bd bf c3 03 be
       -0.1500406 0.035880003 -0.060974527 -0.1286764
0002f0 43 12 2a bc cc 33 c1 3e 83 af 2b 3e 0d 59 58 3d
       -0.0103803305 0.3773483 0.16766171 0.0528193
000300 96 24 00 3e 08 a9 84 3e e8 74 4d 3e a0 dc b7 be
       0.12513956 0.2591021 0.20064127 -0.3591051
000310 cd 83 6b be 72 04 a1 3b d5 28 e7 3d 4d d2 5d bd
       -0.22999497 0.00491386 0.11287085 -0.054155637
000320 b1 34 1a 3d 31 96 d0 bd 3d b7 fa bd 2d d7 ab bd
       0.037647907 -0.10184897 -0.12241981 -0.08390651
000330 47 43 87 be 38 d7 1d be c3 90 db bd 98 31 25 3e
       -0.26418516 -0.1541413 -0.107209705 0.161322
000340 54 d4 aa 3b 39 23 63 3e cc e3 10 3f bf bf 6f 3e
       0.0052132998 0.22181405 0.5659759 0.23412989
000350 d2 5c 4c 3e d4 ed 1b 3f 6e 15 64 3e a0 a8 2d 3e
       0.19957283 0.6090977 0.222738 0.16958857
000360 96 2a e3 bd d7 13 25 be 51 a5 cb bd 95 46 38 be
       -0.11092107 -0.1612085 -0.09943641 -0.17995675
000370 49 ad 53 be 32 8c 8d be 95 08 c8 3e 49 14 70 3e
       -0.20671572 -0.27646023 0.39069048 0.23445238
000380 e7 ac 18 3e ee 37 7e be 2e 0f e2 bd f3 71 3e be
       0.14909707 -0.24826023 -0.110380515 -0.18598156
000390 e9 3b 68 be 65 ab 24 be cf 10 1c be 93 22 1a 3d
       -0.22679104 -0.16081007 -0.15240787 0.03763063
0003a0 1e 0f 10 3e c8 4a 11 3e bb 2c ac be 0a 01 bf bd
       0.14068267 0.14188683 -0.33627877 -0.0932637
0003b0 62 51 6f be 61 59 aa 3e 3a e9 b3 3d 2e 8d 91 3e
       -0.23370889 0.33271316 0.08784719 0.28428024
0003c0 7a 51 94 be 47 41 c3 bd cd 22 2d 3d 09 3b 28 be
       -0.28968412 -0.09533935 0.042269517 -0.1642877
0003d0 be 9d 27 be a3 79 6c bd ac 5c 18 bd 7b 07 aa bd
       -0.16368768 -0.05773319 -0.037197754 -0.08302208
0003e0 fd 8c 94 bd 3a c5 91 3e 28 97 76 3e bf 63 4c 3e
       -0.07253454 0.28470784 0.24081099 0.19959925
0003f0 b8 d0 f7 3d 87 cf 4b 3e 97 62 23 3d a0 f9 80 be
       0.12100357 0.19903384 0.039888944 -0.2519045

bias f4 [20]
000000 4f a0 d3 3c b8 a6 0a be 92 f7 02 3d 1d 32 8e 3b
       0.025833277 -0.1354016 0.031974383 0.00433947
000010 dc d5 0b 3d 80 0c 6c bc 9c b3 b3 bc 44 f0 bd 3c
       0.0341395 -0.014407277 -0.02193623 0.023185857
000020 e6 69 17 be 11 1e 89 3d 3a f4 c8 3c 3c b0 5b 3d
       -0.14786491 0.06695188 0.024530519 0.053634867
000030 80 75 f2 3d 75 b2 a7 bd 54 9d fe 3c e3 9f 85 bd
       0.118388176 -0.08188335 0.03108088 -0.065246366
000040 82 eb e4 bd df 9b de bc 17 a2 e9 3d 9f a4 97 bd
       -0.11177732 -0.027173935 0.11407869 -0.07404446

weight f4 [2, 20]
000000 ed 28 db 3f 88 59 0e bf 5a b4 4c 3f d4 fe a0 bf
       1.7121865 -0.55605364 0.79962695 -1.2577767
000010 69 77 16 bf 32 42 b1 bf fe 49 0a bf e2 cd 5c bf
       -0.58775955 -1.3848326 -0.54019153 -0.8625165
000020 ab b3 ca bf 00 37 57 3f 80 6d 08 3f ec cb cf 3f
       -1.583608 0.840683 0.53292084 1.6234107
000030 1a dc ee 3f 16 c8 37 bf 48 fa 80 3f eb 2f aa 3e
       1.866092 -0.7178968 1.007638 0.33239684
000040 92 66 29 bf 89 62 bf bf c4 46 9f 3f 74 15 59 bf
       -0.66172135 -1.4951946 1.2443471 -0.8479836
000050 88 e5 af bf 4b 57 a7 3e ad 3e 54 bf 3b 51 b5 3f
       -1.3741922 0.32683787 -0.82908136 1.4165415
000060 da be 5a 3f 34 0b b1 3f ae 40 19 3f 52 61 75 3f
       0.85447466 1.3831544 0.5986432 0.95851624
000070 63 af d1 3f df 7e 3b bf 0f 4c 41 bf f3 54 da bf
       1.6381649 -0.73240465 -0.7550668 -1.7057174
000080 17 fb ce bf 37 e8 39 3f 96 47 4f bf 7c 72 c5 be
       -1.6170377 0.72619957 -0.80968606 -0.38563907
000090 d9 16 76 3f e9 ae ac 3f 7e 1a 92 bf 70 18 44 3f
       0.9612861 1.3490878 -1.1414335 0.7659979

bias f4 [2]
000000 30 e5 92 3c 28 41 b4 bd
       0.01793155 -0.0880149
