406-jyb/week7/fast_text.pth (torch, 208745 bytes, 5 tensors)

weight f4 [2520, 20]
00000000: d3a0 1ac0 eb38 99bf 6ce1 de3d eca3 3abf
00000010: bbaa 75bf a55d 853f 1580 b33e f342 abbf
00000020: 8cab 953d 785c 99bf 61fa adbf 1cd7 7abe
00000030: 1255 883f 4db1 48bf b8e9 0e3f 7f25 353d
00000040: efda 173d 0bac fa3f 7a6e 92be 1df3 a53e
00000050: 0a9b 0bbd effa 813f 0ce7 83bf f5ef f0bd
00000060: 077a 3dbf e43c 55bf 3966 28bd 4897 0a40
00000070: c147 c1bf 8a17 bdbf c6de dd3e 8296 82bf
00000080: 9d04 313e e3bc df3e 512a d0bf d189 a6be
00000090: d158 1d40 e43f 40bf 1ff0 cbbf e903 b93e
000000a0: e797 b7bf a85b 8f3f 2f1e cfbf 67da 01c0
000000b0: 802b 19be 4aa9 cebe 809b 993f a790 56be
000000c0: a860 743f 9ca1 ec3e c2af b73f 6f73 f2be
000000d0: 3f6a 1840 297a 7b3e 2759 a7bd 8e0d 1c3f
000000e0: b7a9 1dc0 fb88 eabd df09 38bf 9474 e33e
000000f0: 4a8c 27bf 48b3 b73e 148a 8bbf fa8a 80bf
00000100: 100f 92be 40bc 973f cfb5 1240 6831 673e
00000110: 27be a83e 4588 82be d39a ebbe d19d 8abf
00000120: 50e5 a73e af63 fb3e f946 fcbf bf54 01c0
00000130: 78d6 aa3f 0781 40bf fb42 e0bf da4f 73bf
00000140: 78a0 c4bd aa24 c93e 4618 fd3e 41c4 91bd
00000150: 4ac8 08be 0249 3b3f 264c 6fbe 536e 9e3e
00000160: 74fd 91bf b28d 4fbe 9f10 b03f 2442 85bf
00000170: e086 f73e 08db 2fbf fba5 26bf c31b 0ebf
00000180: 014a 9a3f 125a 38be 6a96 d1bd 6ebb 32bf
00000190: f95a 57bf 4838 7ebd 1d37 bdbe 3959 f5bf
000001a0: f06d 8fbe ef1c 193f d5bd 62bf 2471 cf3f
000001b0: 77c3 18c0 2622 483f 2d3b 6c3f 395a 92be
000001c0: 32f7 a6be 9128 9c3f 0e26 1b40 5469 88bf
000001d0: fbd9 823f 7fef 413f 59f5 013f 00f8 b0bd
000001e0: ebf2 aebf b932 893e e757 46bd baa0 f5bf
000001f0: 5c37 b7be cc7b 83bf e80b 8d3f 5e5b ddbf
00000200: 0c75 3fbf bf5e 613f 53a1 8bbf 19be 60bf
00000210: 38d3 77bf 0601 afbe 7f78 0ebf cb5c 353f
00000220: 058c 01c0 3133 103f eed0 a33f 96c8 00bf
00000230: 66f6 543f 4d3e 523f f3b0 063f 1159 2ebf
00000240: f780 013e 2d8f 593e 53fd dbbd 5f4d 34bf
00000250: 7219 c3be 782e 84be 7655 503f 2902 10c0
00000260: e743 34bf a3ae 86bf 248b 83bf caff debf
00000270: 75d3 e9bf d8d3 72bf 76fa abbf d8e7 063f
00000280: 7647 313d 5209 51bf dc2b bd3e dc80 20be
00000290: 60b0 37be 5c42 1e3f 9b21 363e 1778 5dbf
000002a0: 4527 52bf 7528 48be fa55 be3e e24e 1abf
000002b0: c36b ba3e 0a00 2b3f caac 0d3f 7316 5b3f
000002c0: 189f 103f 0091 b0b9 d816 60be a6f0 293f
000002d0: 3936 933f ea31 a83e 03bf b7bf 7452 c43f
000002e0: 4f6a 2fbe 63a0 d13e 30fd 293f 72e3 f8be
000002f0: 58b8 15bf d4a9 88bf 23bd 0140 5f39 3ebf
00000300: a4bd edbf 3dd0 c93f 7d9d b43f 492b b8be
00000310: 903c 31bf 4d89 a9be bebe abbf 1cda 693f
00000320: b83a 4a3e c2f3 9dbe 2b79 ab3f 7d27 0c3f
00000330: e75f 783f 9ba9 c9bf 3ca0 a3bf 91f6 aebe
00000340: e1a4 aa3f 867d 673f 7237 aa3e 041f 2ebd
00000350: fc20 be3f fb7f 02bf 60ed 103e d0e6 9f3f
00000360: 79ea 473f 5509 3c3f ad67 9e3f a494 70bf
00000370: 95c0 02c0 aaf2 aa3b 556f db3e 22ba 20bf
00000380: 6956 823c 0cc9 2940 0e2c f33e 5855 4f3f
00000390: a436 0a40 d669 073f f9c1 4e3f d58d a23e
000003a0: 36cb 953f 6580 d6be b573 e73e 5359 1c3f
000003b0: 0cd4 2c3e 32fb 86be 4cea 96bf 72b3 573f
000003c0: 0552 a8bf 362f aa3e 9839 b73e dc42 c0bd
000003d0: 1cab 6a3f abbb eebe 3514 acbd 0327 8ebf
000003e0: ab8f 16bf 9b85 a4bf 6871 2f3e 4325 85bd
000003f0: 9b65 d6bf 4028 66bf 9173 073e 70b9 50bf
-2.416066 -1.1970495 0.108828396 -0.72906375 -0.9596364 1.0419203 0.35058656 -1.3379806
0.073081106 -1.1981344 -1.3592035 -0.2449612 1.0650961 -0.7839554 0.55825377 0.044225212
0.037074026 1.9583753 -0.28599912 0.32412043 -0.034083404 1.0154704 -1.0304885 -0.11764518
-0.74014324 -0.83296037 -0.041113112 2.1654835 -1.5100023 -1.4772809 0.43334025 -1.0202181
0.17286916 0.43698797 -1.6262914 -0.3252702 2.458546 -0.7509749 -1.5932654 0.36135796
-1.4343232 1.1199846 -1.6181086 -2.0289552 -0.14958 -0.40363532 1.200058 -0.20953618
0.95459986 0.46217048 1.4350512 -0.47353694 2.3814847 0.24558319 -0.08171301 0.6095818
-2.4634836 -0.11451908 -0.7189006 0.4442488 -0.6544844 0.35878968 -1.0901513 -1.0042412
-0.28527117 1.1854324 2.2923467 0.2257744 0.32957575 -0.2549459 -0.4601656 -1.0829412
0.3279214 0.4909949 -1.9709159 -2.0207975 1.3346701 -0.7519688 -1.7520441 -0.9504372
-0.096009195 0.39285785 0.49432582 -0.071175106 -0.13357654 0.73158276 -0.23368892 0.30943546
-1.1405473 -0.20268896 1.3755072 -1.041081 0.4834509 -0.6869359 -0.65097016 -0.5551111
1.2053834 -0.18003109 -0.10233767 -0.69817245 -0.8412319 -0.062065393 -0.3695611 -1.9167854
-0.28013563 0.59809774 -0.8857091 1.6206403 -2.3869302 0.78177106 0.92277795 -0.2858446
-0.3261047 1.219988 2.4241977 -1.0657144 1.0222772 0.7575607 0.50764996 -0.08641052
-1.3667883 0.2679651 -0.048423674 -1.9189675 -0.35784423 -1.0272155 1.1019258 -1.7293508
-0.74787974 0.88035196 -1.0908607 -0.87790066 -0.9680667 -0.34180468 -0.5565261 0.70844716
-2.024171 0.5632811 1.2798135 -0.5030607 0.83188474 0.82126313 0.52613753 -0.68104655
0.12646852 0.21246023 -0.10741677 -0.7043056 -0.3810535 -0.25816703 0.81380403 -2.2501318
-0.7041611 -1.0522045 -1.0276837 -1.7421811 -1.8267657 -0.948545 -1.343581 0.52697515
0.04328104 -0.81654847 0.36947525 -0.15674156 -0.17938375 0.61820006 0.17786257 -0.8651137
-0.8209117 -0.19546683 0.3717497 -0.60276616 0.3641034 0.66796935 0.5534178 0.8558113
0.5649276 -0.0003367737 -0.21883714 0.66382825 1.1500922 0.3285058 -1.4355167 1.5337663
-0.17130397 0.40942678 0.6640196 -0.48611027 -0.5848441 -1.0676827 2.027169 -0.7430629
-1.8573499 1.5766674 1.4110562 -0.35970524 -0.69233036 -0.33112565 -1.3417585 0.91348433
0.19748962 -0.30850035 1.3396353 0.54747754 0.97021335 -1.5754884 -1.2783275 -0.3417249
1.3331567 0.9042591 0.33245426 -0.042510048 1.4853816 -0.5097653 0.14153051 1.2492313
0.7809215 0.7345174 1.2375389 -0.9397681 -2.0430043 0.005216916 0.42858377 -0.62784016
0.015910344 2.652896 0.4749455 0.809896 2.159585 0.5289587 0.8076473 0.31748834
1.170264 -0.41894832 0.45205465 0.610738 0.16877764 -0.26363522 -1.1790252 0.84258187
-1.315003 0.33239144 0.35786128 -0.093877524 0.9166734 -0.46627554 -0.08402292 -1.1105655
-0.5881297 -1.2853273 0.17133105 -0.06501248 -1.6749758 -0.89905167 0.13227679 -0.81532955

weight f4 [40, 20]
00000000: 8daf ac3d cd9c 73be ce66 593e 6d50 913d
00000010: 4f24 913c f2f9 583d 6cf6 0abe f061 943b
00000020: cf2f 973e 5f2d 833d 3385 2bbe ca7d a73e
00000030: 1a29 92be fd52 bebe 6686 ae3e 3ce0 2c3f
00000040: 9819 823e 334a 94bd 6017 9d3e edbe 0bbf
00000050: ccc1 843e 9fcc 8abe ee79 a83e e702 ae3e
00000060: d528 783e ebac 9cbe 4fd8 18be 22f2 a73d
00000070: 92f0 5a3e a5b3 383e 91fc 74bd ea36 c63d
00000080: c23a 34be 37e8 b5be 2652 163e a69d 103f
00000090: 768d a13e 69db a53d c315 e43d 5c98 91be
000000a0: 1e06 39be 80ab 883e 05ad 0bbf d9ff eabd
000000b0: 710a 76be d1cf 8a3e 8e3a c23d f786 943e
000000c0: 19f0 ddbe be05 6abe d7ee 45bd e8d6 9cbe
000000d0: ee06 283e 51ce 9c3e e8f5 cabe 856c 0cbf
000000e0: b420 08bf 4083 55be 22a0 afbe 270d 033f
000000f0: 8c51 103e ded4 f5bd 2f72 0d3f 2cd4 be3d
00000100: 649f 843e e27d adbe 8629 e6be a00b 86be
00000110: 7caa 093d f838 e33d e75a 98be 5b1d e73e
00000120: 567a 20be c3ce c6bd 7a2a db3e b8d3 203f
00000130: b6d0 bb3e c44b 8e3e 2552 a03e 4f02 94be
00000140: 492d df3b a9f6 ef3a 8b2b f33e a1e1 a53d
00000150: aee8 043d 6f43 30be af3f 36be 9e42 71be
00000160: ad9b ba3e 0250 fbbc 2cac 1fbd 37e7 9c3e
00000170: 1448 e33b baab 063d 5998 4d3e ce96 213f
00000180: 3bf1 6d3e 6d5a 803d 5ede 133e fdc0 02bf
00000190: 21f2 19bd 60a9 fa3c 4bff 22bf 89c5 94be
000001a0: b70b da3b 83a6 be3d ffa2 dd3e d871 0dbe
000001b0: df07 10be b072 8ebe d4d1 a43e 1707 b3be
000001c0: b706 21bd 8b4e 103d 10a2 cbbe cb6e 24bf
000001d0: 0077 4cbe 1ba8 7abd c4c2 e0be c74d 953e
000001e0: a57e 993c 8119 86be c5c3 203f 8c87 8d3e
000001f0: 37ed cb3d 0837 63bd bfdf edbd 900b 6dbe
00000200: 3f35 e63e 62a0 02bb 0100 443d f8f9 1c3f
00000210: 65d5 e1bd 1ee0 fcbd b699 803e e9e2 cc3e
00000220: 0703 ad3e 623d 93bd 9c83 9e3e 0e60 e0be
00000230: ab46 663c 9656 be3d d384 10bf 9d32 84be
00000240: cc47 aebe ec39 123e 752a de3d 2a4e 873e
00000250: aafc dbbe e6cc b0bd da06 693d e45e 99be
00000260: e120 0d3e 0ef3 b93e 6f7d 8ebe 02aa 9abe
00000270: 2ecf f0be 3cd0 2abe ade5 03bd 7e1a 213e
00000280: dfc1 dfbd 9765 37be 2b94 8f3e 1fec 023e
00000290: f37f 6d3e be8b 01bd 473e b8be fcd9 58bb
000002a0: 5f01 953e 6f9a e1bd 3daf 67bd 16a1 eb3e
000002b0: b7ef dcbd cbc5 3e3b bbbc 423e b040 f03e
000002c0: 9af3 7c3e d8f1 843e d1d2 973e 70c1 01bf
000002d0: 1e71 d9bc 1205 ff3d 2ce8 db3e 5719 2d3d
000002e0: 7610 c73d 8453 e03c 7771 a8bd 8d9f 663d
000002f0: 042c b53e e770 ddbd 2a01 a2be 09e4 903e
00000300: 6b3a 13bd 0488 09be 4891 e83d 27ea b33e
00000310: 2e26 133e bfb1 cfbd 4149 d93e a9c9 bbbe
00000320: 0fdc 0b3e 6db6 c53a 878a 0d3f cf8b 333d
00000330: 7d47 3b3d fd74 35be fb6f 03bd 82b2 89bd
00000340: d3d8 c23e eab1 2a3e 58e3 aabe e79b 433e
00000350: 1786 58be b7f6 68be 6616 9a3c e144 cd3e
00000360: dd4d 4a3e cee1 a83d e724 7d3e 0287 8bbe
00000370: a3df 093c a7cf 333e b600 16bf 275f abbe
00000380: 4851 0dbe e82d 873e 3964 f13e 5cf2 4f3e
00000390: 7f97 08be 3e51 cdbd 21ae 533e ae64 07bf
000003a0: b027 8e3e 102d 0b3e 9437 d5be cad2 22bf
000003b0: 985d 89be e130 3dbd f3d3 42be f30c e13e
000003c0: dbe2 d1bd b1cd fbbd 090e 943e 888c 253e
000003d0: 0108 ab3e 90bc 9abd b15b 90be 3d1f 1fbe
000003e0: d79f aa3d ffb4 603d 8bd7 86bd e995 d03e
000003f0: 75c1 a6be 8ae1 b8be b437 113d c051 1f3f
0.08431921 -0.23790284 0.21230623 0.07095418 0.017717509 0.05297274 -0.13570565 0.0045282766
0.29528663 0.06405138 -0.1675003 0.32713157 -0.28546983 -0.3717269 0.34086913 0.67529655
0.2541015 -0.07240715 0.30681896 -0.54588205 0.25929105 -0.27109239 0.32905525 0.3398659
0.24234326 -0.30600676 -0.14926265 0.0820048 0.21380833 0.18037279 -0.05981118 0.09678443
-0.1760054 -0.35528728 0.14679775 0.5649055 0.3155324 0.0809849 0.11136963 -0.28436553
-0.1806874 0.26693344 -0.5456088 -0.1147458 -0.2402742 0.27111676 0.09483825 0.2900922
-0.43347242 -0.22853753 -0.04832348 -0.3063271 0.16408893 0.30626157 -0.39640737 -0.5485309
-0.531749 -0.20850849 -0.3430186 0.51191944 0.14093608 -0.12003492 0.55252355 0.09317812
0.25902855 -0.33885103 -0.44953555 -0.26180744 0.033609852 0.1109485 -0.29756853 0.45139584
-0.15671667 -0.097074054 0.42805845 0.6282306 0.3668267 0.2779218 0.3131267 -0.2890801
0.0068108183 0.0018307763 0.47494158 0.08099676 0.032448463 -0.17213224 -0.17797731 -0.23560569
0.36446896 -0.0306778 -0.038982555 0.30645153 0.0069360826 0.032878615 0.20077647 0.63120735
0.23236553 0.06267247 0.14440295 -0.51075727 -0.037584428 0.030598342 -0.63670796 -0.29056957
0.0066542285 0.09309103 0.4328842 -0.13812959 -0.14065503 -0.27821875 0.32191336 -0.34966347
-0.039313044 0.035231154 -0.3977208 -0.64231557 -0.1996727 -0.061195474 -0.43898594 0.29160902
0.018737147 -0.26191333 0.6279872 0.27642477 0.099573545 -0.055472404 -0.11614942 -0.23148942
0.449625 -0.0019932021 0.047851566 0.6131892 -0.1102703 -0.123474345 0.25117272 0.4001687
0.33791372 -0.07189442 0.30959785 -0.43823284 0.0140549345 0.09293859 -0.56452674 -0.25819865
-0.34039152 0.14279908 0.10847942 0.26426822 -0.42966205 -0.08632831 0.0568913 -0.29955208
0.13782074 0.3631825 -0.27830073 -0.3020783 -0.47033066 -0.16680998 -0.032201458 0.15732762
-0.1092565 -0.17909847 0.2804273 0.12785386 0.2319334 -0.03162741 -0.35985014 -0.0033088913
0.2910261 -0.11015784 -0.056563605 0.46021336 -0.107879095 0.0029109593 0.19017307 0.46924353
0.24702302 0.25965762 0.29653028 -0.5068579 -0.026543196 0.12452139 0.4295057 0.042260494
0.097199365 0.027383573 -0.08224767 0.056304503 0.35385144 -0.1081255 -0.31641513 0.28298977
-0.035944384 -0.13430792 0.11355835 0.35139582 0.14370033 -0.10141324 0.424387 -0.36677292
0.13658164 0.0015084274 0.552895 0.043834504 0.045722473 -0.17720409 -0.032089215 -0.06723501
0.3805605 0.16669431 -0.33376575 0.19102441 -0.21144901 -0.22750364 0.018809509 0.40091613
0.19756265 0.08246194 0.24721108 -0.2725144 0.008415136 0.17559682 -0.58594835 -0.33471033
-0.13800538 0.2640221 0.47146776 0.20307297 -0.13339041 -0.10025261 0.20671894 -0.52888
0.27764654 0.13591409 -0.41643965 -0.6360289 -0.2682922 -0.046189193 -0.19026165 0.43955192
-0.10248347 -0.12295092 0.28916958 0.1616689 0.33404544 -0.07555497 -0.28194955 -0.1553926
0.08331268 0.05486011 -0.0658408 0.40739372 -0.3256947 -0.36109573 0.035453513 0.62234116

bias f4 [40]
00000000: fa79 873b f794 063d 6435 4ebe a593 0f3e
00000010: e457 803e 07db 68be 651e 363e e660 703d
00000020: 722e 7c3e fead c53d 4427 6d3d 463f 103d
00000030: 477a cd3d e7df af3c b80f 893e 71f1 4f3d
00000040: a3ad 86be 3478 37be 1cf2 4e3d 15de c7bd
00000050: 2c04 003e 69b4 3b3e cf32 733e 2733 87bd
00000060: b990 083e 5009 623e 0819 333e a57a 68be
00000070: 243b 3bbe 2153 30be 9e26 87be 3b32 65be
00000080: e9d3 653e baac f53d 3e49 213e 0c1b 483e
00000090: 757f 153d a6c4 81bc 9e73 5abe 5470 3bbe
0.004134414 0.032856908 -0.20137554 0.14021166 0.25067055 -0.22739802 0.17785032 0.05868616
0.24627092 0.09652327 0.057898775 0.035216592 0.10033088 0.02146907 0.26769805 0.050767366
-0.2630435 -0.17916948 0.050523862 -0.09759156 0.12501591 0.1833054 0.2374985 -0.066015534
0.13336457 0.22073865 0.17490017 -0.22703035 -0.18284279 -0.17219211 -0.2639665 -0.22382443
0.22444119 0.119958356 0.15750596 0.19541568 0.036498506 -0.01584084 -0.21333167 -0.18304569

weight f4 [2, 40]
00000000: a685 d23e 3998 3b3e 44dd a5bf 35b2 8e3f
00000010: 701e 743e 40a8 f7be 73b0 033f 46cc 1cbf
00000020: 5eb2 6f3e cbc0 733d 8f65 9b3e fdc4 d7be
00000030: 7f02 ec3e 0c42 693f b8ef 203e d71a 3bbf
00000040: 2c5a 50bf eb84 07bf 53d4 0dbf b867 edbd
00000050: 9444 373f f936 f03e 0c92 1b3f f287 c1be
00000060: 869a 053f c09f 1f3f c0e2 89be edc9 bdbe
00000070: 2ad9 a53e 5f79 70be 998c 03bf db4f a8be
00000080: b723 ad3e d4fe ac3e c1d2 06bd 2d04 c63e
00000090: b12b 763f 46a3 f0be 83a4 78be f605 7cbf
000000a0: e67d eebe db92 67be 32ef 9f3f 9bb1 61bf
000000b0: 3d14 e63b 5338 043f 48c1 e9be e3f2 2d3f
000000c0: f724 b0be 7605 adbd 7181 cebe ace0 e73e
000000d0: 6728 06bf b399 5fbf 5e12 c5be 94dc 4f3f
000000e0: ac73 283f 8d69 173f eb70 0e3f c30e bbbd
000000f0: 0dc4 fbbe 8295 dabe 951a 24bf 3925 bb3e
00000100: ae09 ccbe 8793 ccbe 50dc 983e bca4 0b3f
00000110: 37fa 10be e2fa 893e 2f2c 153f 38f1 923e
00000120: 9ffe 02bf 138d 4ebe 9d44 cd3d 168c b8be
00000130: 195b 43bf 5a44 ad3e aefb 9a3d 237c 703f
0.4111759 0.18319787 -1.295815 1.1148134 0.23839736 -0.48370552 0.51441115 -0.61249197
0.23407885 0.059510034 0.3035092 -0.42142478 0.46095654 0.91116405 0.15716445 -0.7308783
-0.8138759 -0.5293719 -0.55402106 -0.115920484 0.71589017 0.4691694 0.60769725 -0.3779903
0.5218891 0.62353134 -0.2693081 -0.3706812 0.32392246 -0.234838 -0.5138641 -0.32873425
0.3381631 0.33788168 -0.032915834 0.3867506 0.9616042 -0.46999568 -0.24281506 -0.98446596
-0.46580428 -0.22614615 1.2494872 -0.8816163 0.0070214556 0.51648444 -0.45655274 0.6794874
-0.34403202 -0.08448307 -0.4033313 0.452886 -0.524054 -0.873439 -0.38490576 0.8119595
0.658015 0.5914543 0.5564105 -0.09133675 -0.49173012 -0.4269219 -0.6410306 0.36551836
-0.39851135 -0.39956304 0.29855585 0.5454824 -0.1415795 0.2694922 0.58270544 0.2869966
-0.5116977 -0.20171003 0.100228526 -0.36044377 -0.7631088 0.3384121 0.07567535 0.9393942

bias f4 [2]
00000000: 754e 833d 8188 bc3d
0.06411449 0.092057236
