406-jyb/week7/lstm.pth (torch, 245624 bytes, 7 tensors)

weight f4 [2520, 20]
1.0808749 0.80868345 -1.268927 0.08087272 -0.019546907 0.49187785 0.6519385 -0.9307811
1.4516804 0.08347834 0.11255636 -0.14543019 0.3448218 0.9682624 -0.057845183 0.30606878
-0.12358913 0.21510147 -0.3486079 -1.534962 -0.780138 -0.11455704 -0.31828392 2.041841
1.2305074 -0.14467922 0.0024675678 -0.7801316 -0.2516721 -0.29896653 -1.2774744 1.2184491
-0.7531242 1.2247196 -0.61037314 1.495489 -0.4744057 -0.93275976 0.6275479 0.3590559
1.1296737 -2.2966328 -0.6403441 0.5980081 0.6995096 -0.7422282 1.096698 -0.6123666
1.409126 0.18948896 1.1708677 0.2827439 1.8610182 1.6970708 0.2564783 -1.1966431
-0.2680264 2.3249311 -0.20758799 -0.28588742 -0.23222902 0.4183473 -0.028702462 0.8364538
1.0953445 0.22438799 -0.13793576 -2.0276644 -0.5102413 -0.86698186 0.093665026 -1.3818004
0.884089 0.2683983 0.19073534 -0.20918378 0.56916803 1.6878341 2.1019762 0.92869973
-1.0672983 -0.72842246 0.2811886 -1.4643786 -1.0919762 0.1452048 -0.4740322 -0.11498807
0.24124828 -0.20346755 0.098178945 2.844593 0.88206697 0.48007908 0.6980963 0.7483551
-0.50403875 -1.465109 -0.72812873 -0.99980795 0.050401904 1.1753085 -0.8695095 -1.9964403
0.0917509 1.1481411 -0.115955986 -0.283776 1.2007982 0.50318754 -0.5419825 0.45337543
1.2521768 1.1422645 1.997301 -0.5158505 1.2168472 2.632397 -1.6168664 -0.9061733
-0.5152521 -1.2514677 -1.6046759 0.4903261 -0.11126889 0.60960984 -0.30003405 -0.19630335
0.29267055 1.7258309 -0.021667557 -0.75278133 1.1823037 0.24428579 0.764787 -0.8439988
-1.4365575 -0.06580596 0.67805624 1.5848452 0.0628938 1.1032679 0.37536976 0.3832933
1.8113858 -0.3658325 -0.8453746 -0.3279503 1.2371137 -0.30316794 1.0657477 -0.13641661
0.9079736 1.4174352 0.93285656 1.3584669 -1.1821246 1.148102 -0.48521668 -0.40261185
0.101044536 -0.24667923 0.48365238 0.4688155 0.45295978 0.21184307 -0.90068376 -0.8429976
-0.698105 0.8110993 0.5809905 0.8110874 0.1767693 0.8211596 0.89569175 -0.2549847
-1.1330758 0.1051219 -0.8404682 1.7335577 1.1832865 -2.3671281 -0.8623516 -0.37244076
-1.0561842 -0.4907491 -0.1437847 -1.2118174 0.36771932 0.04131589 -1.0093832 1.2636111
0.54518 -1.9029253 -0.11656853 -0.5521144 0.3046153 -0.19639601 0.2930348 2.1886714
-1.0597166 0.73703253 -0.38461423 1.1196928 -1.071314 1.3798488 1.2169449 0.6054804
-0.6895028 0.85458535 -0.38947448 -0.8761307 0.27849331 -0.37616044 -0.70944726 1.211513
-0.6539289 -1.3715584 -1.1756833 0.29433614 0.9940611 -0.3785561 1.4409691 0.04287854
0.6936102 1.6520342 -0.9093725 0.88932 0.57303894 -2.0694482 -0.064220816 1.8859671
0.3918948 0.46495405 0.10483171 -0.18643914 -1.6373461 1.6148701 -1.3596731 0.67665017
0.033932492 0.28105325 -0.36396745 -0.08605339 0.14638029 -0.05921102 -0.15935169 0.08894959
-1.7843137 -1.6025791 -2.5629315 0.29795197 1.2880673 -0.23603009 -0.3165594 1.2577354
00000000: 1c5a 8a3f e105 4f3f 336c a2bf 99a0 a53d
00000010: d620 a0bc 6ad7 fb3e 71e5 263f ac47 6ebf
00000020: aad0 b93f b1f6 aa3d f383 e63d a7eb 14be
00000030: 7c8c b03e 0be0 773f 12ef 6cbd 0cb5 9c3e
00000040: 4c1c fdbd 8f43 5c3e bc7c b2be a379 c4bf
00000050: 20b7 47bf e29c eabd 1cf6 a2be 86ad 0240
00000060: 4481 9d3f ca26 14be ebb6 213b b4b6 47bf
00000070: 2adb 80be 2412 99be 4884 a3bf 24f6 9b3f
00000080: bfcc 40bf 9dc3 9c3f 6a41 1cbf 2f6c bf3f
00000090: 4ee5 f2be 58c9 6ebf fba6 203f 2dd6 b73e
000000a0: 2699 903f 08fc 12c0 97ed 23bf 0f17 193f
000000b0: 1013 333f ab02 3ebf 9a60 8c3f 0fc4 1cbf
000000c0: 3e5e b43f 6509 423e fede 953f cfc3 903e
000000d0: d835 ee3f 9e39 d93f 2051 833e 9a2b 99bf
000000e0: c23a 89be accb 1440 f291 54be d65f 92be
000000f0: 72cd 6dbe 9e31 d63e 6d21 ebbc d621 563f
00000100: 4034 8c3f f7c5 653e 083f 0dbe 41c5 01c0
00000110: 2d9f 02bf 86f2 5dbf 73d3 bf3d d6de b0bf
00000120: a853 623f 816b 893e 2050 433e 4634 56be
00000130: ffb4 113f f30a d83f c786 0640 44bf 6d3f
00000140: 3b9d 88bf e579 3abf f4f7 8f3e c270 bbbf
00000150: e0c5 8bbf 91b0 143e 59b4 f2be de7e ebbd
00000160: ca09 773e cc59 50be 0b12 c93d d00d 3640
00000170: 24cf 613f edcc f53e 70b6 323f 3394 3f3f
00000180: af08 01bf b188 bbbf a566 3abf 6af3 7fbf
00000190: 3a72 4e3d 8270 963f 2d98 5ebf 5b8b ffbf
000001a0: e5e7 bb3d 4af6 923f 557a edbd 164b 91be
000001b0: c1b3 993f e6d0 003f 5dbf 0abf d320 e83e
000001c0: 5447 a03f b935 923f 8fa7 ff3f c70e 04bf
000001d0: a6c1 9b3f 3179 2840 7af5 cebf f9fa 67bf
000001e0: 90e7 03bf 1830 a0bf 0566 cdbf 060c fb3e
000001f0: f2e0 e3bd 640f 1c3f 109e 99be bf03 49be
00000200: ead8 953e 07e8 dc3f 2980 b1bc 47b6 40bf
00000210: ba55 973f 0e26 7a3e 15c9 433f 4e10 58bf
00000220: 1ee1 b7bf 46c5 86bd 1895 2d3f 35dc ca3f
00000230: 77ce 803d e237 8d3f 7730 c03e 053f c43e
00000240: 7ddb e73f 664e bbbe 786a 58bf 1ae9 a7be
00000250: be59 9e3f d438 9bbe 6c6a 883f ccb0 0bbe
00000260: f570 683f 846e b53f b0cf 6e3f 3ee2 ad3f
00000270: dc4f 97bf 02f5 923f 526e f8be 2423 cebe
00000280: 70f0 ce3d 7b99 7cbe 49a1 f73e 9608 f03e
00000290: 58ea e73e 64ed 583e 3693 66bf b1ce 57bf
000002a0: 02b7 32bf 34a4 4f3f cbbb 143f 6da3 4f3f
000002b0: 0303 353e 8437 523f 0e4c 653f 5b8d 82be
000002c0: a108 91bf 274a d73d ed28 57bf 38e5 dd3f
000002d0: ef75 973f 077f 17c0 13c3 5cbf 8eb0 bebe
000002e0: 0b31 87bf 7743 fbbe 4c3c 13be d51c 9bbf
000002f0: b545 bc3e da3a 293d 7833 81bf 02be a13f
00000300: eb90 0b3f 0e93 f3bf 7bbb eebd 5f57 0dbf
00000310: 89f6 9b3e 091c 49be a808 963e 3113 0c40
00000320: cba4 87bf 2aae 3c3f 28ec c4be 1852 8f3f
00000330: d120 89bf e39e b03f dac4 9b3f c300 1b3f
00000340: 4183 30bf 1bc6 5a3f 3369 c7be 1a4a 60bf
00000350: ad96 8e3e 1a98 c0be 569e 35bf dc12 9b3f
00000360: e267 27bf 3a8f afbf ca7c 96bf 3ab3 963e
00000370: ca7a 7e3f 1bd2 c1be ad71 b83f 68a1 2f3d
00000380: 7090 313f db75 d33f a3cc 68bf 7aaa 633f
00000390: aeb2 123f d771 04c0 3486 83bd 5f67 f13f
000003a0: 6fa6 c83e 750e ee3e 02b2 d63d e7e9 3ebe
000003b0: 8f94 d1bf 10b4 ce3f c509 aebf f238 2d3f
000003c0: ccfc 0a3d 36e6 8f3e f159 babe c23c b0bd
000003d0: b7e4 153e 4187 72bd 172d 23be 342b b63d
000003e0: 6464 e4bf 5021 cdbf 1207 24c0 298d 983e
000003f0: 64df a43f dfb1 71be 1314 a2be 79fd a03f

weight_ih_l0 f4 [160, 20]
0.16400985 -0.10399833 0.043612204 0.077135 0.24735108 0.3967741 0.09249866 0.035821363
0.0042341906 0.019806484 0.09695405 0.051585384 0.14185938 -0.09118508 0.11321675 0.15036061
0.10695478 -0.31865466 0.0008115304 0.15439726 -0.09100605 -0.06599541 0.51585066 0.048984088
0.1524696 0.1493644 0.062467877 0.03430138 -0.37816727 -0.36069253 -0.06602889 -0.048189353
-0.08698414 -0.1192112 -0.06976785 0.21108428 0.05915977 -0.08027507 -0.13762355 0.006860228
0.04835132 -0.0018927586 0.078594975 0.34937572 0.09801231 0.11764153 -0.07696957 0.038264956
0.14930908 -0.23634356 0.32120824 0.041866582 -0.0032202478 0.00820575 -0.02385872 -0.06865962
0.2891063 0.04763853 0.23120081 0.1095139 -0.28433093 0.025107529 -0.113800496 0.18486132
-0.0677833 0.08381697 0.052165836 0.03146279 0.060978174 -0.072444275 -0.1912375 0.12300416
0.27510038 -0.08816522 -0.068669036 0.09364233 0.18503225 0.07735705 0.073270775 -0.11745665
-0.017733758 -0.3122924 0.09748958 0.1332453 0.19078402 0.24309558 0.23404427 0.1164909
-0.062944606 -0.10334068 -0.054468304 0.1338567 -0.016297184 0.007375651 0.12711377 0.09810187
0.090908475 -0.04068853 0.13452485 0.054779664 -0.09169828 0.016682178 0.107267 -0.14516094
-0.0109631205 0.14486499 0.11527261 0.036314797 0.009753617 -0.0682597 0.09461146 0.12572123
0.08067123 0.20106156 0.09128622 -0.11267978 0.09235243 0.14895064 -0.053053502 0.07170845
0.09891772 -0.02937719 -0.07670261 0.22262473 -0.15278107 0.116840504 0.059703186 0.018910596
-0.07991992 0.1678588 0.023097161 -0.17363009 0.073673904 0.14214836 -0.18702324 -0.04483009
0.24316978 0.12867284 0.24527973 -0.18475126 0.1269951 0.037769046 -0.113215774 -0.041249514
0.105408534 -0.120721996 -0.18752956 0.056875985 -0.09147787 0.07862769 -0.069794446 -0.20325477
-0.1831064 0.16393813 0.0044325534 -0.14992084 0.14306371 0.19536863 0.038850665 -0.23576637
-0.01822199 0.19648626 -0.20554712 0.07881006 -0.20497331 0.103590675 -0.20692733 -0.14738007
-0.040950883 -0.05596521 0.14582579 -0.18513489 0.09978206 0.030693347 -0.023483872 0.01708678
-0.0058278404 0.011646442 -0.08120695 0.009927374 0.10109355 0.08603783 0.08450583 0.04435598
-0.3535227 0.20521916 0.21352896 0.13163802 -0.20052092 -0.25244322 -0.011924887 0.016191658
-0.029650368 -0.06155871 -0.031714443 -0.14741603 0.21923836 -0.033854395 -0.24242334 -0.0521133
-0.19128266 -0.03381022 -0.0376202 0.24456865 -0.03132804 0.18504976 0.06877169 0.080341384
-0.006206772 -0.15745743 0.0044225883 -0.24541175 0.025397811 0.04364001 0.10177744 4.8866656e-05
0.06632871 0.19836734 0.15999037 0.09573037 0.06671599 0.11540503 -0.108077675 0.069062866
0.052907422 0.1228696 0.06845656 0.030144168 -0.11872017 -0.055798974 -0.15639378 -0.016835866
0.035642665 -0.12660834 -0.1967053 0.014301797 -0.077153444 0.13479178 0.10275198 -0.01987328
-0.059563436 0.10164329 0.18579149 -0.036921587 -0.010059025 0.12262369 -0.08743217 0.10742909
0.06659614 -0.26161242 -0.050060067 -0.01023089 0.013034322 -0.108460985 0.17124315 -0.23263419
00000000: 33f2 273e 14fd d4bd b6a2 323d f4f8 9d3d
00000010: 9a49 7d3e fa25 cb3e f06f bd3d 6cb9 123d
00000020: f7be 8a3b 3541 a23c d88f c63d 324b 533d
00000030: 9643 113e 3ebf babd 2fde e73d 22f8 193e
00000040: 1c0b db3d b426 a3be e2bc 543a 511a 1e3e
00000050: 6161 babd 9a28 87bd ca0e 043f 8aa3 483d
00000060: fe20 1c3e fbf2 183e 51de 7f3d 9b7f 0c3d
00000070: 249f c1be b1ac b8be 283a 87bd 3362 45bd
00000080: be24 b2bd 0025 f4bd 72e2 8ebd 7a26 583e
00000090: 8451 723d 4267 a4bd 30ed 0cbe c3cb e03b
000000a0: 090c 463d 7116 f8ba 67f6 a03d 60e1 b23e
000000b0: aeba c83d 0bee f03d 39a2 9dbd b7bb 1c3d
000000c0: 7be4 183e 0c04 72be 6875 a43e 4b7c 2b3d
000000d0: cb0a 53bb 6971 063c 5d73 c3bc 6a9d 8cbd
000000e0: be05 943e 9f20 433d e8bf 6c3e d348 e03d
000000f0: d393 91be 4eae cd3c 3c10 e9bd 494c 3d3e
00000100: f9d1 8abd 3ba8 ab3d d8ab 553d 20df 003d
00000110: 40c4 793d aa5d 94bd c3d3 43be 9be9 fb3d
00000120: f5d9 8c3e f88f b4bd 5aa2 8cbd 8dc7 bf3d
00000130: 1879 3d3e 5f6d 9e3d fd0e 963d 1d8d f0bd
00000140: 6346 91bc cae4 9fbe 9ea8 c73d 7571 083e
00000150: e35c 433e 0cee 783e 4da9 6f3e c892 ee3d
00000160: 1ae9 80bd 47a4 d3bd 281a 5fbd bb11 093e
00000170: ac81 85bc 72af f13b 1d2a 023e a2e9 c83d
00000180: 392e ba3d 04a9 26bd e2c0 093e a460 603d
00000190: 4fcc bbbd 10a9 883c cdae db3d 12a5 14be
000001a0: a99e 33bc 7d57 143e 0c14 ec3d d3be 143d
000001b0: a3cd 1f3c becb 8bbd a7c3 c13d 11bd 003e
000001c0: f536 a53d 15e3 4d3e 45f4 ba3d a8c4 e6bd
000001d0: 4523 bd3d 8486 183e a14e 59bd e1db 923d
000001e0: 6095 ca3d 6fa8 f0bc 4216 9dbd bdf7 633e
000001f0: a472 1cbe 134a ef3d 548b 743d 65ea 9a3c
00000200: 0ead a3bd 2de3 2b3e 4236 bd3c 16cc 31be
00000210: 58e2 963d 578f 113e 0583 3fbe c29f 37bd
00000220: 8001 793e d0c2 033e 9c2a 7b3e 6f2f 3dbe
00000230: 010b 023e b7b3 1a3d acdd e7bd 40f5 28bd
00000240: 6ee0 d73d 183d f7bd c007 40be cbf6 683d
00000250: c058 bbbd 8e07 a13d 64f0 8ebd 0522 50be
00000260: 3e80 3bbe 66df 273e f43e 913b d984 19be
00000270: 4b7f 123e b70e 483e e021 1f3d bd6c 71be
00000280: 4846 95bc b233 493e f27a 52be 2b67 a13d
00000290: 86e4 51be 5927 d43d c2e4 53be cdea 16be
000002a0: 1dbc 27bd c73b 65bd 5b53 153e 0094 3dbe
000002b0: 895a cc3d 9d70 fb3c 4061 c0bc 93f9 8b3c
000002c0: 78f7 bebb b8d0 3e3c d44f a6bd 6da6 223c
000002d0: 230a cf3d 9a34 b03d 6511 ad3d 9eae 353d
000002e0: ed00 b5be f924 523e 56a7 5a3e 1ecc 063e
000002f0: 5b55 4dbe 3d40 81be 9a60 43bc 5ea4 843c
00000300: 54e5 f2bc fc24 7cbd 01e7 01bd 3af4 16be
00000310: 0580 603e e8aa 0abd d33d 78be c174 55bd
00000320: 9adf 43be 967c 0abd a417 1abd 3470 7a3e
00000330: d551 00bd af7d 3d3e 2cd8 8c3d 068a a43d
00000340: 2d62 cbbb 853c 21be 5ceb 903b 384d 7bbe
00000350: 120f d03c debf 323d b170 d03d 2cf6 4c38
00000360: 59d7 873d cf20 4b3e 84d4 233e 490e c43d
00000370: 65a2 883d 7959 ec3d d457 ddbd d570 8d3d
00000380: 74b5 583d 0fa3 fb3d f432 8c3d e7f0 f63c
00000390: 8f23 f3bd 778d 64bd b125 20be 5feb 89bc
000003a0: 0bfe 113d 9ea5 01be 1d6d 49be 1652 6a3c
000003b0: a002 9ebd db06 0a3e a16f d23d 4acd a2bc
000003c0: caf8 73bd 5b2a d03d 2040 3e3e 173b 17bd
000003d0: 9cce 24bc 2122 fb3d a30f b3bd c803 dc3d
000003e0: 8f63 883d 10f2 85be c90b 4dbd 769f 27bc
000003f0: e98d 553c cb20 debd 5d5a 2f3e a837 6ebe

weight_hh_l0 f4 [160, 40]
-0.1358372 0.14886685 0.10199135 -0.060105275 0.1797976 0.41931233 -0.13046764 -0.05753099
-0.32497516 -0.020228432 0.2798958 -0.2720866 0.11945127 0.010767939 -0.09971769 -0.040542606
-0.17975365 0.26335666 -0.09986408 -0.15457433 0.35216874 0.106250755 0.13232219 0.037278265
-0.18044695 -0.06821966 -0.0951892 -0.0721849 0.028669203 -0.16790359 -0.2298299 -0.15482111
0.080158554 -0.05054599 -0.31879306 -0.14951234 -0.03623325 0.2006561 -0.093305565 0.03053756
0.076888986 0.106061324 0.09598203 0.022073505 -0.020903226 0.089949615 0.21906002 -0.13921274
-0.10476652 -0.05922338 0.059859563 0.011068684 -0.06808038 0.065257035 0.049371902 -0.32430395
0.015930524 0.06850948 0.08257139 -0.093670264 0.17198934 -0.13557956 0.055345718 0.037444238
-0.11218336 -0.17999318 -0.019253349 0.1614676 -0.18932599 -0.10196737 -0.24723695 0.040134616
0.055504564 -0.13017789 0.08689746 -0.11692699 0.021525884 -0.007272408 -0.14818153 0.14008147
-0.20268266 -0.09247084 0.13522391 0.1780379 -0.11002817 -0.22567435 -0.12723732 -0.105526194
0.042357523 -0.055073425 0.10742033 0.00040306454 -0.02174104 -0.23913456 0.12921299 -0.12401168
-0.08981515 0.04831866 0.10181917 0.060982145 0.08340254 -0.07722917 0.039249457 -0.0035912911
0.04257846 -0.081199326 0.11817125 -0.20318589 0.31064278 -0.3365853 0.01784751 0.08049374
-0.32114106 0.031329356 0.062091015 0.053908464 0.025078364 0.1265574 -0.13471484 -0.1703658
-0.08954251 -0.13971396 0.02068981 -0.06066298 -0.084205925 -0.026321594 -0.12120787 0.24897794
-0.0038591803 -0.32213864 0.13500468 -0.17511778 -0.040922936 0.07491565 0.038088873 -0.31253612
0.00793166 0.096568584 0.21353191 -0.10359418 0.1752238 0.071329705 0.21901426 -0.11551005
0.023216978 -0.3505375 0.20814092 -0.3327522 0.0017301632 0.106842004 -0.20422897 0.2426874
-0.123022124 -0.005127011 0.004710026 0.3784386 -0.13136846 0.15836188 0.035540484 -0.2505367
-0.21352509 -0.0130523145 0.14392062 0.07759943 -0.18076295 0.14770931 0.004937334 0.13200773
0.04280066 -0.18523277 -0.13932498 -0.11500825 0.08119377 0.15049118 -0.042406645 0.037193272
0.07383144 -0.11804919 0.2334336 -0.077183194 -0.0057434435 -0.0730284 0.14639868 -0.08355999
-0.17649741 -0.1259137 -0.015249694 -0.08352576 0.06915575 0.053780977 -0.17116565 0.17612018
0.11076975 -0.15431131 -0.05521499 -0.059452515 0.0072579104 0.1500501 -0.16296305 -0.02996564
-0.08836846 -0.29337454 0.15789181 0.11224296 -0.028096428 0.04922456 -0.07061652 0.0721575
0.1582344 -0.05656757 -0.07450354 0.058873355 0.104346864 -0.1727387 -0.09519858 -0.12809947
0.12321571 0.017383082 0.07782611 -0.17573519 -0.08561242 0.13666706 0.10979324 -0.22202213
-0.0069633606 -0.19341104 0.26989648 -0.118013784 -0.07830391 0.13662337 -0.034961 0.045168646
-0.117123075 0.13728628 0.005077449 0.122161955 -0.12533395 -0.0077341413 -0.04774657 -0.27672446
-0.038296025 0.06347789 0.18752564 -0.008313378 -0.23940347 0.07754573 0.14689286 0.07734465
0.12788308 -0.33050784 -0.0038063733 0.05220704 0.06653371 -0.10148508 0.09681637 0.06345686
00000000: e818 0bbe 8d70 183e d7e0 d03d f330 76bd
00000010: dd1c 383e 1bb0 d63e 4f99 05be 9ea5 6bbd
00000020: 2563 a6be 19b6 a5bc 814e 8f3e ef4e 8bbe
00000030: dea2 f43d 026c 303c ca38 ccbd 0110 26bd
00000040: 5711 38be afd6 863e 8a85 ccbd bc48 1ebe
00000050: 764f b43e ff99 d93d 787f 073e 18b1 183d
00000060: 16c7 38be c0b6 8bbd 8ef2 c2bd add5 93bd
00000070: addb ea3c ebee 2bbe 8858 6bbe 6d89 1ebe
00000080: 2b2a a43d 5009 4fbd d838 a3be c319 19be
00000090: 5169 14bd cb78 4d3e fd16 bfbd e829 fa3c
000000a0: f977 9d3d ae36 d93d 3a92 c43d 7fd3 b43c
000000b0: 3e3d abbc 8137 b83d 4551 603e c98d 0ebe
000000c0: d48f d6bd 3794 72bd 4d2f 753d 6d59 353c
000000d0: ba6d 8bbd 7ba5 853d 313a 4a3d 2b0b a6be
000000e0: bb80 823c b34e 8c3d 301b a93d 32d6 bfbd
000000f0: f91d 303e 5ed5 0abe 31b2 623d 215f 193d
00000100: 64c0 e5bd 2250 38be 33b9 9dbc c357 253e
00000110: acde 41be 45d4 d0bd af2b 7dbe 3264 243d
00000120: c158 633d 5a4d 05be 4cf7 b13d 6b77 efbd
00000130: 0d57 b03c 614d eebb e6bc 17be 8471 0f3e
00000140: 0b8c 4fbe 5a61 bdbd 2378 0a3e 914f 363e
00000150: 7356 e1bd 2d17 67be 804a 02be 1e1e d8bd
00000160: 157f 2d3d ac94 61bd 31ff db3d 6852 d339
00000170: 441a b2bc b1df 74be 6950 043e d6f9 fdbd
00000180: 01f1 b7bd cae9 453d 9286 d03d 6ac8 793d
00000190: f3ce aa3d 542a 9ebd 0ac4 203d de5b 6bbb
000001a0: c066 2e3d d54b a6bd c503 f23d f60f 50be
000001b0: 920c 9f3e e954 acbe f134 923c e7d9 a43d
000001c0: 9a6c a4be 3653 003d 2653 7e3d 1fcf 5c3d
000001d0: 2471 cd3c 4398 013e b0f2 09be 5f74 2ebe
000001e0: 1062 b7bd 2d11 0fbe ad7d a93c bf79 78bd
000001f0: 2874 acbd 62a0 d7bc d53b f8bd 13f4 7e3e
00000200: 4dea 7cbb 5bef a4be ab3e 0a3e 1352 33be
00000210: cf9e 27bd 606d 993d 1403 1c3d bc04 a0be
00000220: cbf3 013c c0c5 c53d 1ca8 5a3e 2f29 d4bd
00000230: de6d 333e 4f15 923d 4645 603e 8890 ecbd
00000240: 8831 be3c a779 b3be e522 553e 7f5e aabe
00000250: a5c6 e23a fbcf da3d 6621 51be 0c83 783e
00000260: 06f3 fbbd 7c00 a8bb 9056 9a3b b4c2 c13e
00000270: 7485 06be 9e29 223e e692 113d 5946 80be
00000280: 52a6 5abe 60d9 55bc ed5f 133e 73ec 9e3d
00000290: ec19 39be 1c41 173e 5cc9 a13b 092d 073e
000002a0: bf4f 2f3d a9ad 3dbe 35ab 0ebe 7289 ebbd
000002b0: eb48 a63d 5c1a 1a3e 97b2 2dbd f957 183d
000002c0: f034 973d c6c3 f1bd 3809 6f3e 3912 9ebd
000002d0: 7f33 bcbb ea8f 95bd 89e9 153e 8021 abbd
000002e0: bdbb 34be 85ef 00be dad9 79bc 8e0f abbd
000002f0: 88a1 8d3d 7149 5c3d 0c46 2fbe d958 343e
00000300: 40db e23d c903 1ebe 1d29 62bd 7b84 73bd
00000310: c4d3 ed3b bca6 193e c9df 26be 807a f5bc
00000320: 86fa b4bd 3035 96be 64ae 213e a3df e53d
00000330: 7b2a e6bc b19f 493d 659f 90bd 50c7 933d
00000340: 3308 223e 65b3 67bd 5095 98bd 3025 713d
00000350: cfb3 d53d 6ae2 30be 79f7 c2bd 822c 03be
00000360: 8558 fc3d f766 8e3c 4c63 9f3d edf3 33be
00000370: 9155 afbd 73f2 0b3e 47db e03d c559 63be
00000380: e72c e4bb 8b0d 46be df2f 8a3e 36b1 f1bd
00000390: cd5d a0bd ffe6 0b3e 4433 0fbd c202 393d
000003a0: 39de efbd c694 0c3e bb60 a63b 0c30 fa3d
000003b0: 8b57 00be ae6e fdbb e891 43bd d4ae 8dbe
000003c0: 4bdc 1cbd b200 823d b906 403e d634 08bc
000003d0: 2f26 75be 4cd0 9e3d 156b 163e df66 9e3d
000003e0: c8f3 023e 5338 a9be 5974 79bb 0dd7 553d
000003f0: d342 883d 69d7 cfbd a947 c63d acf5 813d

bias_ih_l0 f4 [160]
0.012323852 -0.0049153757 0.12845458 -0.007237366 0.19759096 0.036893513 0.037402365 -0.155247
0.04262275 0.010991264 -0.030150626 0.20333034 0.079606384 -0.047824312 0.007675246 -0.07420681
-0.010078819 -0.024726681 0.09433805 0.21973859 0.0298539 -0.034482345 0.08161651 0.10703771
-0.075795755 0.038225368 -0.044553824 -0.102601185 0.11089865 0.16004325 0.057078652 -0.08697155
0.10270564 -0.10038981 0.14927113 -0.05215801 0.07234438 -0.13953741 0.009897179 0.011253838
0.048514985 -0.01312069 -0.04821275 0.07351206 -0.090125866 0.06875234 0.1692763 -0.015470532
-0.027422165 0.09918608 0.031129107 0.10050019 0.04930568 0.001871995 0.058816075 0.011899288
0.10801355 0.06761961 0.10719215 0.14211683 0.12836215 0.064775966 0.0029564889 0.037008576
-0.16407567 0.23173149 -0.030881908 0.11416435 0.097920954 0.029177694 0.11680801 -0.107932255
-0.022768924 0.024590818 0.12594993 0.18300481 0.11303206 -0.03192812 -0.031730495 -0.035732932
-0.031776235 -0.102981396 -0.036898322 0.0725147 0.07640054 -0.02598483 0.1072574 -0.1426935
-0.059860002 -0.13700701 -0.13526575 0.048645783 -0.027125329 0.015808962 -0.046197895 -0.0019698562
0.026354274 0.035105936 0.05181573 -0.04625223 0.037901446 -0.092625715 0.09313608 -0.051589154
-0.09604668 0.044835735 -0.09253582 -0.15045814 -0.04225652 0.0718481 0.056972466 0.14516313
-0.13555098 0.11759269 0.053961985 -0.031752 -0.06695714 0.06816854 0.15008533 -0.009521043
-0.007600507 0.03488001 -0.012391124 0.15630157 0.0665735 0.058130726 0.25235948 0.010195926
0.040082157 0.0026104788 0.046863865 0.12859604 0.17403626 -0.08696867 0.23984529 -0.02732996
-0.07528459 -0.009255531 -0.08275635 0.12896714 0.18583474 -0.12081039 0.034995336 0.14480352
0.012958098 -0.047026914 -0.082437515 0.101999946 0.03756029 -0.03466578 0.044845928 0.058917616
-0.007262157 -0.0032762215 -0.0854376 0.24906896 0.051174395 -0.1429552 0.12164509 0.10702148
00000000: fbe9 493c 2911 a1bb 9989 033e 6d27 edbb
00000010: 4955 4a3e a71d 173d 3933 193d 12f9 1ebe
00000020: 3195 2e3d b414 343c 72fe f6bc d435 503e
00000030: ac08 a33d 6de3 43bd a180 fb3b bdf9 97bd
00000040: a121 25bc 9c8f cabc 4f34 c13d 2703 613e
00000050: 2b90 f43c 5c3d 0dbd 8f26 a73d 9636 db3d
00000060: ce3a 9bbd 3492 1c3d 127e 36bd 9220 d2bd
00000070: d51e e33d 61e2 233e 4ecb 693d 241e b2bd
00000080: 5657 d23d 2c99 cdbd 88da 183e a3a3 55bd
00000090: 4a29 943d e5e2 0ebe c727 223c 0562 383c
000000a0: a6b7 463d 2af8 56bc bc7a 45bd 7e8d 963d
000000b0: e993 b8bd 07ce 8c3d c456 2d3e 1d78 7dbc
000000c0: 73a4 e0bc 1222 cb3d 7802 ff3c 0bd3 cd3d
000000d0: c1f4 493d bb5d f53a 20e9 703d 3bf5 423c
000000e0: 3536 dd3d 267c 8a3d 8f87 db3d 1387 113e
000000f0: 5e71 033e 43a9 843d a7c1 413b 4e96 173d
00000100: 7403 28be 054b 6d3e 0efc fcbc 00cf e93d
00000110: c88a c83d 0f06 ef3c 0a39 ef3d 960b ddbd
00000120: e585 babc af72 c93c 05f9 003e 9d65 3b3e
00000130: 5a7d e73d 0fc7 02bd d6f7 01bd b25c 12bd
00000140: cc27 02bd e9e7 d2bd b222 17bd 9682 943d
00000150: e377 9c3d 23de d4bc c5a9 db3d 3f1e 12be
00000160: c32f 75bd 914b 0cbe 1b83 0abe cd40 473d
00000170: f035 debc cc81 813c 013a 3dbd b418 01bb
00000180: ebe4 d73c 3ecb 0f3d bb3c 543d fa72 3dbd
00000190: 8c3e 1b3d 8db2 bdbd 21be be3d 264f 53bd
000001a0: 1fb4 c4bd ada5 373d 6c83 bdbd b311 1abe
000001b0: 2c15 2dbd 1925 933d f65b 693d a5a5 143e
000001c0: e0cd 0abe 70d4 f03d 3e07 5d3d 630e 02bd
000001d0: d320 89bd f39b 8b3d f8af 193e 26fe 1bbc
000001e0: ac0d f9bb 57de 0e3d 2404 4bbc 850d 203e
000001f0: b057 883d 7c1a 6e3d 4335 813e d00c 273c
00000200: 302d 243d 9114 2b3b 53f4 3f3d aeae 033e
00000210: 9036 323e a11c b2bd 019a 753e 15e3 dfbc
00000220: cf2e 9abd 83a4 17bc 297c a9bd f60f 043e
00000230: 764b 3e3e 706b f7bd 4557 0f3d 6047 143e
00000240: 344e 543c 4b9f 40bd 00d5 a8bd 59e5 d03d
00000250: d2d8 193d b4fd 0dbd 5db0 373d 9953 713d
00000260: 63f7 edbb e0b5 56bb e9f9 aebd ef0b 7f3e
00000270: 3e9c 513d d962 12be 1021 f93d 142e db3d

bias_hh_l0 f4 [160]
0.012176442 -0.16416323 -0.06320309 0.12296128 0.18854436 0.13915601 0.20424734 0.10090961
-0.09857966 -0.059217427 -0.06661419 0.028498946 -0.0074929637 0.031475708 0.21301948 -0.022032533
0.10040073 0.17349203 -0.11156444 -0.05813494 -0.09847342 0.0042282534 -0.18128747 0.1758467
0.08921215 0.06884363 0.10813162 0.13396089 0.17881528 0.16002342 0.067450196 0.023877261
-0.18115267 0.045431998 -0.13229266 0.04678349 0.11561061 0.010817052 -0.077380195 -0.07688475
0.13896838 -0.018112876 0.11163805 0.06241046 0.11712364 0.24030265 0.30513424 -0.013049118
-0.015579975 -0.022387303 -0.19078138 0.0999379 0.12102024 -0.04465732 0.110954456 0.048793357
-0.043029413 0.11142313 0.04317713 0.006528176 0.15790792 0.16692981 0.1761989 0.03236798
0.008104224 0.11340498 0.084989056 -0.13063094 0.13332874 -0.017513098 0.27978575 0.14278145
0.018668635 0.18190864 -0.11579693 0.28377464 -0.13762328 -0.15590963 -0.018237395 -0.15313615
0.11388744 0.09951537 0.09196903 -0.048104785 -0.13893852 -0.21424179 0.15567532 -0.12606984
0.075500205 -0.14535774 -0.043809194 0.14848298 0.11593566 0.060103655 0.09404445 -0.111544356
0.10592091 -0.07725178 -0.16938308 0.15340382 0.07512658 -0.033904504 -0.118024684 0.10158641
0.1813075 0.13126339 0.18212971 0.06734436 0.11697357 -0.08220323 -0.030548101 0.14676772
-0.048858825 -0.0037749896 0.16189139 0.10160932 0.15311764 0.009681702 0.13054986 0.050424773
-0.011504324 0.16515583 -0.0725444 0.22302595 0.13017623 0.09766603 0.031586636 0.13242362
-0.015883952 0.035301235 0.1035826 0.0870892 -0.007706673 -0.18201089 0.07328984 0.15964241
0.0034543262 -0.024955448 -0.013678469 0.064569436 0.1551819 0.09557183 -0.018949507 0.14841016
-0.19702053 0.086420365 0.16328049 0.07955836 0.15280353 0.13124628 0.057329636 0.12093773
-0.08514775 0.09456746 -0.055648055 0.084828794 -0.039692994 -0.14119686 0.14469282 0.04562334
00000000: b37f 473c 681a 28be 9f70 81bd 20d3 fb3d
00000010: c611 413e ea7e 0e3e 3726 513e b3a9 ce3d
00000020: 22e4 c9bd f98d 72bd 056d 88bd 9f76 e93c
00000030: 8987 f5bb acec 003d c721 5a3e 927d b4bc
00000040: e69e cd3d e5a7 313e e67b e4bd e71e 6ebd
00000050: 6fac c9bd 298d 8a3b 6ca3 39be 2811 343e
00000060: dcb4 b63d e4fd 8c3d 1c74 dd3d 0b2d 093e
00000070: 5a1b 373e 2edd 233e 5423 8a3d 3f9a c33c
00000080: 1680 39be e716 3a3d ba77 07be 0ba0 3f3d
00000090: 41c5 ec3d 013a 313c 8279 9ebd c075 9dbd
000000a0: ba4d 0e3e 7461 94bc 7da2 e43d 1ca2 7f3d
000000b0: 85de ef3d e611 763e 8e3a 9c3e f8cb 55bc
000000c0: 2743 7fbc 9465 b7bc 325c 43be 3eac cc3d
000000d0: 76d9 f73d 98ea 36bd 173c e33d 8bdb 473d
000000e0: 9c3f 30bd cf31 e43d 81da 303d 4fea d53b
000000f0: 9db2 213e a6ef 2a3e 7c6d 343e 4994 043d
00000100: 94c7 043c df40 e83d be0e ae3d 1ec4 05be
00000110: 5487 083e a177 8fbc 1440 8f3e 4d35 123e
00000120: f7ee 983c 4246 3a3e f126 edbd e94a 913e
00000130: 1eed 0cbe c6a6 1fbe 9766 95bc b9cf 1cbe
00000140: d13d e93d b7ce cb3d 425a bc3d 8609 45bd
00000150: e645 0ebe 3362 5bbe 5a69 1f3e 7418 01be
00000160: da9f 9a3d a9d8 14be 4571 33bd ec0b 183e
00000170: ad6f ed3d 402f 763d 609a c03d 5e71 e4bd
00000180: 10ed d83d 2e36 9ebd c272 2dbe e415 1d3e
00000190: f7db 993d 73df 0abd edb6 f1bd 890c d03d
000001a0: aca8 393e e969 063e 3680 3a3e d7eb 893d
000001b0: d78f ef3d 2b5a a8bd 0340 fabc 474a 163e
000001c0: 3120 48bd d165 77bb dbc6 253e 8c18 d03d
000001d0: dfca 1c3e 00a0 1e3c ddae 053e 358a 4e3d
000001e0: a27c 3cbc 9c1e 293e 2992 94bd ea60 643e
000001f0: eb4c 053e 2105 c83d fd60 013d 0f9a 073e
00000200: 101f 82bc 0798 103d 1d23 d43d d35b b23d
00000210: 4288 fcbb 1061 3abe fc18 963d 4d79 233e
00000220: fa61 623b 5e6f ccbc a81b 60bc fb3c 843d
00000230: 01e8 1e3e 2abb c33d ff3b 9bbc d5f8 173e
00000240: c0bf 49be 29fd b03d 0033 273e 7eef a23d
00000250: 8778 1c3e 6d65 063e 7bd2 6a3d 33ae f73d
00000260: f261 aebd 96ac c13d 37ef 63bd b8ba ad3d
00000270: 1f95 22bd e995 10be 5b2a 143e 8adf 3a3d

weight f4 [2, 40]
0.6772003 -0.8811633 -0.81263256 0.28904453 -0.2953439 -0.28870398 0.20770803 0.04475554
-0.041126467 -0.6707107 -0.55406314 0.30122763 0.3858742 0.100177415 0.35006872 -0.11382112
0.32433957 -0.14893182 -0.16899103 0.3387696 -0.6424707 -0.43203622 -0.38348922 0.6869277
0.4229443 -0.014209452 -0.12171303 -0.04480743 0.017059656 0.0595263 0.19686542 0.07614334
-0.18867806 -0.2889609 -0.14653057 0.58988726 -0.18122561 -0.12546998 -0.083885275 -0.4340526
-0.48920518 1.0440837 0.61242443 -0.30145127 0.15478209 0.33360267 -0.19584061 0.103799224
-0.23091349 0.9007562 0.40913016 -0.14112347 -0.41502422 0.06261919 -0.2685746 0.36083913
-0.35439813 0.25592473 0.09890167 -0.1376579 0.66527396 0.53172165 0.52061725 -0.80270463
-0.49508032 0.045181222 -0.1361433 0.10454168 -0.10029385 0.09074502 -0.14218742 -0.32526246
0.0775774 0.11705479 -0.08786957 -0.7120216 -0.0702073 0.08171069 0.07528615 0.354847
00000000: 005d 2d3f eb93 61bf b008 50bf a5fd 933e
00000010: 5137 97be 02d1 93be 6ab1 543e 9651 373d
00000020: 3a74 28bd b2b3 2bbf 15d7 0dbf 823a 9a3e
00000030: 4e91 c53e d129 cd3d 353c b33e 0c1b e9bd
00000040: d60f a63e 9581 18be fc0b 2dbe 3673 ad3e
00000050: f678 24bf da33 ddbe b358 c4be 7eda 2f3f
00000060: 288c d83e c3ce 68bc ae44 f9bd ff87 37bd
00000070: b1c0 8b3c d9d1 733d 1797 493e 0af1 9b3d
00000080: d234 41be aff2 93be 1c0c 16be da02 173f
00000090: 3593 39be 347b 00be 0bcc abbd 243c debe
000000a0: 1a79 fabe 89a4 853f d9c7 1c3f d257 9abe
000000b0: 327f 1e3e f8cd aa3e 718a 48be b094 d43d
000000c0: 9674 6cbe f597 663f 8279 d13e ac82 10be
000000d0: 0e7e d4be 7d3e 803d 9c82 89be e8bf b83e
000000e0: ac73 b5be 9108 833e f58c ca3d 31f6 0cbe
000000f0: 654f 2a3f e91e 083f 2c47 053f 0d7e 4dbf
00000100: 2b7b fdbe f20f 393d 2669 0bbe f319 d63d
00000110: dd66 cdbd 86d8 b93d 9499 11be cd88 a6be
00000120: e6e0 9e3d 6cba ef3d f6f4 b3bd 0c47 36bf
00000130: d8c8 8fbd ef57 a73d a02f 9a3d 82ae b53e

bias f4 [2]
-0.16815905 0.25793034
00000000: e331 2cbe 720f 843e
