406-jyb/week7/model_fast.pth (torch, 85105 bytes, 4 tensors)

weight f4 [200, 100]
0	0xbdcc85f7	-0.09986489
1	0xbd9f0a2a	-0.077656105
2	0xbdae894b	-0.0852228
3	0xbda4634f	-0.08026754
4	0x3d401abb	0.046900492
5	0xbcf47312	-0.029840026
6	0xbd669fa0	-0.056304574
7	0xbd4729ac	-0.048623726
8	0xbdd270f9	-0.10275454
9	0xbc2c3068	-0.010509588
10	0x3d03b7ea	0.032157816
11	0xbd8335d7	-0.064067535
12	0x3dafa2ba	0.085759595
13	0xbc54b18c	-0.012981784
14	0x3d9a6e27	0.07540541
15	0x3db3ae0a	0.0877343
16	0xbdb590d7	-0.08865517
17	0xbdf33a0b	-0.11876305
18	0xbd40d64d	-0.047079373
19	0x3b02e908	0.0019975323
20	0x3c8d247d	0.017229313
21	0xbd8a13b8	-0.06742042
22	0xbd5a608d	-0.053314734
23	0xbdc51508	-0.09623152
24	0xbd6a1377	-0.05714747
25	0x3a10255d	0.00054987316
26	0x3cc2ce44	0.023779996
27	0x3d0ad632	0.03389568
28	0x3db9ec21	0.09078241
29	0xbd8d4b1b	-0.06899091
30	0x3d3bde52	0.045866318
31	0x3d1f1a24	0.03884329
32	0x3d3fdb0a	0.04683975
33	0x3bb61658	0.005556863
34	0xbd39d9af	-0.045373615
35	0x3d77604b	0.060394567
36	0xbc01a1be	-0.0079120975
37	0x3dc41824	0.09574917
38	0xbd9d97d7	-0.07694977
39	0x3df521c7	0.11969333
40	0xbd4773db	-0.048694473
41	0xbd691722	-0.056906827
42	0x3d04ff25	0.032469887
43	0x3bf77cf0	0.0075527355
44	0x3d5696fe	0.05239009
45	0x3d02abc0	0.031902075
46	0xbb01e462	-0.0019819965
47	0xbccfaf8c	-0.025352262
48	0xbd822c10	-0.063560605
49	0x3df2e0ee	0.11859308
50	0x3ce40df8	0.027838692
51	0x3d989e33	0.07452049
52	0xbcdd7791	-0.027034553
53	0xbdccf434	-0.100075155
54	0xbc5ae14a	-0.013359377
55	0x3d0b33c3	0.03398491
56	0x3deafdef	0.11474215
57	0x3cd6f52f	0.02623996
58	0xbdc76a72	-0.097371
59	0x3d940c95	0.07228962
60	0x3c959d51	0.01826349
61	0x3ca210da	0.019783426
62	0xbdf48914	-0.11940208
63	0xbcb80c6b	-0.022466859
64	0x3db6a54f	0.08918249
65	0x3a8af9f0	0.0010603052
66	0xbdafd1e1	-0.08584953
67	0xbc4e388a	-0.012586722
68	0x3c5fa88f	0.013651027
69	0xbdb1533e	-0.08658455
70	0xbd918f9f	-0.07107472
71	0xbc196628	-0.009362735
72	0xbc839366	-0.016061496
73	0x3d268298	0.040651888
74	0x3db85eb6	0.0900244
75	0xbc0ed45c	-0.008717623
76	0x3d5c8ac5	0.05384328
77	0x3d258314	0.04040821
78	0xbd86d3d5	-0.065833725
79	0xbcd9d6c8	-0.026591673
80	0xbcfa3536	-0.030542951
81	0xbd526d01	-0.051373485
82	0x3d97062e	0.073742256
83	0xbd464ba7	-0.04841199
84	0x3c55101e	0.013004331
85	0xbc644da4	-0.013934527
86	0x3d30828c	0.04309325
87	0x3bef6587	0.007305804
88	0x3d4dc4fb	0.050236683
89	0x3d3f50ed	0.046708036
90	0x3d9960ed	0.0748919
91	0x3c4aa955	0.012369473
92	0x3d1743ad	0.036929775
93	0x3d3023bf	0.04300284
94	0xbdc0b12c	-0.09408793
95	0x3c80f824	0.015743323
96	0x3d12133f	0.035662886
97	0xbd8140d7	-0.06311195
98	0xbd3a6a43	-0.045511495
99	0x3d8d970d	0.06913576
100	0x3d84caef	0.06484019
101	0x3c10f5e8	0.008847691
102	0xbd9a0982	-0.07521345
103	0x3c20975b	0.009801711
104	0x3d86f66d	0.06589971
105	0x3c1926e2	0.009347649
106	0x3cc9e961	0.024647417
107	0xbd2dda09	-0.042444263
108	0x3c9062e9	0.017625289
109	0xbe0d953b	-0.13826458
110	0x3e094e72	0.13408831
111	0x3d986570	0.07441223
112	0x3ca81841	0.020519378
113	0xbc2caffa	-0.010540003
114	0xbd8d087c	-0.06886384
115	0x3d9d2922	0.07673861
116	0xbc1cedb3	-0.009578156
117	0xbcb8548c	-0.022501253
118	0x3c95070d	0.018191839
119	0xbd0f25a5	-0.03494801
120	0x3e2d89a9	0.16947044
121	0x3dddd82c	0.10832247
122	0xbd29b15e	-0.041428916
123	0xbc94eebb	-0.018180242
124	0xbce901e6	-0.028443288
125	0xbd070669	-0.032965098
126	0x3d9bad8b	0.0760146
127	0xbd766a9f	-0.060160276
128	0x3c89e769	0.016833978
129	0x3d8d96aa	0.069135025
130	0xbe1a0349	-0.15040316
131	0x3cb06f64	0.02153749
132	0xbd485985	-0.048913497
133	0xbd5521c8	-0.05203417
134	0xbde52a52	-0.111897126
135	0x3dae9202	0.085239425
136	0xbd2c35ed	-0.042043615
137	0x3d8eac8b	0.06966504
138	0x3d50dec5	0.0509937
139	0x3bdfc596	0.006828974
140	0x3cb7b0f3	0.022423243
141	0x3d863fbf	0.06555127
142	0x3ab363ce	0.001368636
143	0xbb41c4dc	-0.00295668
144	0x3dc7fe7f	0.09765338
145	0x3ba0867e	0.004898845
146	0xbdb45841	-0.088058956
147	0xbdaaf43a	-0.08347364
148	0x3c403eda	0.011733735
149	0x3d69fc37	0.057125296
150	0xbdb48cf6	-0.08815949
151	0xbd11af82	-0.035567768
152	0xbd8d57f4	-0.06901541
153	0xbd45d236	-0.048296176
154	0x3d0025a2	0.03128589
155	0xbd9c23cd	-0.07624016
156	0x3e06b8d6	0.13156447
157	0x3d9c6552	0.07636513
158	0xbe00b85e	-0.1257033
159	0xbcaf9554	-0.02143351
160	0xbe00e656	-0.12587866
161	0x3da04b2c	0.07826838
162	0x3cc925b3	0.02455411
163	0x3bfdb51e	0.007742538
164	0x3d90a329	0.0706237
165	0x3c4954a5	0.012288247
166	0xbd6545bc	-0.055974707
167	0x3d86c9cf	0.06581461
168	0xbd8ab3e4	-0.06772593
169	0x3d3ae2fb	0.04562662
170	0xbd433da2	-0.0476662
171	0xbd8eae28	-0.069668114
172	0x3ddee960	0.108843565
173	0xbdaee4b8	-0.085397184
174	0x3daf3e08	0.085567534
175	0x3c8aa246	0.016923081
176	0x3bced86b	0.00631242
177	0x3cfaebc4	0.03063
178	0x3ddbde9b	0.10735818
179	0x3dfb4d2e	0.1227058
180	0x3cfec250	0.031098515
181	0x3d570749	0.052497182
182	0x3de73241	0.11288882
183	0x3d504139	0.05084345
184	0xbd30a553	-0.043126415
185	0x3daf9ea0	0.08575177
186	0xbd5e9345	-0.054339666
187	0x3e039074	0.12848073
188	0xbcf22b1a	-0.029561568
189	0xbbe88909	-0.007096414
190	0x3d9716ea	0.073774174
191	0xbc27ff0d	-0.01025368
192	0x3d3eb32e	0.046557598
193	0x3b8fbee8	0.0043867715
194	0xbe08465c	-0.1330809
195	0x3daadba5	0.08342675
196	0x3d08d9ab	0.03341071
197	0x3df462dd	0.11932919
198	0x3cb0ad95	0.021567145
199	0x39fe96a2	0.00048558885
200	0x3d139357	0.036029186
201	0xbc86dce9	-0.01646276
202	0x3d6aa19f	0.05728304
203	0xbdc9c3a6	-0.0985177
204	0xbdd2954f	-0.102823846
205	0xbda9f621	-0.082988985
206	0xbb5fc990	-0.003414724
207	0xbcb76c91	-0.022390636
208	0x3d85a5df	0.06525778
209	0xbcfeae02	-0.031088833
210	0xbd6637e4	-0.056205645
211	0x3c8aa115	0.016922513
212	0x3d17113f	0.03688168
213	0x3db4e840	0.08833361
214	0xb9f3ff82	-0.0004653894
215	0xbd65948a	-0.05604986
216	0xbbdf3d59	-0.006812733
217	0x3b7fe067	0.0039043666
218	0x3d976fca	0.07394369
219	0x3cbc9de1	0.023024501
220	0xbcba3604	-0.022730835
221	0x3d116d0d	0.03550439
222	0x3cdb71df	0.026787696
223	0x3c2f8d33	0.010714817
224	0x3cceb96c	0.0252349
225	0x3d705398	0.05867347
226	0x3cfe8160	0.03106755
227	0x3caed1b7	0.021340234
228	0xbbe616ee	-0.0070217764
229	0xbd9583d3	-0.07300534
230	0x3cdc0de8	0.0268621
231	0xbc914a20	-0.01773554
232	0xbdabebd6	-0.083945915
233	0xbd47182d	-0.04860704
234	0xbc2a6852	-0.010400848
235	0x3d3f074a	0.04663781
236	0xbd995e7b	-0.07488724
237	0x3d838f56	0.064238235
238	0x3db7bbe7	0.089713864
239	0x3cb82d75	0.022482613
240	0x3da3d937	0.08000415
241	0x3cd4abc7	0.025960816
242	0x3db460b7	0.088075094
243	0xbcd9505b	-0.026527574
244	0x3dc5bd7b	0.09655281
245	0x3d81b8d9	0.06334085
246	0xbda1e8bc	-0.07905719
247	0x3d273e6d	0.04083102
248	0xbcd0c9bc	-0.02548682
249	0x3c4234f9	0.01185345
250	0xbdb7ae62	-0.08968808
251	0xbd9d9e24	-0.076961786
252	0xbcf22037	-0.029556377
253	0x3d0bd38c	0.034137294
254	0xbc8a2997	-0.016865535
255	0xbba62135	-0.0050698766

bias f4 [200]
0	0x3b66f1eb	0.003523941
1	0x3da8c6f8	0.08241075
2	0xbd920ad5	-0.07130972
3	0xbc235c99	-0.0099708075
4	0x3dc340a5	0.09533814
5	0xbc39e555	-0.011346181
6	0xbd68b2de	-0.056811206
7	0x3cbfdb4a	0.023419995
8	0xbd86deec	-0.06585488
9	0x3d81a8a0	0.06330991
10	0xbb03fd06	-0.0020139827
11	0x3d8d21fe	0.06891249
12	0xbdbd0e6d	-0.09231267
13	0xbcd06475	-0.025438527
14	0x3dc2a80e	0.0950471
15	0xbceea40a	-0.029130954
16	0xbd66f054	-0.05638154
17	0x3d1e5428	0.038654476
18	0x3d6729f3	0.05643649
19	0x3d1b905b	0.037979465
20	0xbd147ad8	-0.036249965
21	0xbd9047df	-0.07044958
22	0x3db5af82	0.08871366
23	0x3d2922cb	0.041292947
24	0xbb89893a	-0.004197267
25	0x3d98f29a	0.074681476
26	0xbd2a97f8	-0.041648835
27	0xbdc1fefc	-0.094724625
28	0x3c817103	0.015800958
29	0x3dd1d3d4	0.10245481
30	0xbd4fbd36	-0.050717555
31	0xbc9a7eb7	-0.01885925
32	0xbca67d5a	-0.020323444
33	0x3dbbef8e	0.09176551
34	0xbd962504	-0.07331279
35	0xbdac6a17	-0.084186725
36	0xbc9a35fd	-0.018824572
37	0x3c638f74	0.013889182
38	0xbd9d9ad8	-0.0769555
39	0xbc80485c	-0.015659504
40	0xbd12c800	-0.035835266
41	0xbd232fe8	-0.03984061
42	0xbd42fadf	-0.04760253
43	0x3dc76f3d	0.09738014
44	0xbce9ffda	-0.028564382
45	0xbd8162a7	-0.063176446
46	0x3bfc73c6	0.007704231
47	0x3db59827	0.088669114
48	0x3d8deec6	0.06930308
49	0x3ba5c5e9	0.005058993
50	0xbd224720	-0.03961861
51	0xbd839d1e	-0.06426452
52	0xbd5f6bda	-0.054546215
53	0xbd8223fd	-0.063545205
54	0xbd2aee5b	-0.04173122
55	0x3c97743e	0.018488046
56	0xbd97f3af	-0.07419526
57	0xbd6a300a	-0.05717472
58	0xbcb069e4	-0.021534868
59	0x3bda738f	0.0066666077
60	0x3cbac0d0	0.022797018
61	0x3d63cc72	0.055614896
62	0x3d69767e	0.05699777
63	0x3db967f1	0.090530284
64	0xbc734fe1	-0.014850588
65	0xbd6b6467	-0.057468798
66	0x3db73971	0.08946503
67	0x3d1fb8a5	0.03899445
68	0x3d4896e9	0.048972044
69	0x3d7d1092	0.06178338
70	0x3d8b8d8a	0.06814106
71	0xbddc7fb5	-0.10766546
72	0x3dcb8b89	0.099387236
73	0x3d38f6a9	0.04515711
74	0x3d10cb54	0.03535016
75	0xbc42686a	-0.011865715
76	0x3db0be19	0.08630008
77	0xbcf0e7a8	-0.029407337
78	0x3d3de7c3	0.046363603
79	0xbdc750d1	-0.097322114
80	0xbd86378b	-0.06553563
81	0xbdb7a84a	-0.089676455
82	0xbd4c409e	-0.04986631
83	0xbd10c95d	-0.035348285
84	0xbdafb569	-0.08579523
85	0xbd2d87c6	-0.04236581
86	0xbd21304e	-0.039352708
87	0x3ca27ff4	0.019836403
88	0xbdad34ab	-0.08457311
89	0xbd475b8b	-0.048671287
90	0x3b3f584c	0.0029196916
91	0xbd4fd39b	-0.050738912
92	0x3cc3a537	0.023882492
93	0xbd055b46	-0.03255775
94	0x3da45575	0.08024112
95	0x3d9c4afe	0.07631491
96	0xbd9395da	-0.07206316
97	0x3db53b97	0.088492565
98	0xbd9c87f7	-0.07643121
99	0x3bf04649	0.0073325974
100	0xbc90257e	-0.017596003
101	0xbdda6908	-0.10664564
102	0xbcfff537	-0.031244857
103	0x3c61ba62	0.013777347
104	0x3d0b1f86	0.03396561
105	0xba8d8163	-0.0010796007
106	0x3c78c682	0.015184047
107	0xbc8d9ae7	-0.017285777
108	0xbdac8321	-0.08423448
109	0xbd08c066	-0.03338661
110	0x3d9dac77	0.07698911
111	0x3d77ba59	0.06048045
112	0x3afeff52	0.0019454753
113	0xbd2e811a	-0.04260359
114	0x3af76ad2	0.001887644
115	0x3dd06be5	0.10176829
116	0xbcc78704	-0.024356373
117	0x3cc32c80	0.02382493
118	0xbd5eb191	-0.05436856
119	0x3cb1be31	0.021697136
120	0x3d9ef63d	0.0776181
121	0xbd5c0511	-0.05371577
122	0xbd8e0906	-0.06935315
123	0x3a1f5dee	0.0006079365
124	0xbd86b957	-0.065783195
125	0x3d5111ac	0.051042244
126	0x3dbd11c1	0.09231902
127	0x3dc85928	0.0978263
128	0xbd4ed1cf	-0.050493058
129	0xbdcf83b5	-0.10132543
130	0xbd596123	-0.053071152
131	0xbdb5a685	-0.08869652
132	0x3d16b863	0.03679694
133	0xbd6a2e66	-0.057173155
134	0x3db31c51	0.08745635
135	0x3dcb0b41	0.09914256
136	0xbd2404a9	-0.040043507
137	0xbcb9ccdd	-0.022680694
138	0x3dccac20	0.09993768
139	0x3da59740	0.08085489
140	0x3c7e4184	0.01551855
141	0xbd934e10	-0.071926236
142	0xbd3e0c4a	-0.04639844
143	0x3dcf70cd	0.10128937
144	0x3cf1d8d0	0.02952233
145	0x3daf21d6	0.085513756
146	0xbd32e4c7	-0.04367521
147	0x3d8566dd	0.0651376
148	0x3dab8ddb	0.08376666
149	0x3d61ca38	0.05512449
150	0xbdce1aab	-0.1006368
151	0xbcaf42d2	-0.021394167
152	0xbcba4e0f	-0.0227423
153	0x3d985e7e	0.07439898
154	0x3d6d446b	0.057926577
155	0x3d6d5d69	0.05795041
156	0x3dbf1c61	0.09331585
157	0xbda5d14c	-0.08096561
158	0x3d3c07bd	0.045905817
159	0x3cdb705d	0.026786977
160	0x3d82b412	0.06382002
161	0x3dc67ebb	0.09692141
162	0xb9821fac	-0.0002481913
163	0x3d4bbcad	0.049740482
164	0x3ccd4aa0	0.025059998
165	0x3d942715	0.07234017
166	0xbd334da5	-0.04377522
167	0xbd616d49	-0.055035863
168	0x3db644ac	0.08899817
169	0x3db7a4d9	0.08966989
170	0x3dba7fe7	0.09106427
171	0xb9802367	-0.0002444044
172	0x3d7b2239	0.061311934
173	0x3d344993	0.04401548
174	0x3d809aae	0.06279503
175	0x3d95ca95	0.0731403
176	0xbd999d75	-0.07500736
177	0xbd116212	-0.035493918
178	0xbd98f02d	-0.07467685
179	0x3d064793	0.032783102
180	0x3d88c154	0.066774994
181	0xbd0c5743	-0.034262907
182	0x3d139e7d	0.036039818
183	0xbc608039	-0.013702446
184	0x3d8b9ae3	0.06816652
185	0x3dcc6bee	0.099815235
186	0xbd8b9dca	-0.06817205
187	0x3d9d14a6	0.07669954
188	0xbd94ca50	-0.072651505
189	0xbcf5cef2	-0.030005906
190	0xbdb524c1	-0.08844901
191	0xbdbb571b	-0.091474734
192	0x3da56d2e	0.08077465
193	0x3d1c3d33	0.0381443
194	0xbd1d6a5f	-0.03843152
195	0xbd4eec3c	-0.05051826
196	0xbbabb2e6	-0.005239832
197	0x3d5d85e9	0.054082785
198	0x3cf3327f	0.029687164
199	0xbbb8a99d	-0.005635454

weight f4 [2, 200]
0	0xbdd8c886	-0.10585122
1	0xbe08c111	-0.13354899
2	0x3c66bb02	0.014082672
3	0x3dc349f9	0.095355935
4	0x3dbcfd5a	0.092280105
5	0xbd7552b7	-0.059893336
6	0xbc8586c8	-0.01629962
7	0x3dbba119	0.09161586
8	0x3cbe071e	0.023196753
9	0x3da6a17e	0.08136271
10	0xbd808029	-0.062744446
11	0xbdba07cd	-0.09083519
12	0x3d64962b	0.055807274
13	0xbc8236b4	-0.015895225
14	0x3d4ff777	0.05077311
15	0xbd1f46c5	-0.03888585
16	0x3b614c06	0.003437759
17	0x3d7bf7e8	0.06151572
18	0xbdd92948	-0.10603577
19	0x3d9ed9e7	0.07756405
20	0xbdc6dc05	-0.09709934
21	0xbda3145e	-0.07962869
22	0xbd0f0645	-0.03491809
23	0xbda48283	-0.08032706
24	0xbd916f1a	-0.07101269
25	0x3dee2158	0.116274536
26	0xbd3afbc8	-0.045650274
27	0xbd47e41b	-0.048801523
28	0x3d855e27	0.06512099
29	0x3dc2be91	0.09509004
30	0x3decc841	0.11561633
31	0xbdbced53	-0.092249535
32	0x3a517c86	0.0007991273
33	0x3dc70ae4	0.09718874
34	0xbc88d84d	-0.016704703
35	0xbdad891d	-0.08473418
36	0x3d5e2b5f	0.05424058
37	0x3cb8a66c	0.022540294
38	0x3cab2e9b	0.020896247
39	0xbd078de8	-0.033094317
40	0x3c916a90	0.017751008
41	0x3da7a3f9	0.08185572
42	0xbcf58b45	-0.029973635
43	0x3d92436f	0.07141768
44	0xbc20f1e9	-0.009823301
45	0xbcdc75de	-0.026911672
46	0xbd41ef04	-0.047347084
47	0xbd8dd3b2	-0.06925143
48	0x3d9966e1	0.07490326
49	0x3d031275	0.032000024
50	0x3d5b5d1c	0.053555593
51	0x3cfce982	0.030873064
52	0xbd66ce96	-0.05634936
53	0x3db07561	0.08616138
54	0xbde6cbcd	-0.11269341
55	0x3d1e36ff	0.038626667
56	0x3c567bb8	0.01309102
57	0xbd90eb63	-0.070761465
58	0xbd38ccd0	-0.0451172
59	0xbc9730a4	-0.01845581
60	0x3d9edcf5	0.07756988
61	0x3dc1c719	0.09461803
62	0xbc51a8b3	-0.012796569
63	0x3cf70a7a	0.030156363
64	0x3d35ce79	0.04438636
65	0x3dd83e66	0.105587766
66	0xbdfe1c0e	-0.12407695
67	0x3d7e9410	0.062152922
68	0x3d69e9c4	0.057107702
69	0xbde875f8	-0.11350626
70	0x3dd78392	0.10523142
71	0xbddaeeea	-0.106901005
72	0x3ca25aee	0.01981875
73	0xbd27d8de	-0.040978305
74	0x3d714631	0.05890483
75	0x3cda02a3	0.026612585
76	0xbd3c6d2e	-0.04600256
77	0x3dace4d9	0.08442087
78	0x3d9b52d3	0.07584157
79	0xbd8432c4	-0.06454995
80	0xbc8d4162	-0.017243091
81	0x3db44a4a	0.08803232
82	0xbd8ee4cc	-0.06977233
83	0x3d82219e	0.06354068
84	0xbde0dbc5	-0.10979418
85	0x3cdd9902	0.027050499
86	0xbd0e156e	-0.034688406
87	0xbe0312de	-0.12800166
88	0x3cc987b5	0.024600843
89	0x3dfdc771	0.12391556
90	0xbe02da67	-0.12778626
91	0xbdb57c68	-0.08861619
92	0xbdbc8574	-0.09205142
93	0x3d6c58e4	0.05770196
94	0x3c7badd3	0.015361267
95	0x3d11d4e0	0.035603404
96	0xbdbe50e6	-0.09292774
97	0x3d62d4cc	0.05537872
98	0x3cf72f50	0.030173928
99	0x3db9fe52	0.09081711
100	0xbdb9196a	-0.090380505
101	0xbcbabcc1	-0.022795083
102	0xbca3dc28	-0.02000244
103	0x3dbab7b8	0.09117073
104	0xbdc7e8ab	-0.09761175
105	0x3dc02b35	0.09383241
106	0x3deb0c5d	0.114769675
107	0x3d67abd4	0.056560352
108	0x3d4dc347	0.05023506
109	0xbd838b70	-0.0642308
110	0xbd286399	-0.04111061
111	0xbd6b714e	-0.057481103
112	0xbd4c0a95	-0.04981478
113	0x3de34603	0.11097338
114	0xbcc57268	-0.024102405
115	0x3cdeb9b6	0.027188163
116	0x3df8a194	0.121401936
117	0x3d87f8d8	0.0663926
118	0x3c265544	0.010152165
119	0x3dda3b47	0.106558375
120	0x3dfda1f1	0.123844035
121	0xbdb9b31a	-0.09067364
122	0x3c630c11	0.013857857
123	0xbbfef443	-0.007780583
124	0x3d9557e4	0.072921544
125	0xbd1ec4eb	-0.038762014
126	0xbc050072	-0.008117782
127	0x3d31a9f9	0.04337499
128	0x3d2d0ecd	0.042250443
129	0xbd9a9317	-0.075475864
130	0xbb7a38b2	-0.0038180766
131	0x3dda67eb	0.10664352
132	0x3da174bc	0.078835934
133	0xbd43eeac	-0.047835037
134	0x3d4fd488	0.050739795
135	0x3c806122	0.015671317
136	0x3d86d48c	0.06583509
137	0xbb93ae51	-0.004506864
138	0x3d6bc9e4	0.057565585
139	0xbd122aa9	-0.035685215
140	0xbd44d6dd	-0.048056472
141	0xbd231c2b	-0.039821785
142	0xbc5704ca	-0.0131237
143	0x3d7b4a5c	0.06135021
144	0xbd9a8c2d	-0.07546268
145	0x3dd43220	0.10361123
146	0xbd937694	-0.07200351
147	0x3d75672e	0.059912853
148	0x3d827435	0.06369821
149	0xbde4b221	-0.11166788
150	0xbdbbc654	-0.091686875
151	0xbdbe5d27	-0.09295111
152	0xbc25b720	-0.010114461
153	0xbbf47d36	-0.0074612154
154	0xbd981a90	-0.074269414
155	0xbd39f442	-0.045398958
156	0xbd17351f	-0.036915895
157	0xbdb2d5c3	-0.08732178
158	0x3d4914d9	0.049092147
159	0x3df1ba47	0.11803108
160	0x3daa57e8	0.08317548
161	0x3e03c3ad	0.12867613
162	0xbdddf3d0	-0.10837519
163	0x3d57ceb0	0.052687347
164	0x3d1b1bda	0.03786836
165	0x3cc992eb	0.024606189
166	0xbd7b13f0	-0.06129831
167	0x3cbdd35d	0.023172075
168	0xbd7ff19c	-0.062486276
169	0x3d5a678f	0.053321417
170	0x3d4632c1	0.048388246
171	0x3b49ccf1	0.003079232
172	0x3c034ed5	0.0080144005
173	0x3d7e8455	0.06213792
174	0x3d6d8b47	0.057994153
175	0x3d399fcc	0.04531841
176	0x393b68fa	0.00017872817
177	0xbd6c5b6b	-0.05770437
178	0x3dd09e7a	0.10186477
179	0xbddaecce	-0.10689698
180	0x3d4b7936	0.049676143
181	0xbd1a3914	-0.03765209
182	0xbde5e29a	-0.112248614
183	0xbdc119a2	-0.09428717
184	0xbd970f7e	-0.07376002
185	0x3d8d033c	0.068853825
186	0x3db8fc70	0.09032524
187	0xbb4f2fee	-0.0031614262
188	0x3d9f3c18	0.07775134
189	0xbd40924e	-0.047014527
190	0xbd5822ef	-0.05276769
191	0x3d953411	0.072853215
192	0xbd9199cf	-0.07109415
193	0x3dbc4307	0.09192472
194	0x3deb51fc	0.11490247
195	0xbdde23c0	-0.108466625
196	0x3d4965b6	0.049169265
197	0xbc8ef1d0	-0.01744929
198	0x3db0646d	0.08612905
199	0x3d9310bd	0.07180927
200	0x3d88d534	0.0668129
201	0x3c9cb98b	0.019131443
202	0x3cf400e7	0.029785587
203	0xbdaad257	-0.083409004
204	0xbde781f7	-0.11304086
205	0x3daee166	0.08539085
206	0x3dbceb99	0.09224624
207	0xbcbebb8b	-0.023282787
208	0xbdaf50b5	-0.085603155
209	0xbd7683a6	-0.060184143
210	0x3b7d1553	0.0038617447
211	0x3c42beb5	0.011886288
212	0xbdafe0e5	-0.08587817
213	0x3d6a211d	0.057160486
214	0xbc8d541d	-0.017252022
215	0x3de9edec	0.11422333
216	0x3c167f95	0.009185691
217	0xbd08b0e3	-0.033371817
218	0x3bc7a3d8	0.0060925297
219	0xbd82ab7a	-0.06380363
220	0xbc9f75bd	-0.019465322
221	0x3de5d7fe	0.11222838
222	0x3ca32f32	0.019919965
223	0x3b899ba3	0.0041994615
224	0x3da15b2d	0.078787185
225	0xbdbe2c86	-0.09285836
226	0x3dd929ae	0.10603653
227	0xbc93dc4e	-0.018049385
228	0xbdb3cfee	-0.08779894
229	0xbcea5372	-0.028604243
230	0xbddfe42f	-0.109321944
231	0x3dad1688	0.08451563
232	0x3cb8c0c0	0.022552848
233	0x3bb87b0f	0.005629904
234	0x3dd67c63	0.10472944
235	0x3d833df4	0.06408301
236	0xbd873cde	-0.06603406
237	0xbd95c213	-0.07312407
238	0xbdc11b01	-0.09428979
239	0x3d52bf98	0.05145225
240	0xbd8bb531	-0.06821669
241	0xbdb9983d	-0.0906224
242	0x3d5ca841	0.053871397
243	0xbd0bd008	-0.03413394
244	0x3d2487ba	0.0401685
245	0x3d5d3dc0	0.054013968
246	0x3d8ffbf3	0.070304774
247	0x3c0873cf	0.008328392
248	0xbcefe922	-0.029285971
249	0xbd5ee901	-0.05442143
250	0xbd809b29	-0.062795945
251	0xbd161490	-0.036640704
252	0x3db68bf0	0.0891341
253	0xbdc5cb76	-0.09657948
254	0x3df51d89	0.11968524
255	0x3c5072b3	0.012722659

bias f4 [2]
0	0xbd81f6c8	-0.06345898
1	0xbcf47e3d	-0.029845351
