241冯义博/第三周作业/model.pt (torch, 1763 bytes, 3 tensors)

embedding.weight f4 [6, 6]
00000000: ba2a 8bbf cf14 2d3f ea6b 3fc0 de8d 05c0
00000010: 83c0 08bf 2abd ad40 4ed1 103f 9454 c73e
00000020: ac7d a7bf 5b67 3d3f 613c 03c0 1d6c 48be
00000030: d295 253d bf5c a83f c053 a5bf 3c82 ac3e
00000040: bbe3 d1bf d5d1 3fbf 8c06 94bf c4d1 2340
00000050: d96c 0cbf c42b ad3f 9235 8cbf 5c28 33be
00000060: 5f61 f73e efc0 b93e 277a b0bf 8bbc 643f
00000070: ac60 01c0 63b3 b9be aab9 b63e ccd9 0b3f
00000080: b53f adbf 2507 a93f 4def f4bf e637 debe
-1.0872414 0.67609876 -2.9909616 -2.086784 -0.5341875 5.4293413 0.56569374 0.38931715
-1.3085227 0.7398583 -2.0505602 -0.19572492 0.040426083 1.3153304 -1.2916183 0.3369311
-1.6397623 -0.74929553 -1.1564498 2.559678 -0.5485359 1.3528981 -1.0953848 -0.17495865
0.48316476 0.3628001 -1.3787278 0.89350194 -2.0215254 -0.36269674 0.35688525 0.54629207
-1.3535067 1.3205305 -1.9135529 -0.43402022

layer.weight_ih_l0 f4 [6, 6]
00000000: 07ca 5d3e ddb2 a0be 0e91 6f3f 4b25 9ebd
00000010: 6439 c83e 7b7e a2be 0f3f 263d ded8 28bf
00000020: 7860 933f 144e 92bc 9ce3 423f 9ec9 0dbf
00000030: 7b38 fb3e 3ef1 a5be 4457 5d3f 0173 683d
00000040: e25c 693f ad59 e4be 3de2 8e3e fec0 fbbe
00000050: 201e 6b3f 0b46 a53b e6af 6d3f 4845 f9be
00000060: 6d63 393d 448b 1bbf 922c 893f 0279 b3bd
00000070: d7b2 323f 8809 03bf 5853 69bf b332 1abf
00000080: 15e4 833e 1898 f3bf 0af3 393f f9fc d83f
0.21659099 -0.31386462 0.9358071 -0.07721957 0.39106286 -0.31737122 0.04058748 -0.65955913
1.1513815 -0.017859496 0.76128554 -0.5538577 0.4906653 -0.32410616 0.8646128 0.0567503
0.9115735 -0.44599667 0.2790698 -0.4917068 0.9184284 0.00504375 0.92846525 -0.4868567
0.045260835 -0.6075938 1.0716727 -0.08763315 0.6980414 -0.5118642 -0.911428 -0.6023361
0.2575995 -1.903079 0.72636473 1.6952201

layer.weight_hh_l0 f4 [6, 6]
00000000: a942 043f 25b8 8e40 7d4a 3dbf cc3b 3dbf
00000010: 165b 41bf 08f4 41bf a76c 8b3f ad6b a7bf
00000020: 73ba 9a40 b9e1 a5bf 0606 a7bf 4c87 a7bf
00000030: 2184 943f b6e6 95bf fe31 96bf 91bf a340
00000040: 6c09 95bf b427 98bf 44ad 413f 43eb 8fbf
00000050: 1ebc 92bf 6c87 92bf 2e58 9e40 3838 95bf
00000060: c104 383f 6387 8fbf 5622 92bf fe16 92bf
00000070: 732a 8ebf 1bed a740 6afa a23f 122d 453f
00000080: 397f 383f ed00 443f 78b7 383f 21ea 2e3f
0.51664215 4.4599786 -0.73941785 -0.7391937 -0.7552961 -0.7576299 1.0892533 -1.3079735
4.83526 -1.295951 -1.3048713 -1.3088164 1.1602823 -1.1711032 -1.1734006 5.1171346
-1.16435 -1.1887116 0.7565501 -1.1243671 -1.1463659 -1.1447577 4.948264 -1.1657782
0.71882254 -1.1213192 -1.1416728 -1.1413267 -1.1106704 5.2476935 1.273267 0.77021897
0.72069126 0.7656391 0.7215495 0.68326
