0-宋学林/week3/model.pth (torch, 12563 bytes, 7 tensors)

embedding.weight f4 [13, 30]
0	0xbf959edd	-1.1689106
1	0x3ecfbeec	0.4057535
2	0xbf99fcb5	-1.2030245
3	0x3eab6b8f	0.33480498
4	0x3e8353b1	0.2564979
5	0x3f84a7ae	1.0363672
6	0x3e9bc5ce	0.3042435
7	0x3e2e9522	0.17049077
8	0xbf87ff03	-1.0624698
9	0xbfa4d0f2	-1.2876265
10	0xbe5dba91	-0.216532
11	0xbf1666f9	-0.58750874
12	0xbe94179a	-0.28924257
13	0xbe3a2ff0	-0.18182349
14	0x3f85b434	1.0445619
15	0x3f5f3a4b	0.87198323
16	0xbe920839	-0.28521898
17	0xbde81bb0	-0.11333406
18	0xc0034661	-2.0511706
19	0xbf1b38a8	-0.60633326
20	0xbf6ad827	-0.9173607
21	0xbfc6bd9b	-1.5526613
22	0x3f82a7ca	1.0207455
23	0x3fb2aa1f	1.3958167
24	0x3e51521d	0.2044148
25	0xbccd7493	-0.025080001
26	0x3fc018f9	1.5007621
27	0xbfab5564	-1.3385434
28	0x3e66eceb	0.22551315
29	0xbe52c08f	-0.20581268
30	0x3f808bc3	1.0042652
31	0xbffc8296	-1.9727352
32	0x3f559ad8	0.834394
33	0x3f98de0c	1.1942763
34	0x3fab8def	1.340269
35	0xbf23a3cf	-0.6392183
36	0xbfe78578	-1.8087606
37	0x3e9ec008	0.31005883
38	0xbf788e09	-0.9709173
39	0xc01e072a	-2.4691873
40	0x3f9c8a41	1.2229692
41	0x3d74450c	0.05963616
42	0x3e436dbb	0.19084828
43	0xbfc94dca	-1.5726864
44	0x3fb72ba3	1.4310192
45	0xc016ab6b	-2.3542125
46	0x3f245f3b	0.6420781
47	0x3f43135d	0.7620142
48	0xbdcf3d83	-0.10119154
49	0xbe246eaa	-0.1605784
50	0x3f38c599	0.7217651
51	0xbdd06e6e	-0.10177313
52	0x3f7c10f7	0.98463386
53	0xbf941917	-1.1570157
54	0x3f6bcefa	0.92112696
55	0xbf85fb31	-1.0467283
56	0x3ea28f2b	0.31749853
57	0x3d2a939c	0.041644678
58	0x3fe6f4b3	1.8043426
59	0x3ff9a5fc	1.950378
60	0x3eb55fde	0.35424703
61	0x3f1e5cbc	0.6186025
62	0x3ff07dd1	1.8788396
63	0xbf453e99	-0.7704864
64	0x3fcb250b	1.587068
65	0xbf4906a7	-0.78525776
66	0x3f7ab019	0.97924954
67	0xbed5bf7f	-0.41747662
68	0x3e74658a	0.23866859
69	0xbf07cbe8	-0.5304551
70	0x3f002079	0.5004955
71	0xbe89777c	-0.26848972
72	0x3d5c6e99	0.05381641
73	0xbfeebc40	-1.8651199
74	0xbe91162b	-0.28337225
75	0xbf1da362	-0.6157743
76	0xbf690d24	-0.91035676
77	0x3ee8f883	0.455021
78	0x3e905ed9	0.28197363
79	0xbdea488f	-0.11439621
80	0xbef72f39	-0.48278216
81	0xc00ac3b5	-2.168195
82	0xbfb72013	-1.4306663
83	0xbec83bb9	-0.39108065
84	0x3f348368	0.7051301
85	0x3f8a40da	1.0801041
86	0x3f985aca	1.1902707
87	0x3e5b16f8	0.2139548
88	0x3ee7aaeb	0.45247588
89	0xbcfd3209	-0.030907648
90	0xbe3c8509	-0.18410124
91	0xbf26f3cd	-0.6521576
92	0x3f19a6d4	0.60020185
93	0x3eb83e0f	0.35984847
94	0xbd8979aa	-0.06712659
95	0xbf8830a6	-1.0639846
96	0xbfd28f68	-1.6450014
97	0x3f7c08dc	0.9845102
98	0x3fc3a215	1.5283839
99	0xbe8aa5c2	-0.27079588
100	0xbe8e0d10	-0.2774434
101	0x3d44b626	0.048025273
102	0xbd5082dc	-0.050906047
103	0x4017bbd9	2.3708403
104	0xbf7b6f3d	-0.9821661
105	0x3f1ce348	0.61284304
106	0x3dce26cc	0.10065994
107	0x3f3b83fc	0.7324827
108	0x3f27a249	0.65482
109	0x3f32b816	0.6981214
110	0x3e76f327	0.24116193
111	0xbf5b5575	-0.8567727
112	0xbfed5519	-1.8541595
113	0xbf042ad1	-0.5162783
114	0x3eacc7ce	0.3374619
115	0x3f8485a0	1.0353279
116	0x3f03e458	0.515203
117	0x3f3a932d	0.7288082
118	0xbeab9abb	-0.33516487
119	0xc004494c	-2.0669737
120	0xbfa9ae84	-1.3256383
121	0x3f509299	0.8147369
122	0x3f0b1279	0.5432506
123	0x3fd760fe	1.6826475
124	0xbf263798	-0.6492858
125	0x3e0593a4	0.13044602
126	0xbdfa2c27	-0.12215453
127	0xbf201f52	-0.6254779
128	0xbe90e325	-0.28298298
129	0xbe480d5b	-0.19536345
130	0x3e8d3abe	0.2758388
131	0xbdcac886	-0.09901528
132	0xbf155764	-0.5833647
133	0xbefbc9c0	-0.4917736
134	0x3ef72f63	0.4827834
135	0xbcdafeec	-0.026732884
136	0xba0312b6	-0.00050000416
137	0xbeb64cfb	-0.35605606
138	0xbf69ea6c	-0.91373324
139	0x3f74a507	0.9556431
140	0xbdef342b	-0.11679872
141	0xbf07f8e8	-0.53114176
142	0xbf9f358e	-1.2438219
143	0x3f3d5920	0.7396412
144	0xbfc47106	-1.5346992
145	0x3f1f5a82	0.6224748
146	0x3f608c0f	0.8771371
147	0xbf29d3c4	-0.66338754
148	0x3d95bf2b	0.07311853
149	0x3f08da21	0.5345784
150	0x3eec2cc3	0.461279
151	0x401e0941	2.4693148
152	0x3f8a5ad9	1.0808975
153	0x3f52765a	0.8221184
154	0xbd3727f0	-0.04471582
155	0x3eec41c5	0.46143928
156	0xbc4e3dc7	-0.012587971
157	0xbef232e6	-0.47304457
158	0xbee5bc9e	-0.44870466
159	0x3e30ce8d	0.17266293
160	0xc0095bd8	-2.1462307
161	0xbf14ca3e	-0.581211
162	0x3f033e12	0.51266587
163	0x3fdc06ea	1.718961
164	0x3fed2fa7	1.8530167
165	0xbf0ba2b8	-0.54545164
166	0x3e8e95b1	0.2784858
167	0xbfb085a5	-1.3790785
168	0x3e5e44a6	0.21705875
169	0xbfb265d0	-1.3937321
170	0x3e64e2ea	0.22352186
171	0x3ef8b973	0.48578987
172	0xbfd137c3	-1.6345142
173	0xbfba0682	-1.4533236
174	0xbe948f0d	-0.2901539
175	0xbe8d9771	-0.27654603
176	0xbf17827d	-0.59183484
177	0x3ecf2ca8	0.40463758
178	0x3f7f55e7	0.9974045
179	0xbf3b5cbd	-0.7318838
180	0xbe329c6e	-0.17442486
181	0x3fdef9dd	1.7420002
182	0xbde0255b	-0.10944625
183	0xbe67e95f	-0.22647618
184	0x3e318c0c	0.1733858
185	0xbecfb238	-0.40565658
186	0xbf33c7ff	-0.70227045
187	0xbf02e92b	-0.51137036
188	0x3e115930	0.14194179
189	0xbf998919	-1.1994964
190	0xbe0597d4	-0.13046199
191	0xbfe0408d	-1.7519699
192	0xbf3a6ccd	-0.72822267
193	0xbebe08d1	-0.371161
194	0x3fe4cd84	1.7875218
195	0x402adda3	2.6697776
196	0x3f5e69c3	0.8688013
197	0x3f9c02fe	1.2188413
198	0x3fb5e343	1.420998
199	0xbf386404	-0.7202761
200	0x3ed095d4	0.4073931
201	0x3c9c6882	0.019092802
202	0x3ed6b418	0.41934276
203	0xbe344025	-0.17602594
204	0xbd7e3ec9	-0.062071595
205	0x3f5f5349	0.8723646
206	0x3f451c36	0.7699617
207	0x3ea41e4a	0.3205436
208	0xbf4d919b	-0.803003
209	0x3e89c41d	0.26907435
210	0xbf4dc100	-0.8037262
211	0xbdc5b620	-0.09653878
212	0x3e77fe94	0.24218208
213	0x3e17d787	0.14828311
214	0xbf79bb4a	-0.97551405
215	0xbfa1f4ae	-1.2652795
216	0xbf53b468	-0.82697153
217	0x4006f922	2.1089559
218	0x3f0c7958	0.54872656
219	0x3f3c7d95	0.7362912
220	0x3f062c81	0.5241166
221	0x3ef5fa6b	0.48042616
222	0xbdc631d8	-0.09677476
223	0x3fa250c5	1.2680899
224	0xbfd35c8e	-1.651262
225	0xbf190b09	-0.59782463
226	0x3fea79fa	1.8318474
227	0x3fc0046f	1.5001353
228	0x3eabbbff	0.33541867
229	0xbf34a718	-0.70567465
230	0xbf15686d	-0.58362466
231	0xbecfba80	-0.40571976
232	0xbf7786e9	-0.9669023
233	0x3f579858	0.84216833
234	0xbf8c3aad	-1.0955406
235	0x3fb7adf5	1.4349962
236	0xbf93a3ef	-1.1534404
237	0xbf03bc23	-0.5145895
238	0xbfe33500	-1.7750549
239	0xbf312341	-0.6919442
240	0xbedead23	-0.43491468
241	0x3f0b1aa5	0.5433753
242	0xbf86ed0f	-1.0541095
243	0x400280ad	2.0391037
244	0x3f0f38d6	0.559461
245	0x3f7115ca	0.9417387
246	0x3f36724b	0.7126815
247	0x3f35030d	0.7070778
248	0xbf60efd6	-0.8786596
249	0x3f6d9839	0.928104
250	0xbf287861	-0.65808684
251	0x3e4e6ed3	0.20159464
252	0x3fc9fe97	1.578082
253	0x3fa0329a	1.2515442
254	0x3fa92c4b	1.3216642
255	0xbe20fdae	-0.15721771

rnn.weight_ih_l0 f4 [30, 30]
0	0x3e1ddb76	0.15415749
1	0xbe06d899	-0.13168563
2	0x3dbdf477	0.092751436
3	0x3bc045db	0.0058677024
4	0x3e2ee441	0.1707926
5	0xbd74095e	-0.059579246
6	0xbdaeced4	-0.08535543
7	0xbc1b3c80	-0.009474874
8	0xbe726ad5	-0.23673566
9	0xbc98f2c2	-0.018670443
10	0x3df24983	0.118304275
11	0xbd399823	-0.045311105
12	0xbe1aed85	-0.15129669
13	0xbcc75ff2	-0.024337742
14	0xbc5439b0	-0.012953207
15	0xbd1f170f	-0.03884035
16	0x3dc6c4ce	0.09705506
17	0x3db6d1bf	0.08926725
18	0x3d4ece0b	0.050489467
19	0xbb1d9fd5	-0.0024051566
20	0xbe0c9ecd	-0.13732453
21	0x3ce25381	0.027627708
22	0x3cd4780f	0.025936155
23	0xbd243de7	-0.040098097
24	0x3dab37cb	0.08360251
25	0xbdd1fb33	-0.102529906
26	0xbe0ef104	-0.13959128
27	0xbdc4b989	-0.096057005
28	0x3ce3b7be	0.027797576
29	0x3d63009b	0.0554205
30	0x3d718f67	0.05897465
31	0xbdc4e0b2	-0.0961317
32	0x3cdccfec	0.026954614
33	0x3e0b726e	0.1361787
34	0x3dc705cf	0.09717905
35	0x3e01fda3	0.12694411
36	0xbcf6c5f4	-0.030123688
37	0xbe3086d4	-0.17238933
38	0xbd34b799	-0.044120405
39	0x3ba5e246	0.0050623743
40	0x3d600c0e	0.054698996
41	0x3de59bdd	0.11211369
42	0xbe05e744	-0.13076502
43	0xbdfa80a6	-0.12231569
44	0xbe17a4ba	-0.14808932
45	0x3de3bef2	0.11120404
46	0x3df7a5b2	0.12092151
47	0x3dd46a70	0.10371864
48	0xbd94a84d	-0.07258663
49	0xbde32dfc	-0.11092755
50	0xb99f683f	-0.00030404513
51	0x3dc0e325	0.094183244
52	0xbd281df7	-0.0410442
53	0xbe3eb9ae	-0.18625519
54	0x3ca9edd5	0.02074329
55	0xbd6743d7	-0.05646118
56	0x3cb58896	0.022159856
57	0xbdb44c6c	-0.08803639
58	0xbd720fac	-0.059096977
59	0xbe13c2ed	-0.14429827
60	0xbe33123a	-0.17487422
61	0x3d70d90d	0.058800746
62	0x3ca6c6ac	0.020358406
63	0xbda20dc6	-0.07912783
64	0x3c3006aa	0.010743776
65	0x3df67ed6	0.12035911
66	0x3e08d4c9	0.13362421
67	0xbd6962b5	-0.0569789
68	0xbdb94f13	-0.09048285
69	0x3d940731	0.07227934
70	0xbdf87b84	-0.12132934
71	0x3c6ef8e1	0.014585705
72	0x3db60f86	0.088896796
73	0xbd0abe1c	-0.03387271
74	0xbe17881b	-0.14798014
75	0x3e45dc8e	0.19322416
76	0x3db3ec82	0.08785345
77	0xbda64877	-0.0811929
78	0x3e01d5ec	0.12679261
79	0xbd992995	-0.07478634
80	0xbd8c915c	-0.068636626
81	0xbd598030	-0.053100765
82	0xbe1dc9d7	-0.15409027
83	0x3c6a5fc4	0.014305059
84	0xbe29481a	-0.16531411
85	0x3e322445	0.17396648
86	0x3e3b27c0	0.18276882
87	0x3d341de9	0.043973837
88	0x3d75375c	0.059867248
89	0xbe76deeb	-0.24108474
90	0x3d2c7d6a	0.04211179
91	0x3cc895a7	0.024485422
92	0xbe1f7376	-0.15571389
93	0xbe1407b1	-0.14456059
94	0xbcb9bbd2	-0.022672568
95	0x3df586ca	0.119885996
96	0x3e43c26b	0.19117133
97	0xbdc1395b	-0.09434768
98	0x3e3d8fae	0.1851184
99	0x3e3a2473	0.18177967
100	0xbce9d8da	-0.028545786
101	0x3d1b8ab0	0.03797406
102	0xbe36a4b0	-0.17836261
103	0x3ddbee3f	0.10738801
104	0x3daa482b	0.08314546
105	0x3dcfd17b	0.10147377
106	0xbe1d9035	-0.15387042
107	0xbe2494ad	-0.1607234
108	0xbcb2cff7	-0.021827681
109	0x3dbd632c	0.09247431
110	0x3cb9ef42	0.022697095
111	0xbe25ac31	-0.16178967
112	0x3a3974b2	0.0007074579
113	0x3d64f91f	0.055901643
114	0xbe2cfb1f	-0.1689267
115	0x3e0e2583	0.13881497
116	0xbdedc32c	-0.11609492
117	0x3e5121b1	0.20423009
118	0xbe0fa00d	-0.14025898
119	0x3d138ec4	0.036024824
120	0x3d4f3522	0.05058778
121	0xbd7b77cb	-0.06139354
122	0x3e00be39	0.12572564
123	0x3e0df37b	0.13862412
124	0xbd9ac206	-0.07556538
125	0x3da73fa0	0.081664324
126	0xbc8b9b09	-0.0170417
127	0xbd1e2ead	-0.038618732
128	0xbd89822b	-0.06714281
129	0x3b84804f	0.004043616
130	0xbd7242c5	-0.059145708
131	0xbd9cd411	-0.07657636
132	0xbde3b904	-0.11119273
133	0xbcc2d071	-0.023781033
134	0x3ce9b1bd	0.028527135
135	0xbe08b438	-0.13349998
136	0x3e04dad8	0.12974107
137	0x3d91707c	0.07101533
138	0xbdc849e2	-0.09779717
139	0x3d7bb76e	0.06145423
140	0x3e0c5cf9	0.13707341
141	0xbd17ac11	-0.03702933
142	0x3e0ae70e	0.13564703
143	0xbbb0769c	-0.005385233
144	0x3c83dd7f	0.016096829
145	0x3d07ca74	0.03315206
146	0xbd80daac	-0.06291708
147	0x3e06774d	0.13131447
148	0xbe17de3e	-0.14830872
149	0x3da379fa	0.079822496
150	0xbd116eab	-0.03550593
151	0xbd9069ff	-0.07051467
152	0xbdffce57	-0.12490528
153	0x3cc4a0c5	0.024002442
154	0x3e04c781	0.1296673
155	0xbcf617b0	-0.030040592
156	0x3dc77130	0.09738386
157	0xbcb6468e	-0.02225044
158	0xbd92f230	-0.071751
159	0xbda66b61	-0.0812595
160	0x3db6fd49	0.08935029
161	0xbe3634b6	-0.17793545
162	0x3da58826	0.08082609
163	0x3e11a519	0.14223136
164	0xbc7ce0e4	-0.0154344775
165	0x3d1da05d	0.038483012
166	0x3caaf70c	0.020869754
167	0x3d9cff1c	0.07665846
168	0xbd9f2230	-0.077701926
169	0x3d63956a	0.055562414
170	0xbcce1d42	-0.025160436
171	0x3dd2930d	0.10281954
172	0xbe06bc73	-0.13157825
173	0xbde51dc2	-0.111873165
174	0xbc8c2461	-0.01710719
175	0x3e25cfa9	0.16192497
176	0x3b6692ee	0.0035182792
177	0xbddc49e4	-0.10756281
178	0x3e12c9d3	0.14334802
179	0xbde62e17	-0.1123926
180	0xbdf1760d	-0.117900945
181	0xbdea24d3	-0.11432805
182	0x3d34c8bb	0.044136744
183	0xbe3c0fd8	-0.18365419
184	0x3c3c6488	0.011498578
185	0x3e19df3e	0.15026566
186	0x3d14fdfc	0.03637503
187	0x3d194e63	0.03742827
188	0x3e33ab95	0.17545922
189	0x3db09d32	0.086237326
190	0x3ddaa736	0.10676424
191	0x3d667639	0.05626509
192	0x3dcfca1f	0.101459734
193	0x3d945483	0.07242682
194	0xbc700cca	-0.014651487
195	0x3dca6245	0.09882025
196	0xbd956a01	-0.07295609
197	0xbdcd55c5	-0.10026125
198	0xbd85e333	-0.065374754
199	0xbd9d805f	-0.076905005
200	0xbc870553	-0.016482031
201	0x3dc685a9	0.096934624
202	0x3e103a69	0.14084782
203	0x3dbf46eb	0.093396984
204	0xbd7359a8	-0.059411675
205	0xbdfe4632	-0.124157324
206	0xbe00bdd4	-0.12572414
207	0x3d0cb223	0.034349572
208	0xbd9949a7	-0.07484751
209	0x3d5dce9a	0.05415211
210	0x3e118679	0.14211453
211	0x3d991003	0.07473757
212	0xbddb42a9	-0.10706074
213	0x3d865f81	0.06561185
214	0xbdd137cb	-0.1021572
215	0xbca96fbc	-0.020683162
216	0xbd9114ad	-0.07084022
217	0xbe19b86d	-0.15011759
218	0xbdd81c4b	-0.105522715
219	0x3df86e82	0.12130453
220	0x3d04fa4e	0.03246527
221	0x3da8f0f2	0.08249082
222	0x3db5ddea	0.088802174
223	0xbe3eddb9	-0.18639268
224	0x3d398716	0.045294844
225	0x3e11013f	0.14160632
226	0x3d7756a0	0.060385346
227	0x3d495299	0.049151037
228	0x3cd444bf	0.025911687
229	0x3e0922de	0.13392207
230	0xbe318e30	-0.17339396
231	0xbc328968	-0.010897018
232	0xbe07ac55	-0.13249333
233	0x3d396250	0.045259774
234	0x3de86214	0.11346832
235	0x3d669c6c	0.05630152
236	0xbe00dfd0	-0.12585378
237	0xbd696e11	-0.056989733
238	0xbd84bb18	-0.06480998
239	0xbe1c527e	-0.15265843
240	0xbd2c5687	-0.042074706
241	0x3e62ab4a	0.22135654
242	0xbe0ec201	-0.13941194
243	0xbe12978a	-0.1431562
244	0xbc96e286	-0.018418562
245	0x3e25bad0	0.16184545
246	0x3dfe7fe7	0.12426739
247	0x3da50648	0.08057839
248	0x3da65874	0.0812234
249	0x3df56a71	0.11983193
250	0xbd4994d1	-0.049214188
251	0xbd096a25	-0.033548493
252	0x3cda4db9	0.02664839
253	0xbdbeffd8	-0.09326142
254	0xbe0f9044	-0.14019877
255	0x3d627c2c	0.0552942

rnn.weight_hh_l0 f4 [30, 30]
0	0xbb96c257	-0.004600804
1	0x3ccaa9ce	0.024739172
2	0x3cc2e888	0.02379252
3	0xbe6df304	-0.23237234
4	0x3e52d68c	0.20589656
5	0xbea80f93	-0.32824382
6	0x3e49542f	0.1966102
7	0xbe94b57f	-0.2904472
8	0x3c4e5a0b	0.01259471
9	0xbe51bdb6	-0.20482525
10	0x3c41aa38	0.0118203685
11	0x3dea79fa	0.114490464
12	0xbd2c9297	-0.042131986
13	0xbe97b6b4	-0.2963158
14	0x3e257167	0.16156541
15	0x3dff56c8	0.12467724
16	0xbe791630	-0.2432487
17	0xbe9166d9	-0.2839878
18	0x3e6a385f	0.22873066
19	0x3e44f600	0.19234467
20	0xbd8b6351	-0.068060525
21	0xbc291839	-0.010320717
22	0x3e4edf08	0.20202267
23	0x3e9dceba	0.30821782
24	0x3dff50b4	0.12466565
25	0x3e64316c	0.22284478
26	0x3d8cb01a	0.06869526
27	0xbda7a4b5	-0.08185712
28	0x3e92fe70	0.28709745
29	0xbe0b6a69	-0.13614811
30	0xbdb4e0e0	-0.08831954
31	0xbe48cc5d	-0.19609208
32	0xbe94b1ee	-0.29042
33	0x3c6e1b76	0.014532914
34	0xbe4f92ae	-0.20270798
35	0x3e6d8e5e	0.2319884
36	0xbd0b89eb	-0.034067076
37	0x3e110c62	0.1416488
38	0x3e0875d8	0.13326204
39	0xbe3f6568	-0.18691027
40	0xbc84405d	-0.016143972
41	0xbe6fcb0b	-0.23417298
42	0x3e8d495b	0.27595028
43	0x3e06c89f	0.13162468
44	0xbc883e93	-0.0166314
45	0xbe52e084	-0.20593458
46	0x3e03f632	0.12886885
47	0x3d863e23	0.065548204
48	0xbea4cbc6	-0.32186717
49	0xbe911378	-0.28335166
50	0x3e6ebe5a	0.23314801
51	0xbe68b361	-0.22724678
52	0xbe8f9fbf	-0.28051564
53	0x3c8d4db0	0.017248958
54	0xbc153862	-0.009107681
55	0x3dd082c6	0.10181193
56	0xbdd8108b	-0.1055003
57	0xbc465f5b	-0.012107695
58	0xbe7b5111	-0.24542643
59	0x3e503c74	0.20335561
60	0x3ebb65b7	0.3660104
61	0xbe02fc11	-0.12791468
62	0xbe3a9210	-0.18219781
63	0x3e8ca479	0.27469233
64	0x3d633bfc	0.055477127
65	0x3dc7cfd1	0.09756435
66	0xbd87bff8	-0.06628412
67	0xbe12dcea	-0.14342085
68	0x3db27a6a	0.08714755
69	0xbd9c04cf	-0.07618105
70	0x3e1e1747	0.15438567
71	0xbe96474b	-0.29351267
72	0xbe1be5ca	-0.15224376
73	0xbda52681	-0.08063985
74	0xbd88715d	-0.06662247
75	0x3e6730fc	0.2257728
76	0x3d2dd0c6	0.04243543
77	0xbd374000	-0.04473877
78	0xbe6c844c	-0.23097342
79	0xbe93ecaf	-0.28891513
80	0x3d1dd0d5	0.038529236
81	0xbdbc760a	-0.09202202
82	0xbe0ca167	-0.13733445
83	0x3d1fb1dc	0.03898798
84	0x3dcf6b13	0.10127845
85	0xbe5781a8	-0.21045554
86	0x3e99b1bc	0.30018413
87	0xbccd674e	-0.025073674
88	0xbd7ebfd1	-0.06219465
89	0x3e5f734f	0.2182133
90	0x3e6d5b39	0.2317933
91	0xbc279494	-0.010228295
92	0x3e55cd98	0.20879209
93	0x3cd86fbb	0.026420465
94	0x3c2a1e2f	0.010383173
95	0x3d071c92	0.03298623
96	0xbdf49c28	-0.11943847
97	0x3bc98f5d	0.0061511234
98	0x3e40b98e	0.18820783
99	0xbd95c3fd	-0.073127724
100	0xbe463bcd	-0.1935875
101	0xbe6645f0	-0.22487617
102	0xbe63f744	-0.22262293
103	0xbdf4a664	-0.11945799
104	0xbe784ed4	-0.2424882
105	0x3d8454b9	0.06461472
106	0xbe166273	-0.14685993
107	0xbea95c3b	-0.3307818
108	0x3d475d61	0.048673037
109	0x3e230380	0.15919304
110	0xbe40cc33	-0.18827896
111	0xbd1425fc	-0.036169037
112	0x3e8ba14a	0.2727149
113	0x3dbff04a	0.093720034
114	0xbe52d0f8	-0.20587528
115	0x3d9864f1	0.07441128
116	0xbeb629fd	-0.3557891
117	0xbe083324	-0.13300759
118	0x3e96c9de	0.29450887
119	0xbe94eda1	-0.29087546
120	0xbe4a046b	-0.19728248
121	0xbe5b2526	-0.2140089
122	0x3eb4c658	0.35307574
123	0x3c536025	0.012901341
124	0xbe3a8139	-0.18213357
125	0xbe853d0a	-0.26023132
126	0x3e7c5b12	0.24644116
127	0x3d831011	0.06399549
128	0xbc466b8e	-0.012110604
129	0xbe7295ae	-0.23689911
130	0x3d7c4448	0.061588556
131	0xbd971b15	-0.07378212
132	0x3e907beb	0.28219542
133	0x3c633aa7	0.013868964
134	0xbde484a2	-0.1115811
135	0xbe151d88	-0.14562047
136	0x3e622ad7	0.22086655
137	0xbe3d0fd1	-0.18463065
138	0xbd9720d3	-0.073793076
139	0x3e385689	0.1800176
140	0x3e96e1b1	0.29469064
141	0x3deec660	0.11658931
142	0x3e4ddc58	0.20103586
143	0x3ea5da69	0.32393196
144	0x3e122f36	0.14275822
145	0x3e3b39ab	0.18283717
146	0xbdb74fcb	-0.08950766
147	0x3de1704e	0.110077485
148	0x3e79689a	0.24356309
149	0x3c36b936	0.011152556
150	0xbe072c2a	-0.13200441
151	0x3e724dca	0.23662487
152	0x3e1132a9	0.14179482
153	0xbe9d56a3	-0.3073016
154	0xbe905ed2	-0.28197342
155	0x3c96905c	0.018379383
156	0x3e891291	0.26771978
157	0xbd1dd21d	-0.038530458
158	0xbe5eab01	-0.2174492
159	0x3e0326e2	0.12807801
160	0xbe089667	-0.13338624
161	0xbcb151e0	-0.021645486
162	0x3ce865de	0.028368887
163	0x3bde3217	0.0067808735
164	0xbc5a1d38	-0.01331263
165	0x3e71eac8	0.23624718
166	0xbdcb53d1	-0.09928096
167	0x3d01da52	0.031702347
168	0x3e86718b	0.262585
169	0x3d316898	0.04331264
170	0x3d8f071f	0.0698378
171	0xbe7858b5	-0.24252589
172	0x3e0317cf	0.12802051
173	0x3dffe5c3	0.124949954
174	0xbeb5e8b3	-0.35529098
175	0x3ecedb11	0.4040151
176	0xbe9d5e64	-0.30736077
177	0xbeb5a885	-0.35480133
178	0xbc01f0a8	-0.007930912
179	0xbddc4b89	-0.10756595
180	0xbd12b0ca	-0.03581313
181	0xbde26aa1	-0.11055494
182	0xbeacd381	-0.33755115
183	0x3c8ed3d1	0.017434986
184	0xbd8a1447	-0.06742149
185	0x3c28e7b4	0.010309149
186	0xbd904970	-0.07045257
187	0xbcd32523	-0.025774544
188	0x3d6508e7	0.055916693
189	0x3e3c8752	0.18410996
190	0xbdac999c	-0.08427736
191	0x3c5284a8	0.0128490105
192	0xbe3f3bfa	-0.18675223
193	0x3e39c513	0.18141584
194	0xbd8c35a6	-0.0684617
195	0xbe54e85a	-0.2079176
196	0xbdc0f606	-0.09421925
197	0x3e4e8629	0.20168366
198	0xbeb98077	-0.36230823
199	0xbdade681	-0.08491231
200	0x3e40415d	0.18774934
201	0xbe09c61b	-0.13454477
202	0xbecdf9cd	-0.40229645
203	0xbdb51340	-0.08841562
204	0x3e8c98e8	0.27460408
205	0xbdeabd57	-0.11461895
206	0x3e83e78a	0.25762588
207	0x3e729f19	0.23693503
208	0xbeab3474	-0.33438456
209	0x3e7a5be4	0.24449116
210	0xbd82f3f0	-0.06394184
211	0xbe3bc49c	-0.1833672
212	0xbcf4dafc	-0.029889576
213	0xbe633f5d	-0.2219214
214	0xbd0f4d53	-0.03498585
215	0xbdfdd6ff	-0.12394523
216	0xbdb4b5ee	-0.08823763
217	0x3b081c37	0.002076877
218	0xbedb7ab1	-0.42867044
219	0xbe9ceb5b	-0.30648312
220	0x3c38f2e9	0.011288383
221	0xbe97850b	-0.2959369
222	0x3e65ceba	0.22442141
223	0x3e29725b	0.1654753
224	0x3e374e87	0.1790105
225	0xbef1c39e	-0.47219557
226	0xbd34ec39	-0.044170592
227	0x3df2677a	0.11836143
228	0xbc5bcc1a	-0.013415361
229	0xbe9ca06c	-0.30591142
230	0xbec3a0d0	-0.38208628
231	0xbe6a9794	-0.22909385
232	0x3d13602b	0.035980385
233	0xbe280892	-0.1640952
234	0xbee601b5	-0.44923177
235	0x3ec41ee6	0.38304824
236	0xbe6bdbfe	-0.23033139
237	0xbe9972d1	-0.2997041
238	0xbdf34aa3	-0.1187947
239	0x3e8153aa	0.25259143
240	0xbcfaa859	-0.030597853
241	0x3dc60a15	0.09669892
242	0x3d460931	0.04834861
243	0xbeb7b615	-0.35881105
244	0xbdec841b	-0.115486346
245	0xbe5e6b62	-0.21720651
246	0x3e96a9bb	0.2942637
247	0x3d5d80c5	0.054077882
248	0x3b166bec	0.002295251
249	0xbe7937c7	-0.24337684
250	0x3e70f28c	0.23530024
251	0xbd6a0e0c	-0.057142302
252	0x3e88453c	0.26615322
253	0xbe853ca3	-0.26022825
254	0x3d1554e9	0.03645793
255	0x3de089ed	0.10963807

rnn.bias_ih_l0 f4 [30]
0	0x3deda350	0.11603415
1	0x3e30b419	0.17256202
2	0xbba30b68	-0.004975725
3	0x3d9630a3	0.073334955
4	0x3d9b14a4	0.07572296
5	0x3dcca0f0	0.09991634
6	0xbd9e9564	-0.07743338
7	0x3d60efe0	0.054916263
8	0xbcef700e	-0.029228237
9	0x3db2ef91	0.087371
10	0xbdb0ce99	-0.086331554
11	0x3da2126e	0.079136714
12	0xbc224059	-0.009903037
13	0x3db8de3e	0.09026764
14	0x3da61f84	0.0811148
15	0xbe09e6e3	-0.13466983
16	0x3d533680	0.051565647
17	0xbd4f2c7a	-0.050579526
18	0x3d28d2cb	0.041216653
19	0xbe4deeb2	-0.20110586
20	0x3df2fe87	0.118649535
21	0xbcea9740	-0.028636575
22	0x3dd9b200	0.10629654
23	0xbdc76aae	-0.097371444
24	0xbd92c9c4	-0.0716739
25	0xbdd8e93d	-0.10591362
26	0x3b20c8cf	0.0024533754
27	0xbd91d436	-0.07120554
28	0x3d6e3cc9	0.058163438
29	0xbda16c8e	-0.07882033

rnn.bias_hh_l0 f4 [30]
0	0x3e202b70	0.1564157
1	0x3cb93e5a	0.02261274
2	0x3e215e3d	0.15758605
3	0x3dc95de0	0.09832358
4	0x3d338284	0.04382564
5	0x3e6134ce	0.219928
6	0xbdc0a4e2	-0.09406449
7	0x3dee88b6	0.11647169
8	0xbdb1d11f	-0.08682465
9	0xbcf338e0	-0.029690206
10	0xbd9d6e71	-0.07687081
11	0x3de89a3a	0.113575414
12	0x3e01e6a0	0.12685633
13	0x3c2018de	0.009771554
14	0xbe1cb40f	-0.15303062
15	0x3e67d414	0.22639495
16	0xbdb72927	-0.08943396
17	0x3e0df644	0.13863474
18	0x3d3961f0	0.045259416
19	0x3e075299	0.13215102
20	0xbdd0d9a0	-0.10197759
21	0xbd34e0a9	-0.044159565
22	0xbd1bfc8b	-0.03808264
23	0xbe46eba6	-0.1942583
24	0x3d55d852	0.052208252
25	0x3e220c34	0.15824968
26	0x3cc7cc91	0.024389537
27	0xbd89a485	-0.06720833
28	0x3dcb5024	0.09927395
29	0x3d8f603d	0.07000778

classify.weight f4 [11, 30]
0	0x3e06249e	0.13099906
1	0xbe878b82	-0.26473624
2	0xbe87cf33	-0.26525268
3	0xbe1a607f	-0.15075873
4	0x3e0caee9	0.13738598
5	0x3e91331a	0.283593
6	0xbe427d56	-0.18993124
7	0xbee1f5e1	-0.44132903
8	0x3e8f6eea	0.28014308
9	0xbe4d1f67	-0.2003151
10	0xbe7fe10a	-0.2498819
11	0x3e87953d	0.26481047
12	0x3ccc945e	0.02497309
13	0xbe8c2426	-0.2737133
14	0xbe0253de	-0.12727305
15	0x3df2e4d4	0.11860052
16	0x3e84e714	0.2595755
17	0xbde564ef	-0.11200892
18	0xbcb4ace5	-0.022055099
19	0xbe18801a	-0.14892617
20	0xbdd0aa56	-0.10188739
21	0xbe662486	-0.2247487
22	0xbe707f9c	-0.23486179
23	0x3db548e2	0.08851792
24	0x3dc522d4	0.096257836
25	0xbe060856	-0.13089117
26	0x3cde61be	0.027146216
27	0x3e94e562	0.29081255
28	0x3ebf854d	0.37406388
29	0x3de14356	0.109991714
30	0xbdcfa93e	-0.10139702
31	0x3e84c666	0.25932616
32	0x3d3b189a	0.04567776
33	0xbe2bffa5	-0.1679674
34	0xbea193aa	-0.3155797
35	0xbe526d67	-0.20549546
36	0x3e93015d	0.28711978
37	0xbe874040	-0.26416206
38	0xbd8228e9	-0.06355459
39	0x3e9af4a5	0.30264774
40	0x3e8a689b	0.27032933
41	0x3e896428	0.26834226
42	0x3e922763	0.28545675
43	0x3e4ead89	0.20183386
44	0x3e3a3a61	0.18186332
45	0x3e683f82	0.22680476
46	0x3d4c3bae	0.049861602
47	0x3dfba858	0.122879684
48	0x3db9dd7a	0.090754464
49	0x3e91dd1c	0.28489006
50	0x3e3a0227	0.18164884
51	0x3e6875a3	0.22701125
52	0x3e6a3f68	0.2287575
53	0x3e0f3c1e	0.13987777
54	0x3e9c1ade	0.30489248
55	0xbd131181	-0.035905365
56	0x3e10470e	0.14089605
57	0x3d9cdce5	0.0765932
58	0x3e6c792d	0.230931
59	0xbe7d4ee1	-0.24737121
60	0x3e82fa22	0.2558146
61	0xbc135c8e	-0.008994235
62	0xbe9b2485	-0.303013
63	0x3e8db07e	0.27673715
64	0x3ca7b7cd	0.020473385
65	0x3b8a8f1b	0.0042284853
66	0xbd84393b	-0.06456228
67	0x3ece0ab3	0.40242538
68	0x3e6a2cc9	0.22868647
69	0xbe93273b	-0.28740868
70	0xbe6d1c32	-0.23155287
71	0x3e78f9e9	0.24314083
72	0xbe8f5e6d	-0.2800173
73	0xbebff476	-0.37491196
74	0xbdcfae06	-0.10140614
75	0x3e0f74c3	0.14009385
76	0x3deea8d2	0.11653294
77	0x3e91f48e	0.28506893
78	0xbe67f43a	-0.22651759
79	0xbe0c78f5	-0.13718016
80	0x3dc94b1c	0.09828779
81	0xbe8ccdcc	-0.2750076
82	0xbe69b0c8	-0.22821343
83	0xbe858d8f	-0.26084563
84	0x3d5b9435	0.053608138
85	0xbe18b18e	-0.14911482
86	0x3e75a939	0.23990335
87	0x3e6d805e	0.231935
88	0xbeb93ef3	-0.3618084
89	0x3dc45482	0.09586431
90	0xbe463ab1	-0.19358326
91	0x3e9e2249	0.30885532
92	0x3e43c48b	0.19117944
93	0xbcb46302	-0.022019867
94	0xbe14279a	-0.14468232
95	0xbe3734ba	-0.17891207
96	0x3ea43731	0.32073358
97	0xbe0150c1	-0.12628461
98	0x3bddbcda	0.0067668976
99	0xbe869018	-0.2628181
100	0x3e90c65a	0.2827633
101	0x3e3a722f	0.1820762
102	0x3c108ec6	0.008823102
103	0x3e001599	0.12508239
104	0xbe8409ee	-0.25788826
105	0xbeb1fbe8	-0.34762502
106	0x3ebc9003	0.36828622
107	0xbe500e53	-0.20317964
108	0xbe33aa0c	-0.17545336
109	0x3e59674e	0.21230814
110	0xbecb811d	-0.39746943
111	0x3e947a5c	0.28999603
112	0x3e69001c	0.22753948
113	0x3e4723a1	0.19447185
114	0xbdfa7a53	-0.12230363
115	0x3ea2835c	0.31740844
116	0xbeb116c5	-0.34587684
117	0xbeaa25e0	-0.3323202
118	0x3e26bb02	0.16282275
119	0xbe90dce3	-0.28293523
120	0x3e4a6e01	0.19768526
121	0xbdbc79c0	-0.092029095
122	0xbe95ae53	-0.2923456
123	0x3e32aa55	0.17447789
124	0x3e102d4e	0.14079782
125	0x3ba44b5b	0.005013866
126	0x3d1f3cba	0.038876273
127	0x3eaa3156	0.33240765
128	0x3e9519aa	0.29121143
129	0x3e95d957	0.2926738
130	0x3e9c96ca	0.30583793
131	0xbed9e31e	-0.4255609
132	0xbe71ab51	-0.23600508
133	0x3dab5206	0.08365254
134	0x3ed5e6c4	0.41777623
135	0x3e8aaa5f	0.27083108
136	0xbe3739f9	-0.17893209
137	0x3e96cc60	0.294528
138	0xbe6980f4	-0.22803098
139	0xbe0f7aa1	-0.14011623
140	0x3e3d8020	0.18505907
141	0xbe075d7f	-0.1321926
142	0xbe6ceba3	-0.23136763
143	0xbea26038	-0.31714034
144	0x3e1d0b78	0.15336406
145	0xbe174965	-0.14774092
146	0x3e9ec374	0.31008494
147	0x3e234525	0.15944345
148	0x3daf47d8	0.08558625
149	0x3dac9fab	0.08428892
150	0xbeac1f35	-0.3361756
151	0x3e70fb72	0.23533419
152	0x3e52ed7d	0.20598407
153	0xbe8211cc	-0.25404203
154	0xbda66dbe	-0.081264004
155	0xbe9d816d	-0.30762807
156	0x3eb2c652	0.3491693
157	0x3e15b23e	0.14618775
158	0xbdb1e756	-0.08686702
159	0xbd553f8c	-0.052062556
160	0xbee1ef49	-0.44127873
161	0x3e39ff73	0.18163852
162	0x3e4391c2	0.19098571
163	0xbe9172e2	-0.2840796
164	0xbe2f8704	-0.17141348
165	0x3d26a83a	0.040687777
166	0xbe9f7a8b	-0.3114818
167	0xbe2da714	-0.16958266
168	0xbbd8c598	-0.006615352
169	0x3e8ac68b	0.271046
170	0xbe87f59a	-0.26554567
171	0xbe6ecd3f	-0.23320483
172	0x3e5685d4	0.20949489
173	0xbecce19d	-0.4001588
174	0xbe7427f7	-0.2384337
175	0x3e80f500	0.2518692
176	0xbe5f8916	-0.21829638
177	0x3e711892	0.23544529
178	0x3e2fc12c	0.17163533
179	0x3ddaae9a	0.10677834
180	0x3b05fb46	0.002044396
181	0xbe7d5578	-0.24739635
182	0xbe31c005	-0.17358406
183	0x3e9329fe	0.28742975
184	0xbedc5e81	-0.4304085
185	0xbd5ac33e	-0.053408854
186	0xbd2104b3	-0.039311122
187	0xbd3a65c6	-0.045507215
188	0xbe8e523a	-0.2779711
189	0x3ec46a72	0.3836246
190	0x3deced79	0.11568732
191	0x3d8830e3	0.066499494
192	0x3ea5e2ac	0.323995
193	0x3ec5df56	0.38646954
194	0x3e9c6bc5	0.30550972
195	0xbed5721b	-0.41688618
196	0x3df5e759	0.12007017
197	0x3e97f917	0.29682228
198	0xbe8b40ed	-0.27197972
199	0xbe5571eb	-0.20844238
200	0x3e33ab68	0.17545855
201	0x3e6984fa	0.22804633
202	0xbe7b2f77	-0.24529825
203	0xbe48bb14	-0.19602615
204	0x3e7c197b	0.24619095
205	0xbde6b3ff	-0.112648
206	0xbb6fe27a	-0.0036603496
207	0x3d191776	0.03737589
208	0xbe804394	-0.25051558
209	0x3e85012f	0.25977466
210	0xbe81524f	-0.2525811
211	0x3ebc178a	0.3673671
212	0x3e424800	0.18972778
213	0x3e349c09	0.17637648
214	0x3e2e9f1f	0.17052887
215	0x3e699999	0.22812499
216	0xbd12c14a	-0.035828866
217	0x3e971083	0.29504785
218	0x3d2e0ba4	0.04249157
219	0x3e67a6e7	0.22622262
220	0xbe98ef41	-0.29870036
221	0x3e8ce1c6	0.27516
222	0xbebe87ed	-0.37213078
223	0xbe00ecff	-0.12590407
224	0xbcd98e68	-0.026557162
225	0xbe623224	-0.2208944
226	0xbeb9c06e	-0.36279625
227	0x3e5c2d57	0.21501671
228	0x3e78fdb4	0.2431553
229	0x3ea2fea0	0.31834888
230	0xbe46161c	-0.19344372
231	0x3e835703	0.25652322
232	0xb9edfdde	-0.00045393308
233	0xbe9da431	-0.3078933
234	0xbe252d91	-0.16130663
235	0xbeb46c31	-0.35238793
236	0xbdbbf4fa	-0.09177585
237	0xbed64e3c	-0.41856563
238	0xbd397542	-0.04527784
239	0xbe035478	-0.12825191
240	0x3e89c643	0.26909074
241	0xbe27cf88	-0.1638776
242	0x3d9b7423	0.07590511
243	0x3e9c4182	0.30518728
244	0xbe8eccde	-0.27890676
245	0x3e1e19d3	0.15439539
246	0xbe286c61	-0.16447593
247	0x3ea909e1	0.3301535
248	0xbde174dd	-0.11008618
249	0xbe8400c8	-0.25781846
250	0xbe84fd69	-0.25974587
251	0xbe314abc	-0.17313665
252	0x3e8cd090	0.2750287
253	0x3e88a8c8	0.2669127
254	0xbd996e22	-0.07491709
255	0xbdac44ac	-0.084115356

classify.bias f4 [11]
0	0xbe04a553	-0.12953691
1	0x3dd4f7e4	0.10398844
2	0xbd145030	-0.036209285
3	0x3d96a37a	0.073553994
4	0xbdcb14dc	-0.09916088
5	0xbde57f17	-0.11205881
6	0xbc4166ac	-0.011804264
7	0x3ddbb8c2	0.10728599
8	0xbcf955c1	-0.030436398
9	0xbdfb387c	-0.12266633
10	0xbd92d32a	-0.071691826
