90+李丹丹/第十三周作业/ner_Lora/output/epoch_10.pth (torch, 954702 bytes, 38 tensors)

base_model.model.bert.encoder.layer.0.attention.self.query.lora_A.default.weight f4 [8, 768]
0.029241417 0.0074765203 -0.034714036 -0.016225582 -0.017123807 0.02263875 -0.02309308 0.027571011
0.03014214 0.025623713 0.02145352 -0.0010391439 0.0042107515 0.009943798 0.0053041363 -0.03496838
0.02864938 -0.022581004 -0.023461519 0.031265564 0.0026046801 0.01527939 0.011351593 0.024080079
0.02653946 0.0064099035 -0.026956888 0.014849109 -0.032449048 0.012177452 0.004879832 -0.0148211885
0.0315861 -0.010985637 0.0068420502 -0.015920147 0.0068926467 0.0406631 0.021424424 0.011760613
0.03418109 0.008275796 0.009193109 -0.004723857 0.021714728 0.0006511607 0.0069023897 -0.027854249
-0.0083716605 0.0037389945 0.017138297 0.007320356 0.021524519 -0.0017332726 0.01180269 0.00016949952
-0.01562905 -0.0133576505 -0.023650467 0.041830704 0.012269146 -0.040804796 -0.043770365 -0.016895652
-0.02348545 0.01585858 0.0021923562 0.040277004 0.0069822827 -0.005467212 0.0227281 0.03709001
-0.039958343 -0.00060628285 0.0011240032 0.011918382 0.0028422216 -0.017729148 -0.01412018 -0.015567393
0.02732638 0.024599142 -0.0235724 -0.04001587 -0.024448233 -0.028403623 -0.01862559 0.007194349
0.032242965 -0.023942476 -0.0041029667 -0.010801397 -0.022860834 0.019739388 -0.007972786 -0.007744551
0.04152903 0.002917541 -0.006523644 0.014943839 0.02787765 -0.049339008 -0.016883308 -0.031490456
-0.03193859 -0.038922295 0.0001238628 0.004483587 -0.030363297 -0.00963483 -0.00020375819 0.02520673
0.033427216 0.026491852 -0.03782263 -0.027098984 0.0064688944 0.032727193 0.0008350564 -0.0129817445
0.0065586534 -0.0054048155 -0.017297903 -0.0023693119 -0.030042795 0.001710934 0.010975104 -0.028704448
0.01486379 -0.02110485 0.011611725 0.0197369 -0.011346103 0.023480125 -0.03896727 -0.021016495
-0.043731373 -0.028332295 0.0007089368 -0.023348056 -0.022230536 -0.01656318 -0.036925223 0.03692878
-0.01764871 -0.011298968 -0.009238673 -0.0312617 0.009824983 0.043120917 -0.0056593777 -0.022353558
-0.00015768173 0.0020552927 -0.019596847 -0.017158097 -0.027233522 -0.004873136 0.03017851 0.00012761186
0.0069146436 0.023970583 0.018540848 -0.0020725632 -0.036308914 0.021796476 0.00841566 0.00581864
0.008650805 -0.03625958 0.017831076 -0.038438234 -0.0019322089 0.021646723 -0.0072542727 0.017499354
0.012524432 0.0030759978 -0.03527546 -0.0030243436 -0.014917688 0.003335926 -0.0038502263 0.03214802
-0.033052184 0.028468566 0.029584695 -0.017218135 0.0074825357 0.014193286 -0.0027989817 -0.020610249
-0.018951664 -0.03545414 0.00680647 -0.031205377 -0.03237922 0.010576414 -0.008295099 -0.001953966
-0.033820856 0.016457736 -0.019426366 0.03842695 -0.004845681 -0.013906332 -0.02832582 -0.017555214
0.030332172 0.026379762 -0.0011993559 0.038964443 0.01989834 0.035621658 -0.030563997 -0.026361782
0.03248153 -0.010482654 0.037119035 -0.0135995755 -0.038726054 0.0045514796 -0.039979506 -0.016653001
-0.031999514 0.051191624 0.0028119427 -0.0037717472 -0.008614861 -0.0061816555 0.01633456 0.032715864
-0.01588385 -0.025494922 0.012915225 0.02500776 -0.008412779 -0.043988775 0.0075336755 0.011168281
-0.0035544713 -0.008127279 0.006449119 -0.01234346 -0.026794387 -0.016419597 0.03401282 0.010705824
-0.0068691447 -0.009999028 0.0015568696 0.025660347 0.010570435 -0.012403259 0.024972955 -0.005991906
00000000: b28b ef3c 99fd f43b 4e30 0ebd 83eb 84bc
00000010: 3a47 8cbc e674 b93c b32d bdbc 9adc e13c
00000020: a6ec f63c d2e8 d13c 4bbf af3c e233 88ba
00000030: 58fa 893b 50eb 223c 52ce ad3b 013b 0fbd
00000040: 1bb2 ea3c ccfb b8bc 5f32 c0bc 5210 003d
00000050: 48b3 2a3b 6856 7a3c 08fc 393c 9643 c53c
00000060: 4869 d93c 2b0a d23b b1d4 dcbc ad49 733c
00000070: 4be9 04bd f083 473c ffe6 9f3b 92d4 72bc
00000080: 6d60 013d 1afd 33bc 4733 e03b f86a 82bc
00000090: b6db e13b 5a8e 263d 4682 af3c 96af 403c
000000a0: 7801 0c3d 3497 073c b29e 163c 96ca 9abb
000000b0: 16e3 b13c a8b2 2a3a 712d e23b 982e e4bc
000000c0: 4a29 09bc eb09 753b 9d65 8c3c 99df ef3b
000000d0: 3054 b03c fa2e e3ba 1260 413c aebb 3139
000000e0: 7e08 80bc 0cda 5abc a0be c1bc ac56 2b3d
000000f0: 8704 493c ee22 27bd 8e48 33bd c068 8abc
00000100: 8f64 c0bc dae9 813c a2ad 0f3b 80f9 243d
00000110: a2cb e43b 4c26 b3bb 4830 ba3c b2eb 173d
00000120: 5cab 23bd f4ee 1eba 4a53 933a 5145 433c
00000130: 9144 3a3b b83c 91bc 5458 67bc 610e 7fbc
00000140: 93db df3c 2484 c93c e81a c1bc aee7 23bd
00000150: a947 c8bc b7ae e8bc b194 98bc 93be eb3b
00000160: 3311 043d 0323 c4bc 2e72 86bb 58f8 30bc
00000170: a546 bbbc 7fb4 a13c 4aa0 02bc 01c6 fdbb
00000180: 581a 2a3d 3734 3f3b 4bc4 d5bb 01d7 743c
00000190: ab5f e43c b317 4abd dd4e 8abc 23fc 00bd
000001a0: 0ad2 02bd fc6c 1fbd 2be1 0139 0eeb 923b
000001b0: 73bc f8bc 68db 1dbc eca7 55b9 587e ce3c
000001c0: faea 083d 7105 d93c e7eb 1abd b0fe ddbc
000001d0: 05f9 d33b f30c 063d b0e7 5a3a 62b1 54bc
000001e0: f9e9 d63b e11a b1bb 55b4 8dbc 7546 1bbb
000001f0: 4f1c f6bc 6b41 e03a ecd0 333c 9725 ebbc
00000200: 4187 733c 14e4 acbc 1b3f 3e3c 48af a13c
00000210: 01e5 39bc 6459 c03c 259c 1fbd c92a acbc
00000220: ab1f 33bd 2119 e8bc f1d7 393a 6c44 bfbc
00000230: d01c b6bc 82af 87bc e73e 17bd a242 173d
00000240: 0794 90bc 4f1f 39bc ce5d 17bc 450c 00bd
00000250: f7f8 203c 8f9f 303d 4d72 b9bb cf1e b7bc
00000260: 5e57 25b9 17b2 063b 9189 a0bc 238f 8cbc
00000270: d618 dfbc d4ae 9fbb ec38 f73c 8ccf 0539
00000280: 3c94 e23b f55d c43c fae2 973c d7d3 07bb
00000290: a8b8 14bd 868e b23c d6e1 093c 4aaa be3b
000002a0: 1bbc 0d3c ed84 14bd 7a12 923c 6971 1dbd
000002b0: 2c42 fdba 7854 b13c 40b5 edbb ce5a 8f3c
000002c0: 4633 4d3c ae96 493b 007d 10bd 1134 46bb
000002d0: 5269 74bc 8d9f 5a3b 1454 7cbb a4ad 033d
000002e0: ba61 07bd e936 e93c 9a5b f23c 0c0d 8dbc
000002f0: 0f30 f53b f58a 683c 1f6f 37bb d3d6 a8bc
00000300: 8540 9bbc 5c38 11bd cf08 df3b 6ba2 ffbc
00000310: 13a0 04bd b248 2d3c 2be8 07bc 1c0e 00bb
00000320: bd87 0abd 60d2 863c 0b24 9fbc 9465 1d3d
00000330: 85c8 9ebb 62d7 63bc 8d0b e8bc f4cf 8fbc
00000340: 2d7b f83c 5f1a d83c b533 9dba 2e99 1f3d
00000350: d801 a33c 04e8 113d 5961 fabc aaf4 d7bc
00000360: 5a0b 053d 70bf 2bbc 210a 183d c1d0 5ebc
00000370: 369f 1ebd 9424 953b 8dc1 23bd e06b 88bc
00000380: ec11 03bd 4fae 513d 9248 383b 6b2f 77bb
00000390: 5925 0dbc 7c8f cabb 0ed0 853c 1201 063d
000003a0: d91e 82bc bada d0bc 619a 533c 13dd cc3c
000003b0: c1d5 09bc 932d 34bd 0ddd f63b 2afb 363c
000003c0: 22f2 68bb 4728 05bc 2253 d33b 393c 4abc
000003d0: e77f dbbc 6482 86bc 0751 0b3d 7b67 2f3c
000003e0: 9016 e1bb f7d2 23bc e00f cc3a a635 d23c
000003f0: 9e2f 2d3c 0a37 4bbc 1594 cc3c c057 c4bb

base_model.model.bert.encoder.layer.0.attention.self.query.lora_B.default.weight f4 [768, 8]
-0.0042849802 -0.0029736785 -0.0015511699 -0.0058425395 0.00017972043 -0.0073065576 0.0041512484 0.0047638724
-0.004979085 -0.006734037 -0.004532499 -0.0050776815 0.0033211014 -0.0049673384 0.0041117133 0.0060307626
-0.006359412 -0.007998423 -0.0016643136 -0.007063285 0.003510046 -0.007092712 0.0057168356 0.0028776082
-0.003943812 -0.0064603067 -0.006657025 -0.0062033045 0.0010207179 -0.005438594 0.004571654 0.0008064445
0.0023998467 0.0025055483 0.003928163 0.0013894688 -0.0014925019 0.0010231548 -0.0039755 -0.0006972251
0.007678684 0.007874865 0.0015666697 0.0082435245 -0.0027599654 0.00699321 -0.007222483 -0.0021481388
0.004241355 0.006939734 0.003518741 0.0065045645 -0.0025173353 0.005870675 -0.0055361446 6.248269e-05
0.004795672 0.008877291 0.0027288764 0.0067558726 -0.002257521 0.006111741 -0.005349718 -0.00025210477
-0.004609355 -0.003459594 -0.0028570069 -0.004886919 0.002041312 -0.0024872872 0.0027431285 0.0006731931
-0.008678997 -0.010291728 -0.0019304286 -0.0060509383 0.005769204 -0.009180242 0.0068054134 0.0020097024
0.008438384 0.0041979845 -7.484339e-05 0.008209145 -0.0012005591 0.009296166 -0.006926319 -0.0101884985
-0.0024846294 0.0071536424 0.0049005696 -0.0036777873 -0.00599111 -0.0021288886 0.0015651591 0.0072303405
0.0022826698 0.0033870928 0.0025453132 0.0035610548 0.001023243 0.0017435981 -0.0033336945 0.00062413485
0.0072044353 0.008310077 0.003958105 0.0075186617 -0.0028711006 0.006351426 -0.008151802 -0.0016175136
-0.0020325086 -0.006159552 -0.0062860777 -0.0025705863 0.0029889182 -0.0026652017 0.0041845925 -0.005162903
0.0044660987 0.0017262151 -0.0027636539 -0.0022747046 -0.0025233862 0.0020563887 0.0009277539 0.0030745242
-0.0049643884 -0.004382391 -0.0069064763 -0.0054324493 0.0061638555 -0.0053191944 0.006208147 0.0049946923
0.0014181852 -0.00125902 -0.0006459897 -0.0038342925 0.0016844162 0.000457827 0.0040214276 0.00040709015
0.00324032 0.0075429357 0.004267288 0.006468219 -0.0037819976 0.005298497 -0.004756799 -0.0017596432
0.0006722985 0.0020830706 -0.0029632498 -0.00060542737 -0.0011023732 0.0015256623 0.0018573169 0.0020038846
0.00037438126 0.0017021399 0.0040823263 -0.00052698294 0.00036027643 0.0035973093 0.006212451 0.0006680657
-0.0030198966 -0.002980253 0.0013964014 -0.0033640903 0.0028591137 -0.007227119 -0.001774855 0.0024268962
0.0069669704 0.0070929555 0.0040205386 0.00607359 -0.005672431 0.0058718035 -0.008446957 -0.0005802659
-0.00068337953 0.0048719794 0.00021111901 0.0032710657 -0.0007171081 0.0013446603 -0.0043513225 0.0020744444
-0.0062616714 -0.010218047 -0.0085339025 -0.008188293 0.0053474642 -0.0060108453 0.0075157317 0.0012740727
0.0042939032 0.0054009887 0.002576706 0.008972573 -0.00024622527 0.0075288634 -0.006795199 -0.0043106596
0.004638243 0.0046334113 0.0008610458 0.007177032 -0.0019390152 0.007714451 -0.006847625 0.0011606299
0.0037440758 0.0034271472 0.0009606942 0.0041445955 -0.0019623651 0.0025508888 -0.0044244872 -0.0016005613
0.0033131896 0.005342776 0.003961565 0.005115431 0.0005411013 0.003490779 -0.005816799 0.0014049889
0.006195888 0.0012131399 0.0017062275 0.0037875795 -0.00415041 0.00040654582 -0.008992103 -0.004536364
0.003009886 0.0041581513 0.00545221 0.002244603 -0.0059257993 0.0016623551 -0.0040547852 -0.002499158
-0.0052745775 -0.009570556 -0.004371651 -0.011110881 -0.0021661096 -0.0068532983 0.0053228596 -0.0038415028
00000000: 0569 8cbb 0ce2 42bb a050 cbba c672 bfbb
00000010: 5673 3c39 d96b efbb 3207 883b 421a 9c3b
00000020: 9827 a3bb 32a9 dcbb 5b85 94bb ae62 a6bb
00000030: d6a6 593b 0ec5 a2bb 8dbb 863b b49d c53b
00000040: 9d62 d0bb d10b 03bc 1925 daba 2173 e7bb
00000050: cd08 663b fb69 e8bb 4b54 bb3b 4196 3c3b
00000060: 183b 81bb fbb0 d3bb 2c23 dabb 1745 cbbb
00000070: 9cc9 853a 3c36 b2bb d0cd 953b 9367 533a
00000080: bf46 1d3b 2034 243b d2b7 803b d61e b63a
00000090: 0ea0 c3ba 611b 863a e944 82bb fcc5 36ba
000000a0: 789d fb3b 9405 013c b658 cd3a d90f 073c
000000b0: 89e0 34bb 4c27 e53b 94aa ecbb cac7 0cbb
000000c0: 11fb 8a3b b566 e33b ae9a 663b 3e24 d53b
000000d0: e1f9 24bb cb5e c03b 8c68 b5bb 2409 8338
000000e0: 0325 9d3b 0f72 113c f3d6 323b 5e60 dd3b
000000f0: ebf2 13bb 0045 c83b b04c afbb ee2c 84b9
00000100: 120a 97bb 5bba 62bb 9f3c 3bbb 7322 a0bb
00000110: 88c7 053b c101 23bb 0fc6 333b 3979 303a
00000120: 5a32 0ebc a39e 28bc 6f06 fdba f346 c6bb
00000130: 970b bd3b ba68 16bc f2ff de3b 36b5 033b
00000140: 2641 0a3c 3f8f 893b 3df5 9cb8 a67f 063c
00000150: 145c 9dba f24e 183c 2df6 e2bb a9ed 26bc
00000160: 2ad5 22bb 1a69 ea3b f594 a03b 0807 71bb
00000170: 1351 c4bb d384 0bbb 0626 cd3a 7eec ec3b
00000180: d898 153b fdf9 5d3b 45cf 263b 9660 693b
00000190: 561e 863a 7289 e43a 1d7a 5abb fb9c 233a
000001a0: 2f13 ec3b fd26 083c feb2 813b 1b5f f63b
000001b0: 1329 3cbb 9f1f d03b 238f 05bc c002 d4ba
000001c0: d633 05bb 11d6 c9bb 71fb cdbb 4877 28bb
000001d0: bae1 433b aaaa 2ebb e81e 893b 922d a9bb
000001e0: 5a58 923b 2b42 e23a 6b1e 35bb 3613 15bb
000001f0: 655f 25bb 7ac4 063b 8334 733a f57d 493b
00000200: 4fac a2bb 299a 8fbb b94f e2bb b002 b2bb
00000210: 2bfa c93b a34c aebb b66d cb3b 84aa a33b
00000220: 66e2 b93a b305 a5ba a357 29ba c148 7bbb
00000230: a1c7 dc3a 8008 f039 2ec6 833b b76e d539
00000240: 8c5b 543b bb2a f73b 9bd4 8b3b 5bf3 d33b
00000250: 64db 77bb 049f ad3b ecde 9bbb d4a3 e6ba
00000260: 303d 303a 2084 083b 1533 42bb 8bb5 1eba
00000270: 827d 90ba bbf8 c73a 3771 f33a 9b53 033b
00000280: 9a48 c439 561a df3a 09c5 853b 3a25 0aba
00000290: 7ce3 bc39 d6c0 6b3b d191 cb3b 2121 2f3a
000002a0: 75e9 45bb 5950 43bb 7507 b73a 1278 5cbb
000002b0: f85f 3b3b 78d1 ecbb 40a2 e8ba 900c 1f3b
000002c0: 2f4b e43b 066c e83b b9be 833b f704 c73b
000002d0: cddf b9bb 4268 c03b 1b65 0abc fc1c 18ba
000002e0: d324 33ba 20a5 9f3b d45f 5d39 605f 563b
000002f0: 4ffc 3bba 503f b03a 8a95 8ebb 67f3 073b
00000300: b52e cdbb 9869 27bc c8d1 0bbc 3128 06bc
00000310: c839 af3b a0f6 c4bb 8746 f63b c9fe a63a
00000320: dfb3 8c3b c7fa b03b f4dd 283b b301 133c
00000330: cc17 81b9 afb4 f63b 43aa debb 6f40 8dbb
00000340: 67fc 973b dfd3 973b ceb7 613a 4f2d eb3b
00000350: 8e26 feba 81c9 fc3b 0b62 e0bb 4720 983a
00000360: 2b5f 753b fd99 603b 19d7 7b3a 63cf 873b
00000370: 069b 00bb d02c 273b 4afb 90bb edc9 d1ba
00000380: 1922 593b 7412 af3b 04d0 813b 589f a73b
00000390: b2d8 0d3a 8ec5 643b d99a bebb 9b27 b83a
000003a0: e006 cb3b 3802 9f3a 7fa3 df3a 0a39 783b
000003b0: 2a00 88bb a825 d539 9d53 13bc c8a5 94bb
000003c0: 8241 453b 1a41 883b 74a8 b23b 301a 133b
000003d0: 352d c2bb 62e3 d93a 01de 84bb eac8 23bb
000003e0: 5dd6 acbb d2cd 1cbc 1140 8fbb 6a0a 36bc
000003f0: 4af5 0dbb a291 e0bb 626b ae3b b9c1 7bbb

base_model.model.bert.encoder.layer.0.attention.self.key.lora_A.default.weight f4 [8, 768]
0.023747992 0.024224302 -0.019705541 -0.028934654 -0.021135522 -0.03438024 0.01802638 -0.009174225
-0.022602905 0.015602682 0.03079667 0.022811877 -0.030672343 -0.016839782 0.023927256 0.02953284
0.0026718415 -0.022475576 -0.030219233 0.028868068 -0.016438121 0.034616377 -0.011462126 -0.0031933074
-0.0103196865 0.035117395 0.020101992 -0.04554564 -0.004186299 0.026035195 -0.015929084 0.015998822
-0.0004048411 -0.018685503 -0.007985969 0.034891028 0.0034646248 0.015045076 -0.0040238 -0.035159856
-0.0014987965 0.016800672 0.02316366 0.03787145 -0.03147989 0.029285857 -0.015261029 -0.037005853
0.0063242735 0.027816853 -0.033182498 -0.040086273 0.028279623 -0.006084364 0.032678843 0.034176175
-0.014625853 -0.034581676 0.0054795207 0.0054117953 -0.015036241 -0.032811537 0.012744613 0.041767824
0.0144647835 0.03418733 0.016997503 0.034485266 -0.02508993 0.034273684 0.0022366566 -0.001111616
-0.00751933 0.020437013 0.02622155 -0.012058159 0.029654456 -0.009315431 -0.02778951 -0.043769255
0.031210395 0.0015681315 0.006813431 -0.032727227 -0.009759909 -0.025342496 0.0304477 0.030843636
0.02110566 -0.0013079394 0.020879392 -0.041948352 -0.026567562 0.021163663 0.0024104766 -0.012086436
0.010396448 0.03207437 0.013452168 -0.015740523 -0.0057894452 -0.009572671 0.002402244 0.02360806
0.004350429 -0.0127125 -0.027791433 -0.005280352 0.02811344 -0.004102552 -0.02938224 0.010548447
-0.015160618 -0.02837609 -0.011651764 -0.019649044 0.008011907 0.016953737 -0.011790634 0.008126795
0.01422965 -0.03253341 -0.0114477845 0.025855362 -0.0008055681 0.048743643 -0.018882532 0.023398478
-0.011897674 -0.028842084 0.014659899 -0.017566629 -0.005076465 -0.020480556 0.011254937 -0.0023661032
-0.0065794396 0.0032330921 0.021843567 -0.02313108 -0.0023712832 0.017428245 -0.028175812 -0.020055966
0.022427 -0.006439232 -0.008888513 0.009842318 0.010085805 -0.012577739 0.024319202 -0.008806314
0.0165728 0.003778398 -0.0067809355 -0.040800743 -0.016252745 0.027386976 0.016522488 -0.037545495
-0.035543278 0.004241023 0.041429773 0.016699353 -0.02836634 -0.04095602 -0.025241382 0.03843037
-0.018195894 -0.013882871 0.03718612 -0.03102272 0.0065207127 0.008744584 -0.018295491 -0.0092632985
0.01522181 0.014770986 0.008124722 -0.0061600395 0.013500353 0.02143232 0.024263239 0.034159537
0.008278746 0.014476877 0.023290403 0.009487137 0.018095009 -0.008161798 -0.022899443 -0.0039926535
-0.0008793124 0.0028516052 -0.019328034 0.018339796 -0.0134438025 -0.00946963 -0.0060515073 0.017218746
0.0030062243 -0.029278966 -0.0040797414 0.026707577 -0.030569518 -0.037866414 0.01439901 -0.02537475
0.038045056 -0.016217964 -0.0047529335 0.012605072 -0.02197232 0.032517377 -0.02206508 -0.012042659
-0.03371878 0.020090584 0.03528975 0.026835628 0.019049862 -0.0031427837 0.01684208 0.013006571
-0.0045053787 0.029518256 -0.005566816 -0.031714264 0.032045003 0.030947285 -0.024847731 0.00044098645
-0.016647497 -0.019044837 0.009932478 0.03877805 0.020346213 0.023564108 0.0029158257 -0.03822944
0.016573727 -0.016820896 0.0011554793 -0.025749467 0.006107443 -0.02745495 0.004446581 -0.03696928
0.019070944 -0.0035998994 -0.026277704 0.0243807 0.03959688 0.001548447 0.034877818 -0.026635187
00000000: 268b c23c 0b72 c63c 846d a1bc 5e08 edbc
00000010: 6724 adbc 4bd2 0cbd 0fac 933c 7d4f 16bc
00000020: ba29 b9bc 64a2 7f3c 4c49 fc3c f9df ba3c
00000030: 9144 fbbc 95f3 89bc 1803 c43c dbee f13c
00000040: 101a 2f3b b31e b8bc 538e f7bc ba7c ec3c
00000050: 3da9 86bc e7c9 0d3d a4cb 3bbc cf46 51bb
00000060: e713 29bc 42d7 0f3d efac a43c 118e 3abd
00000070: 392d 89bb c347 d53c b67d 82bc f60f 833c
00000080: da40 d4b9 5712 99bc 95d7 02bc e5e9 0e3d
00000090: c20e 633b 9f7f 763c 15da 83bb c803 10bd
000000a0: 4473 c4ba 90a1 893c b7c1 bd3c 181f 1b3d
000000b0: 0ff1 00bd e5e8 ef3c 6509 7abc 7393 17bd
000000c0: da3b cf3b 2be0 e33c 5fea 07bd 8131 24bd
000000d0: abaa e73c 585f c7bb 40da 053d 51fc 0b3d
000000e0: 46a1 6fbc 84a5 0dbd 8d8d b33b 6e55 b13b
000000f0: 915a 76bc 6465 06bd c8ce 503c bd14 2b3d
00000100: b3fd 6c3c 0408 0c3d 593e 8b3c 6c40 0d3d
00000110: 6689 cdbc 9062 0c3d df94 123b a5b3 91ba
00000120: b664 f6bb 866b a73c 93ce d63c 968f 45bc
00000130: e7ed f23c c09f 18bc d4a6 e3bc 6447 33bd
00000140: f1ac ff3c c389 cd3a 3443 df3b fc0c 06bd
00000150: 06e8 1fbc 119b cfbc 746d f93c cbab fc3c
00000160: c7e5 ac3c 2a6f abba 420b ab3c 09d2 2bbd
00000170: 37a4 d9bc 6b5f ad3c 16f9 1d3b 3006 46bc
00000180: dd55 2a3c 6a60 033d 7b66 5c3c 45f2 80bc
00000190: 63b5 bdbb b1d6 1cbc f76e 1d3b b165 c13c
000001a0: 0b8e 8e3b 1748 50bc dcaa e3bc ce06 adbb
000001b0: 284e e63c b36e 86bb 06b3 f0bc 65d3 2c3c
000001c0: 3e64 78bc f974 e8bc 0ae7 3ebc 08f7 a0bc
000001d0: 6044 033c 90e2 8a3c 812d 41bc 4026 053c
000001e0: 7a23 693c c141 05bd 7d8f 3bbc a0ce d33c
000001f0: c32c 53ba 6aa7 473d 8aaf 9abc 2aae bf3c
00000200: 76ee 42bc 3c46 ecbc 1330 703c e4e7 8fbc
00000210: 7a58 a6bb d7c6 a7bc a166 383c a010 1bbb
00000220: 5798 d7bb 49e2 533b 48f1 b23c 647d bdbc
00000230: 8867 1bbb aec5 8e3c f6d0 e6bc 694c a4bc
00000240: d4b8 b73c 3100 d3bb 20a1 11bc ac41 213c
00000250: ef3e 253c dc12 4ebc 1039 c73c 5c48 10bc
00000260: aec3 873c 009f 773b 9c32 debb ae1e 27bd
00000270: 7a24 85bc a75a e03c 2b5a 873c 4ec9 19bd
00000280: d495 11bd 48f8 8a3b 44b2 293d 15cd 883c
00000290: 8760 e8bc 80c1 27bd 04c7 cebc 2a69 1d3d
000002a0: 8e0f 95bc fb74 63bc 7950 183d 5c23 febc
000002b0: b4ab d53b 7245 0f3c 6de0 95bc 17c5 17bc
000002c0: e664 793c 0102 723c 8e1d 053c 28da c9bb
000002d0: 9630 5d3c d592 af3c b3c3 c63c dfea 0b3d
000002e0: 94a3 073c 6c30 6d3c 84cb be3c f06f 1b3c
000002f0: fc3b 943c 10b9 05bc 9d97 bbbc ced4 82bb
00000300: a881 66ba ffe1 3a3b d355 9ebc 573d 963c
00000310: 6543 5cbc 8226 1bbc b94b c6bb 540e 8d3c
00000320: 1304 453b 71da efbc 5aaf 85bb d9c9 da3c
00000330: ed6c fabc d019 1bbd d3e9 6b3c b5de cfbc
00000340: 22d5 1b3d 89db 84bc 7fbe 9bbb 8185 4e3c
00000350: 4bff b3bc f130 053d d4c1 b4bc 934e 45bc
00000360: b41c 0abd 0295 a43c fc8b 103d 64d6 db3c
00000370: 750e 9c3c 29f7 4dbb 67f8 893c 8319 553c
00000380: dba1 93bb 45d0 f13c d669 b6bb d1e6 01bd
00000390: 9f41 033d 2985 fd3c 788d cbbc 3334 e739
000003a0: 5560 88bc eb03 9cbc d5bb 223c bcd5 1e3d
000003b0: 1aad a63c 8409 c13c 7017 3f3b 7996 1cbd
000003c0: a0c5 873c facb 89bc 7473 973a 8cf0 d2bc
000003d0: f220 c83b 34e9 e0bc a0b4 913b 1a6d 17bd
000003e0: ab3a 9c3c 4aec 6bbb 5744 d7bc 09ba c73c
000003f0: 5730 223d 42f5 ca3a 0bdc 0e3d 0932 dabc

base_model.model.bert.encoder.layer.0.attention.self.key.lora_B.default.weight f4 [768, 8]
0.0046250657 0.003371524 -0.0051104776 0.0019125062 0.0049787876 -0.0046278406 -0.0047180317 -0.001611891
0.0052848235 0.004115011 -0.0046527325 0.0038787406 0.0042663207 -0.0024013186 -0.006607325 -0.003766381
-0.003310368 -0.0031719443 0.0017361632 -0.0022856302 -0.003398581 0.0029044196 0.0043860767 0.0024396486
-0.006701337 -0.005982127 0.006780452 -0.0052715624 -0.0092763845 0.007747907 0.009655202 0.0051992848
0.0053784526 0.0072965636 -0.0023486414 0.0065374337 0.0059326943 -0.008985392 -0.0052628145 -0.006884059
0.008464755 0.008283106 -0.0070267282 0.0105329305 0.010203164 -0.010729173 -0.009917665 -0.009974556
0.0045723165 0.0036239247 -0.004384183 0.0031802624 0.00428494 -0.0011188126 -0.0056263194 -0.0041343826
0.00410154 0.0027651172 -0.0031687578 0.0020303961 0.0025928959 -0.0009857224 -0.005490212 -0.0024352772
-0.010192843 -0.009362676 0.010787493 -0.008197142 -0.011906924 0.011614886 0.0117546 0.0086554615
-0.006789191 -0.005705225 0.00674673 -0.0057442025 -0.0063337306 0.0016896474 0.007134833 0.0060093817
-0.0008227144 0.00014330346 -0.0013509596 0.00057621195 0.00216276 -0.0017429239 -0.0013422769 -0.0015388973
0.007341831 0.006492158 -0.010800764 0.0075605377 0.008115571 -0.009967443 -0.008454533 -0.006844785
0.0035103057 0.00078618363 -0.0011456906 0.0018072139 0.0010984008 0.0007441095 -0.0022133042 -0.002303984
0.0023227923 0.0028533682 -0.0023818202 0.0012089331 0.002630874 -0.0028410442 -0.003111991 -0.0019161346
-0.006065365 -0.0040543107 0.005877426 -0.0037477543 -0.0059281224 0.003931162 0.00794793 0.0028503637
0.00636188 0.0096631935 -0.0022773396 0.006147547 0.008937448 -0.010765547 -0.0076735723 -0.0064704968
0.0020007049 0.000510893 -0.0013072984 -0.00045231494 -0.0007290893 0.00073085644 -0.0023586235 -0.00071847904
0.0048022564 0.0042888294 -0.0031819122 0.004324182 0.0037271848 -0.0046744538 -0.004491323 -0.0037827673
0.0018716296 -0.0013792729 0.0022413405 0.00013936487 -0.0022129642 0.004525492 -0.0020829716 0.0005806117
0.0076773004 0.007832309 -0.00982425 0.009586192 0.011644742 -0.009262606 -0.008467939 -0.007905452
0.0059037283 0.0031047133 -0.009889267 0.009051781 0.008323493 -0.0037787792 -0.009050278 -0.0064493427
0.0008335861 0.0020839395 0.00047870012 0.00053659885 0.0008046655 -0.0009483962 -0.00010975843 -0.0014876125
-0.0016732502 0.0002880327 -0.00046040042 0.0009412145 0.0008032051 -0.00034005835 0.0007262193 -0.0005608194
0.0072718784 0.011400558 -0.0075555323 0.009502249 0.012036104 -0.014179883 -0.007037123 -0.0105731245
-0.0016872414 -0.00049749576 0.003995186 -0.004345785 -0.0033851946 0.0023780712 0.0014960642 0.0031047927
0.011485549 0.011045498 -0.012031168 0.009742672 0.014470079 -0.011853219 -0.015752425 -0.010886711
0.0050232788 0.006123075 -0.0074931523 0.005128399 0.0065463167 -0.008071008 -0.004979247 -0.005316072
-0.007968797 -0.0062117693 0.010345934 -0.0074872593 -0.007276032 0.0041492223 0.008847612 0.007718441
0.0058840797 0.006626719 -0.0056692264 0.0055850456 0.0069615976 -0.005991199 -0.0069552786 -0.005647139
-0.0051186653 -0.0047005317 0.0027637074 -0.0033273096 -0.0045148674 0.0018757522 0.0079005575 0.0032167567
0.005890115 0.0073002963 -0.0059438935 0.005793326 0.011464901 -0.01031668 -0.008473629 -0.006624042
-0.0118347425 -0.010457018 0.012621799 -0.013066155 -0.012419372 0.009346305 0.013338464 0.011573838
00000000: dd8d 973b c9f4 5c3b cb75 a7bb 0fad fa3a
00000010: 1925 a33b 24a5 97bb b899 9abb 1646 d3ba
00000020: 502c ad3b 37d7 863b f375 98bb 7832 7e3b
00000030: 7ecc 8b3b 715f 1dbb 4282 d8bb 63d5 76bb
00000040: c2f2 58bb 65e0 4fbb f88f e33a 83ca 15bb
00000050: baba 5ebb 1358 3e3b 14b9 8f3b 83e2 1f3b
00000060: e496 dbbb b805 c4bb 8e2e de3b 12bd acbb
00000070: fafb 17bc 28e2 fd3b da30 1e3c c35e aa3b
00000080: bb3d b03b 0318 ef3b aaeb 19bb f837 d63b
00000090: 0c67 c23b 7737 13bc b073 acbb ac93 e1bb
000000a0: c1af 0a3c ddb5 073c 7840 e6bb 5092 2c3c
000000b0: 2c2b 273c 6ac9 2fbc b47d 22bc 526c 23bc
000000c0: 5fd3 953b 5e7f 6d3b 31a9 8fbb f36b 503b
000000d0: af68 8c3b 1fa5 92ba fd5c b8bb b779 87bb
000000e0: 3666 863b f836 353b efaa 4fbb 6510 053b
000000f0: 93ed 293b 5b33 81ba 3ce7 b3bb 2c99 1fbb
00000100: e2ff 26bc e965 19bc 06be 303c 4e4d 06bc
00000110: 4215 43bc 5d4c 3e3c 5e96 403c a3cf 0d3c
00000120: dd77 debb e5f2 babb ac13 dd3b dd39 bcbb
00000130: 2f8b cfbb 2977 dd3a 51cb e93b 59ea c43b
00000140: 6eab 57ba bb43 1639 af12 b1ba ee0c 173a
00000150: 17bd 0d3b d272 e4ba 57ef afba d3b4 c9ba
00000160: be93 f03b 2bbc d43b b0f5 30bc 63be f73b
00000170: 2cf7 043c 7c4e 23bc e284 0abc 384a e0bb
00000180: 280d 663b e417 4e3a ff2a 96ba 09e0 ec3a
00000190: 37f8 8f3a 5810 433a 150d 11bb 70fe 16bb
000001a0: fd39 183b 93ff 3a3b 5018 1cbb 1075 9e3a
000001b0: be6a 2c3b d030 3abb 8cf2 4bbb cf26 fbba
000001c0: f8bf c6bb 06da 84bb 6c97 c03b e29c 75bb
000001d0: b240 c2bb fad0 803b 0938 023c 2bcd 3a3b
000001e0: 5177 d03b 5f52 1e3c 6b3f 15bb 5d71 c93b
000001f0: 606e 123c fa61 30bc 9772 fbbb 7606 d4bb
00000200: 421e 033b 73ed 053a a859 abba af24 edb9
00000210: 5b20 3fba f296 3f3a 2393 1abb 5058 3cba
00000220: 3f5c 9d3b 4f89 8c3b a187 50bb deb1 8d3b
00000230: c943 743b 292c 99bb f32b 93bb 4ee8 77bb
00000240: 7851 f53a b8c8 b4ba 74e3 123b 7922 1239
00000250: 6107 11bb 944a 943b 7782 08bb 3134 183a
00000260: dd91 fb3b 1653 003c e4f5 20bc 670f 1d3c
00000270: 97c9 3e3c 2fc2 17bc 1cbd 0abc de85 01bc
00000280: 1074 c13b 7278 4b3b 9806 22bc ec4d 143c
00000290: 435f 083c 65a5 77bb 9e47 14bc 0255 d3bb
000002a0: 0485 5a3a b492 083b 0bfa fa39 8aaa 0c3a
000002b0: 30f0 523a cb9d 78ba 1c2e e6b8 fefb c2ba
000002c0: f650 dbba 1803 9739 e661 f1b9 d6bb 763a
000002d0: 2f8e 523a dc49 b2b9 c15f 3e3a f403 13ba
000002e0: f048 ee3b 68c9 3a3c 6694 f7bb 52af 1b3c
000002f0: 1433 453c bd52 68bc ab97 e6bb e63a 2dbc
00000300: 6d26 ddba 606a 02ba 0dea 823b 1667 8ebb
00000310: 24da 5dbb 6ad9 1b3b 9617 c43a c779 4b3b
00000320: e22d 3c3c 2df8 343c 601e 45bc ba9f 1f3c
00000330: e913 6d3c 0134 42bc 3b0b 81bc 2d5e 32bc
00000340: 519a a43b 13a4 c83b 1e89 f5bb 210c a83b
00000350: 7c82 d63b 433c 04bc f428 a3bb 7232 aebb
00000360: 8f8f 02bc 198c cbbb fe81 293c af57 f5bb
00000370: c86b eebb 33f6 873b 93f5 103c faea fc3b
00000380: 3dcf c03b f324 d93b ebc4 b9bb c202 b73b
00000390: 1d1e e43b d251 c4bb 1be9 e3bb a30b b9bb
000003a0: 7aba a7bb eb06 9abb 511f 353b fe0e 5abb
000003b0: 74f1 93bb cddb f53a 5771 013c 39d0 523b
000003c0: de01 c13b 5337 ef3b fec4 c2bb f1d5 bd3b
000003d0: 48d7 3b3c 4b07 29bc fad4 0abc 7e0e d9bb
000003e0: 82e6 41bc ea53 2bbc a9cb 4e3c 6d13 56bc
000003f0: 9f7a 4bbc 3f21 193c 9389 5a3c 32a0 3d3c

base_model.model.bert.encoder.layer.0.attention.self.value.lora_A.default.weight f4 [8, 768]
0.027897958 0.022648562 0.0019620662 0.020970669 -0.034813493 0.004246748 0.035155073 0.016245201
0.024137648 0.0382472 0.015564405 -0.0062146783 -0.020338904 8.891004e-05 -0.019282265 -0.035651714
0.002144298 0.016948063 0.0297664 -0.013929842 -0.022507256 -0.03847135 0.031556096 -0.026178502
0.0074331537 0.02479865 0.012137319 -0.001921999 -0.043334413 -0.029540632 -0.013043559 -0.016463723
0.01850977 0.003979345 -0.013736627 0.012661792 0.0099583175 0.016622083 -0.04026537 -0.019017825
-0.03669889 0.027523102 -0.021119853 -0.005740408 0.024329945 -0.012768984 -0.045682967 0.013875
-0.009086078 0.021496547 -0.022352662 0.009112668 0.0031772328 -0.009892589 -0.02985131 0.020787157
0.034770675 0.0028113846 -0.002257675 0.013258973 0.010283238 0.025197968 0.025780668 0.02176866
0.016798431 0.011249178 0.016219584 -0.010564499 0.015313354 0.024187995 -0.016086726 -0.03257314
0.021141732 0.0054073203 -0.011106915 -0.035361633 -0.033123378 -0.008448563 -0.037044946 0.007715737
-0.020106655 -0.0108678965 0.030854419 0.0071315146 0.024487088 0.0026907537 0.011081855 0.003670481
0.020727567 0.030283164 -0.0071030734 0.016433578 -0.00050483114 0.015058824 -0.0009762252 -0.0060672923
0.010350122 -0.013549972 0.029878544 -0.011336678 0.02625528 -0.032882106 -0.014373215 -0.0073667928
0.0019009274 0.012469426 -0.012787071 -0.011354016 -0.018517839 0.00024272955 0.029031754 0.012567647
-0.039495815 -0.011005309 -0.012153514 0.037194237 -0.04696999 -0.016819427 0.004382387 -0.03496347
0.03144989 0.00480988 0.017837465 0.0315353 0.011035787 -0.021473 -0.01638883 0.0007641896
-0.00033491818 -0.019699497 -0.035751693 -0.0027258683 -0.0074746027 -0.047636244 0.021189885 0.02175838
0.029963417 0.0037898577 -0.013289644 -0.033905335 0.009809197 0.034586493 -0.0042378497 0.013907175
0.0145075 -0.028372653 -0.015215195 0.005102764 0.017711818 0.01897032 -0.0037011234 -0.023182664
0.044125475 0.01930401 -0.033977676 0.02851168 0.033119787 0.012501504 -0.016408317 -0.009111439
0.02600165 -0.010310075 -0.02402646 -0.015647918 0.009252945 0.028870719 0.038430925 0.035227474
-0.009907194 -0.02859885 -0.017979091 -0.011587706 -0.031411123 -0.04057906 0.029313397 -0.014244745
-0.026060004 0.022319742 -0.013416515 0.011161736 -0.024302896 0.026470203 -0.0038865746 0.021589719
0.010733309 0.006422604 0.028947411 -0.012958573 -0.016495474 0.009270513 0.015804319 -0.038123343
-0.013519016 -0.02656954 -0.020396803 -0.00043278083 -0.032423403 -0.026510693 0.0031221814 -0.042511474
-0.027489305 0.025894878 0.04211358 0.0161306 -0.010049093 -0.025854087 0.020391855 -0.006909252
0.03203893 0.009852005 0.01054265 0.034251425 0.0010636571 -0.02832902 0.004387206 -0.012589456
-0.020603223 -0.037400953 0.02459821 0.010313535 0.0136883715 -0.0016696904 0.009842112 0.021055834
-0.026655642 0.032871656 0.0023248326 0.033237092 -0.016075436 -0.036430415 0.03150985 -0.0030353242
-0.037553634 0.010931565 0.010002424 0.009734685 0.02988053 -0.010065356 0.028099284 -0.013891324
-0.023650125 0.016840205 -0.03776203 0.026504837 0.001104998 0.007153226 -0.030100236 -0.025418628
0.00765483 -0.036025826 0.0023342606 0.03600422 -0.018367369 0.011992644 -0.0344951 -0.030665576
00000000: 428a e43c 7a89 b93c 0296 003b aeca ab3c
00000010: 9898 0ebd 4e28 8b3b c4fe 0f3d a814 853c
00000020: 51bc c53c 19a9 1c3d d901 7f3c 80a4 cbbb
00000030: c69d a6bc 3775 ba38 d7f5 9dbc 8807 12bd
00000040: 5a87 0c3b aad6 8a3c aad8 f33c fe39 64bc
00000050: 2361 b8bc 2294 1dbd f740 013d 4c74 d6bc
00000060: d091 f33b 8a26 cb3c 9bdb 463c 96eb fbba
00000070: 6d7f 31bd 32ff f1bc a7b4 55bc eede 86bc
00000080: cda1 973c 2a65 823b 970f 61bc 6873 4f3c
00000090: 3628 233c 092b 883c 4ded 24bd 45cb 9bbc
000000a0: 9351 16bd 2178 e13c 8b03 adbc 081a bcbb
000000b0: 984f c73c 0035 51bc 101e 3bbd f853 633c
000000c0: c6dd 14bc 8719 b03c ee1c b7bc 4d4d 153c
000000d0: 1f39 503b 8714 22bc bc8a f4bc d449 aa3c
000000e0: b26b 0e3d 353f 383b 80f5 13bb 2a3c 593c
000000f0: 077b 283c f86b ce3c fb31 d33c 3054 b23c
00000100: dd9c 893c 794e 383c efde 843c b816 2dbc
00000110: dde4 7a3c e725 c63c 4fc8 83bc 6a6b 05bd
00000120: 6d31 ad3c e42f b13b c7f9 35bc 5cd7 10bd
00000130: 61ac 07bd d76b 0abc 71bc 17bd 4bd4 fc3b
00000140: b6b6 a4bc 430f 32bc 68c2 fc3c 7baf e93b
00000150: 2599 c83c 5b57 303b ab90 353c 748c 703b
00000160: dccc a93c 6614 f83c e6c0 e8bb b69f 863c
00000170: a556 04ba 49b9 763c 5de9 7fba 23d0 c6bb
00000180: 8f93 293c b400 5ebc d9c3 f43c 79bd 39bc
00000190: 5015 d73c 63af 06bd a27d 6bbc 2365 f1bb
000001a0: 8a28 f93a 904c 4c3c dd80 51bc 3206 3abc
000001b0: b9b2 97bc 3885 7e39 00d4 ed3c 88e8 4d3c
000001c0: 5dc6 21bd 9d4f 34bc 881f 47bc fc58 183d
000001d0: 9b63 40bd e5c8 89bc 209a 8f3b db35 0fbd
000001e0: 9ad1 003d 339c 9d3b e01f 923c 292b 013d
000001f0: 72cf 343c 25e8 afbc de41 86bc e553 483a
00000200: f597 afb9 d760 a1bc 5e70 12bd 7ba4 32bb
00000210: 83ed f4bb 391e 43bd 6996 ad3c a13e b23c
00000220: d775 f53c 435f 783b cfbc 59bc 52e0 0abd
00000230: c1b6 203c 91aa 0d3d a9dd 8abb ebda 633c
00000240: deb0 6d3c c46d e8bc 2749 79bc 1635 a73b
00000250: 6018 913c a567 9b3c 8c8e 72bb 92e9 bdbc
00000260: eabc 343d 7123 9e3c 2d2c 0bbd 5491 e93c
00000270: 9da8 073d 1cd3 4c3c bc6a 86bc 2548 15bc
00000280: 6a01 d53c 97eb 28bc 23d3 c4bc 1030 80bc
00000290: aa99 173c 4982 ec3c bf69 1d3d af4a 103d
000002a0: c951 22bc 2348 eabc e348 93bc 5dda 3dbc
000002b0: f3a8 00bd 3a36 26bd a622 f03c ca62 69bc
000002c0: ca7b d5bc e4d7 b63c f1d0 5bbc b7df 363c
000002d0: de16 c7bc 0ad8 d83c e7b5 7ebb ecdc b03c
000002e0: c3da 2f3c b574 d23b 1f23 ed3c 3250 54bc
000002f0: 8421 87bc 5ae3 173c 0f78 813c 3927 1cbd
00000300: dd7e 5dbc 5da8 d9bc 3217 a7bc dce6 e2b9
00000310: 67ce 04bd f42c d9bc 839d 4c3b 8320 2ebd
00000320: 4031 e1bc 7f21 d43c 4a7f 2c3d 5224 843c
00000330: f3a4 24bc f3cb d3bc d20c a73c 0267 e2bb
00000340: 413b 033d 4e6a 213c 14bb 2c3c 394b 0c3d
00000350: 696a 8b3a 4312 e8bc 8dc2 8f3b 0144 4ebc
00000360: 17c8 a8bc be31 19bd 2f82 c93c 1afa 283c
00000370: 3145 603c 83d9 daba cf40 213c 497d ac3c
00000380: ef5c dabc 6ea4 063d 385c 183b 9e23 083d
00000390: a2b0 83bc 0f38 15bd 7910 013d 4aec 46bb
000003a0: d7d1 19bd 4f1a 333c 35e1 233c 3a7e 1f3c
000003b0: 03c8 f43c 2ae9 24bc 7830 e63c 7098 63bc
000003c0: e8bd c1bc 78f4 893c 5cac 1abd ac20 d93c
000003d0: 95d5 903a 9c65 ea3b c594 f6bc ba3a d0bc
000003e0: 5ed5 fa3b d18f 13bd 65fa 183b 2979 133d
000003f0: 2a77 96bc cb7c 443c bc4a 0dbd 6036 fbbc

base_model.model.bert.encoder.layer.0.attention.self.value.lora_B.default.weight f4 [768, 8]
0.0050734496 0.0045834505 -0.0049239895 0.0051774923 -0.0044099204 0.004692653 -0.004418803 -0.0047201565
-0.0018159079 -0.0007828113 0.0018225313 -0.0006595895 0.0015078809 -0.0022094208 0.0018449739 0.0022944645
0.0023114143 0.0030801264 -0.0017060608 0.002163466 -0.0017691838 0.001972227 -0.0012693049 -0.0024402535
-0.0012548323 -0.0016090028 0.0017401205 -0.0017907965 0.0017476632 -0.0017408744 0.0019902065 0.000599675
0.007640806 0.004645236 -0.0050194464 0.0055457074 -0.0051001324 0.004903288 -0.0056686713 -0.008238211
0.0007165402 0.0069554765 -0.0031968912 0.0051565273 -0.004261072 0.0035473094 -0.0021992114 -0.00069847796
0.0066535864 0.00567852 -0.005762644 0.004727522 -0.005486342 0.006451213 -0.005894945 -0.006421455
0.0016240977 0.0014005917 -0.0017730788 0.0026046713 -0.0018005226 0.0012196649 -0.0017164416 -0.0012451223
-0.0018712839 0.00013059827 0.0016824208 -0.0015778515 0.0020994227 -0.0009469676 0.0036579508 0.0035880706
-0.0011759694 0.004318838 -0.0011718686 0.0030133526 -0.0018455724 -0.00030357257 -0.0010014833 0.0007431659
0.0038252678 0.0050768936 -0.0040898244 0.0038765136 -0.0037791918 0.004152567 -0.0035074607 -0.004345003
-0.0074079046 -0.0032795197 0.005029171 -0.004708983 0.004646252 -0.0055700005 0.006405227 0.007837595
0.0033975164 0.001384517 -0.0035021922 0.0021546504 -0.003242983 0.0038209422 -0.0037031819 -0.005012399
0.0032755928 0.00600632 -0.0023416737 0.0042249197 -0.003288342 0.0030683354 -0.0015420438 -0.0013747035
-0.0007871908 0.00079299835 0.001320326 -0.0010545825 0.0011422624 -0.0013276729 0.00276397 0.003079706
-0.0009040321 0.0033735193 -0.0018575784 0.0022449116 -0.0017552294 0.0009896003 -0.00038468698 0.00060015323
0.0014098115 0.004376887 -0.0020285645 0.0040721446 -0.0023616075 0.0008660215 -0.0014736598 -0.0016402154
0.0064418023 0.0066773957 -0.0045549655 0.005196725 -0.004564648 0.0047491617 -0.0031286522 -0.003958463
0.0005308615 0.00066238083 0.00088602025 -2.7363349e-05 0.00083180517 -0.0009271285 0.0010159307 0.0014365572
0.006041235 0.00054494466 -0.003127734 0.003602617 -0.0031353547 0.0034750775 -0.003941212 -0.0042343023
-0.011379043 -0.011490066 0.009024992 -0.010667996 0.009387551 -0.009902903 0.009343425 0.010875014
0.00078160473 0.0007604557 -0.00032616185 0.00011423752 7.2948154e-05 0.0005671236 -0.000142198 -0.0012472284
-0.00016207568 -0.0029831112 0.0017981139 -0.0023164172 0.0021712773 -0.0021345816 0.0009591329 0.0005084211
-0.0020314665 0.00026336388 0.0018989661 -0.00096408423 0.0012521408 -0.0025215105 0.0016881143 0.0019496689
0.0053755906 0.0051777083 -0.0049414993 0.0054572155 -0.005070919 0.004678627 -0.0047602644 -0.0035667466
-0.0019206508 -0.0006068565 0.0013445175 -0.0008850545 0.0011677486 -0.00084168743 0.00087762496 0.00087646587
0.0035836208 0.0033397838 -0.0030288708 0.0034403624 -0.0026903162 0.0027230075 -0.0030629782 -0.0044583455
0.0023329023 -0.0016926656 0.001087813 -0.0007187146 0.0014719873 -0.00075567444 0.0003708873 -0.0014450395
-0.0045624916 -0.0060331435 0.005002303 -0.0050595854 0.0051552905 -0.005766352 0.0050942637 0.0053784465
0.00082961924 0.002173791 -0.001521148 0.0021082677 -0.0017787174 0.0014373978 -0.0012774514 -0.00028015702
-0.0012797825 -0.0030484018 0.0017123901 -0.0018615681 0.0018731867 -0.001480321 0.0015988963 0.000920022
-0.002032276 -0.0036165663 0.0025525705 -0.0022114422 0.0026014003 -0.0041706297 0.0017280765 0.0020493662
00000000: 2e3f a63b c530 963b 6b59 a1bb f4a7 a93b
00000010: 1881 90bb d4c4 993b 9bcb 90bb 8bab 9abb
00000020: c203 eeba 9435 4dba 01e2 ee3a 4de8 2cba
00000030: 16a4 c53a eecb 10bb 0dd3 f13a ba5e 163b
00000040: 197b 173b f2db 493b e79d dfba f0c8 0d3b
00000050: f5e3 e7ba 7a40 013b ce5e a6ba a9ec 1fbb
00000060: 2f79 a4ba 2de5 d2ba c114 e43a 29b9 eaba
00000070: d911 e53a 0d2e e4ba 206e 023b 8233 1d3a
00000080: ba5f fa3b 1037 983b 2b7a a4bb c4b8 b53b
00000090: 031f a7bb c3ab a03b 43c0 b9bb 90f9 06bc
000000a0: 33d6 3b3a c4ea e33b ef82 51bb 16f8 a83b
000000b0: 76a0 8bbb fa79 683b a520 10bb 101a 37ba
000000c0: 5406 da3b e112 ba3b 90d4 bcbb 54e9 9a3b
000000d0: c6c6 b3bb b264 d33b 622a c1bb 126b d2bb
000000e0: addf d43a 0f94 b73a a766 e8ba 22b3 2a3b
000000f0: 83ff ebba 2add 9f3a 39fa e0ba 5f33 a3ba
00000100: de45 f5ba 35f1 0839 ad84 dc3a e9cf ceba
00000110: 7896 093b eb3d 78ba 3bba 6f3b d625 6b3b
00000120: fc22 9aba 0a85 8d3b 6399 99ba ab7b 453b
00000130: 22e7 f1ba d228 9fb9 3444 83ba 05d1 423a
00000140: 58b1 7a3b 125c a63b ef03 86bb 1b0d 7e3b
00000150: 51ac 77bb 4212 883b 6ddd 65bb 8760 8ebb
00000160: 02be f2bb 36ed 56bb becb a43b d04d 9abb
00000170: 963f 983b 8d84 b6bb f0e2 d13b 4269 003c
00000180: dea8 5e3b ae78 b53a 0985 65bb 0935 0d3b
00000190: 3a88 54bb c668 7a3b 15b1 72bb 0d3f a4bb
000001a0: 54ab 563b aad0 c43b c476 19bb 3271 8a3b
000001b0: 3981 57bb 2016 493b 671e caba 652f b4ba
000001c0: 7b5b 4eba 38e1 4f3a ca0e ad3a eb39 8aba
000001d0: f7b7 953a 4f05 aeba b923 353b e5d4 493b
000001e0: 91fc 6cba 4316 5d3b fd79 f3ba 5e1f 133b
000001f0: ba0f e6ba 7ab5 813a d0af c9b9 9a53 1d3a
00000200: 6dc9 b83a fd6b 8f3b aaf1 04bb a06f 853b
00000210: 33c5 1abb b805 633a d127 c1ba 7ffc d6ba
00000220: c115 d33b 0ece da3b d241 95bb 4a49 aa3b
00000230: 0b93 95bb db9e 9b3b 130a 4dbb ffb5 81bb
00000240: 8329 0b3a a0a3 2d3a d043 683a 588a e5b7
00000250: 800d 5a3a 8a0a 73ba fa28 853a dc4a bc3a
00000260: 8df5 c53b 9eda 0e3a abfa 4cbb e219 6c3b
00000270: 867a 4dbb 20be 633b 4825 81bb e7bf 8abb
00000280: 2a6f 3abc d440 3cbc 8fdd 133c d1c8 2ebc
00000290: 3ece 193c c93f 22bc 2a15 193c 1d2d 323c
000002a0: 9be4 4c3a 5159 473a b400 abb9 cd92 ef38
000002b0: befb 9838 05ab 143a fc1a 15b9 0a7a a3ba
000002c0: dcf2 29b9 4d80 43bb b1ae eb3a 08cf 17bb
000002d0: fd4b 0e3b 56e4 0bbb 526e 7b3a 9047 053a
000002e0: 5a22 05bb 1a14 8a39 bbe6 f83a 99ba 7cba
000002f0: e01e a43a ed3f 25bb b743 dd3a 088c ff3a
00000300: b925 b03b c4a9 a93b 4dec a1bb 71d2 b23b
00000310: f429 a6bb 2b4f 993b fefb 9bbb 14c0 69bb
00000320: 59be fbba 7315 1fba 853a b03a 0103 68ba
00000330: 240f 993a b0a4 5cba 6a10 663a a1c2 653a
00000340: 2edb 6a3b 46e0 5a3b 0580 46bb b477 613b
00000350: 0450 30bb 7c74 323b 3fbc 48bb 5017 92bb
00000360: 9be3 183b 6fdc ddba f394 8e3a 1f68 3cba
00000370: b3ef c03a 7418 46ba a773 c239 7b67 bdba
00000380: f480 95bb adb1 c5bb 5cea a33b e1ca a5bb
00000390: b6ed a83b abf3 bcbb c8ed a63b ae3d b03b
000003a0: ce7a 593a 2976 0e3b 4261 c7ba dd2a 0a3b
000003b0: da23 e9ba 1167 bc3a 2870 a7ba 0ae2 92b9
000003c0: 60be a7ba b2c7 47bb 4772 e03a dcff f3ba
000003d0: b785 f53a 5507 c2ba 0f92 d13a a22d 713a
000003e0: ef2f 05bb ea03 6dbb 0749 273b d8ed 10bb
000003f0: 417c 2a3b c7a9 88bb a080 e23a a94e 063b

base_model.model.bert.encoder.layer.1.attention.self.query.lora_A.default.weight f4 [8, 768]
-0.027344447 0.024895756 0.014947154 0.019299269 0.0032019112 -0.022218784 -0.005913482 -0.0085478015
0.006887182 -0.009992472 -0.0131374 -0.04506894 -0.04639407 0.010176683 -0.025050456 0.007014108
0.010704736 0.049441226 -0.037930887 0.01951278 -0.017960794 0.031589035 0.00016081506 0.0059088888
0.020334506 -0.009915576 -0.0059718955 -0.015533271 -0.022842038 -0.015892528 -0.005925765 -0.007638461
-0.034408882 0.0049027405 0.03097223 -0.010148538 -0.021751717 -0.006671555 -0.018343419 0.008687572
-0.030035641 -0.014916978 0.002643183 0.006053235 0.011684215 -0.001618636 0.002949354 -0.04252602
-0.0115193315 0.012479487 -0.015883124 -0.03809564 0.04808473 -0.00018401165 -0.0043812967 -0.038724385
0.024200762 -0.012933686 -0.0037837739 0.005239424 0.0021926172 0.01779914 -0.049002722 0.028508602
-0.019841887 0.014250473 0.019484583 0.006804155 0.017047001 0.003673033 0.020287486 -0.01032694
-0.015095734 0.03365637 -0.04417727 0.012027331 0.0036305157 -0.011477477 -0.023772832 -0.024462223
0.03282905 -0.04014432 0.026763378 -0.008385519 -0.011486908 0.024255754 0.0046344297 -0.02186852
0.00068524264 0.0077642933 0.00091012166 -0.04152329 -0.03239504 -0.02507587 0.0381846 0.02211265
0.037739217 0.032563273 0.012932592 -0.02743205 0.0031295985 -0.035081644 -0.021013988 0.037544683
-0.032809917 0.025770687 0.0073051876 0.025308013 -0.012731497 0.012458989 -0.012804497 -0.0065374966
-0.038542986 0.012074503 -0.019154564 -0.033582535 0.032109816 0.019743895 -0.018453788 -0.05206334
-0.012662595 -0.017662676 -0.035469342 -0.022800036 0.014161645 0.01729774 -0.0057857484 0.012196085
-0.028719649 0.0063880105 0.0014842575 0.009373045 -0.032041077 -0.03459451 0.0078056194 -0.010980467
0.00424872 -0.047100842 -0.011445375 0.02440333 -0.048458032 -0.022556093 0.02901128 0.036839195
-0.0016821575 0.026105585 0.037831753 -0.018766005 5.5756867e-05 0.010920261 0.016776593 0.018869195
-0.012014345 -0.024973061 0.011340276 0.042595807 0.042538047 -0.006447243 0.005507116 0.019257553
-0.009106452 -0.045778975 -0.035080176 -0.03049414 0.0118178455 -0.0017322649 -0.009088278 0.02554671
-0.013932959 0.02184931 -0.006867641 -0.009434287 0.028737918 -0.02338941 -0.027732443 0.015829477
-0.014645491 0.019960051 -0.00426692 0.047852594 -0.016625393 -0.012771535 -0.0012676237 0.0008767313
-0.016849369 0.03229364 -0.019542472 0.02871646 -0.03003549 -0.023828376 -0.028050303 -0.016133957
0.016159223 -0.04222096 0.041921746 -0.020174112 -0.022302343 0.025786782 0.00017493655 0.012315229
-0.0013753624 -0.018699503 -0.0016217033 -0.022247333 0.028560612 -0.0319166 0.03149831 -0.011787902
-0.02375334 0.0049345773 -0.01010711 0.0023641412 -0.029568717 0.01849603 0.035793647 0.049954057
0.012753617 0.0227048 0.03823815 0.0059288344 0.01917266 0.008054547 -0.043585528 -0.00092500355
0.023332087 0.0061378656 -0.012068446 0.0017906531 0.0020682933 0.03166076 -0.032776125 -0.006646503
0.0057964385 0.03922695 0.0221448 -0.003136225 -0.029755263 -0.011775993 -0.032844707 0.03490905
-0.0135203125 -0.013165321 0.023197265 -0.040317044 -0.041517325 -0.028604161 -0.048362587 -0.0064414577
-0.035033647 -0.025019914 0.016470436 0.039377354 -0.0019109112 -0.02833784 0.008979634 -0.00466275
00000000: 7601 e0bc 2ff2 cb3c e8e4 743c 8019 9e3c
00000010: 28d7 513b 2b04 b6bc e2c5 c1bb 140c 0cbc
00000020: dfad e13b 77b7 23bc 403e 57bc 359a 38bd
00000030: b507 3ebd 1abc 263c 9d36 cdbc 9ad6 e53b
00000040: eb62 2f3c e282 4a3d 6b5d 1bbd 44d9 9f3c
00000050: 8422 93bc 8163 013d 77a0 2839 5a9f c13b
00000060: 8d94 a63c f174 22bc e4af c3bb 437f 7ebc
00000070: 3a1f bbbc 0c31 82bc eb2c c2bb 0e4c fabb
00000080: 54f0 0cbd 2ba7 a03b 79b9 fd3c 0e46 26bc
00000090: a830 b2bc 0f9d dabb f044 96bc 5156 0e3c
000000a0: 4e0d f6bc 5766 74bc 4139 2d3b 375a c63b
000000b0: 266f 3f3c 6928 d4ba f349 413b c42f 2ebd
000000c0: 94bb 3cbc c376 4c3c 531d 82bc 2c0a 1cbd
000000d0: 7ef4 443d 40f3 40b9 fb90 8fbb 769d 1ebd
000000e0: ad40 c63c d0e7 53bc 31f9 77bb 79af ab3b
000000f0: 03b2 0f3b 81cf 913c 14b7 48bd df8a e93c
00000100: 748b a2bc d17a 693c 229e 9f3c 64f5 de3b
00000110: 27a6 8b3c 45b7 703b f131 a63c 5332 29bc
00000120: 1954 77bc 43db 093d 3af3 34bd 480e 453c
00000130: f2ed 6d3b 070c 3cbc 3ebf c2bc 0065 c8bc
00000140: c177 063d 5f6e 24bd df3e db3c 6a63 09bc
00000150: 9633 3cbc 01b4 c63c 6adc 973b 9c25 b3bc
00000160: dba1 333a 9d6b fe3b 3b95 6e3a 5314 2abd
00000170: a9b0 04bd e96b cdbc 7567 1c3d 9725 b53c
00000180: 7094 1a3d 1161 053d 39e3 533c 2eb9 e0bc
00000190: f319 4d3b c5b1 0fbd 8725 acbc 74c8 193d
000001a0: b163 06bd 0c1d d33c 5b60 ef3b c052 cf3c
000001b0: c597 50bc ca20 4c3c f4c9 51bc 7f38 d6bb
000001c0: 40df 1dbd 23d4 453c 08ea 9cbc d78d 09bd
000001d0: 9585 033d f3bd a13c 662c 97bc 5e40 55bd
000001e0: c676 4fbc 51b1 90bc 4d48 11bd 24c7 babc
000001f0: 3f06 683c fdb3 8d3c 6096 bdbb 17d2 473c
00000200: 7845 ebbc 8452 d13b 6b8b c23a 6691 193c
00000210: 813d 03bd f9b2 0dbd 48c6 ff3b 6be7 33bc
00000220: d938 8b3b d0ec 40bd 6285 3bbc 7ee9 c73c
00000230: ee7b 46bd 8ec7 b8bc 10a9 ed3c b2e4 163d
00000240: d77b dcba 61db d53c 78f5 1a3d 2abb 99bc
00000250: 7bdc 6938 e5ea 323c 116f 893c 9293 9a3c
00000260: d1d7 44bc 4e94 ccbc 91cc 393c f178 2e3d
00000270: 603c 2e3d 6543 d3bb 0a75 b43b 04c2 9d3c
00000280: 3a33 15bc bc82 3bbd 3bb0 0fbd d9ce f9bc
00000290: a39f 413c 2a0d e3ba 00e7 14bc 5547 d13c
000002a0: 1147 64bc 53fd b23c f309 e1bb 4592 1abc
000002b0: c86b eb3c 269b bfbc 262f e3bc d2ac 813c
000002c0: a4f3 6fbc 4383 a33c 85d1 8bbb 1501 443d
000002d0: fa31 88bc b33f 51bc 6526 a6ba 71d4 653a
000002e0: b007 8abc 5646 043d 8917 a0bc c83e eb3c
000002f0: fd0c f6bc ba33 c3bc c0c9 e5bc 5c2b 84bc
00000300: 5960 843c e3ef 2cbd 23b6 2b3d 2e44 a5bc
00000310: 67b3 b6bc cd3e d33c 2c6f 3739 d0c5 493c
00000320: 8145 b4ba b32f 99bc 558f d4ba 0a40 b6bc
00000330: f2f7 e93c fbba 02bd 5f04 013d 0b22 41bc
00000340: 5d96 c2bc 3cb2 a13b 4b98 25bc b5ef 1a3b
00000350: 183a f2bc fc84 973c 5c9c 123d a09c 4c3d
00000360: 8cf4 503c 6bff b93c 9b9f 1c3d ab46 c23b
00000370: fb0f 9d3c 38f7 033c bd86 32bd f07b 72ba
00000380: ef22 bf3c 2620 c93b bbba 45bc 59b4 ea3a
00000390: 348c 073b b7ae 013d 4240 06bd e9ca d9bb
000003a0: 0df0 bd3b 70ac 203d 0369 b53c 2089 4dbb
000003b0: 4fc1 f3bc 18f0 40bc 2c88 06bd cbfc 0e3d
000003c0: 4d84 5dbc 5cb3 57bc 3108 be3c 7c23 25bd
000003d0: 120e 2abd 4653 eabc d917 46bd dd12 d3bb
000003e0: 717f 0fbd 90f6 ccbc 02ed 863c 264a 213d
000003f0: 8a77 faba c224 e8bc 511f 133c fbc9 98bb
