140-谭佳奇/第三周作业/by_RNN/model.pth (torch, 83962 bytes, 5 tensors)

embedding.weight f4 [12, 20]
0	0xbf1d9413	-0.6155407
1	0xbe493cf8	-0.19652164
2	0x3e8276d7	0.25481293
3	0x3fa63c53	1.298716
4	0x3e8e3403	0.27774057
5	0xbd946db1	-0.072474845
6	0x3ed9077b	0.4238852
7	0xbf0c3bd8	-0.54778814
8	0x3ef55207	0.47914144
9	0x3f3ca1b5	0.73684245
10	0xbf9759a5	-1.1824232
11	0xbf3e838f	-0.7441949
12	0x3fc6d7b4	1.5534577
13	0xbfe567ee	-1.7922342
14	0xbe005a94	-0.12534553
15	0xbfe21a49	-1.7664272
16	0xbfad9911	-1.3562337
17	0xbfae6fbd	-1.362785
18	0xbef774ac	-0.483312
19	0x3f49b0eb	0.7878558
20	0x3f8731cc	1.0562072
21	0x3f419174	0.7561257
22	0x3f8b4a2e	1.0882013
23	0x3d6bc7b0	0.057563484
24	0x3e804efe	0.25060266
25	0xbead4e0f	-0.33848616
26	0xc0214924	-2.5200891
27	0x3fd67e5d	1.6757313
28	0xbfc7520f	-1.5571917
29	0x3e8a3e54	0.27000678
30	0x3e167b17	0.14695393
31	0x3f28ae10	0.658906
32	0xbfa1f877	-1.265395
33	0xbf82cda6	-1.0219009
34	0xbfbbf060	-1.4682732
35	0x3fc4caa1	1.5374337
36	0xbf23c64c	-0.6397445
37	0x3ff45082	1.9087069
38	0x3d69f4b4	0.057118133
39	0xc0184a82	-2.3795476
40	0x3f11223a	0.5669285
41	0xbf938713	-1.1525596
42	0xbd991af1	-0.07475842
43	0x3fa27fc5	1.2695242
44	0xbf902226	-1.1260421
45	0x3fa224e3	1.2667507
46	0x3ec7477c	0.38921726
47	0xbf9a52a2	-1.2056468
48	0x3f233663	0.6375486
49	0xbf6da6a4	-0.928324
50	0x3f6d37ff	0.9266357
51	0xbfa127c5	-1.2590262
52	0x3e8ff1ab	0.28114066
53	0xbf07482a	-0.5284449
54	0xbfbb6776	-1.4640949
55	0x3f988719	1.1916229
56	0xbfa505c9	-1.289239
57	0xbf3730db	-0.7155892
58	0xc02d44aa	-2.707316
59	0x3f07166f	0.52768606
60	0xbf696ed2	-0.91184723
61	0x3f8f6bc9	1.1204768
62	0x3fa5e12a	1.295934
63	0xbfec7341	-1.8472673
64	0xbf20b9c2	-0.62783444
65	0xbe8711af	-0.2638068
66	0x3f0bfe14	0.5468457
67	0xbef8bbe3	-0.48580846
68	0xbef11e3a	-0.47093374
69	0x3ed545fc	0.41654956
70	0x3ea7f160	0.32801342
71	0xbfbe100d	-1.4848648
72	0x3f6313af	0.8870191
73	0x3e85f828	0.2616589
74	0x3e5a0446	0.21290693
75	0xbf20663d	-0.62656003
76	0xbe9bc9a9	-0.30427292
77	0x3da22486	0.079171225
78	0xbf748e2a	-0.95529425
79	0x3e830140	0.2558689
80	0xbf29e68d	-0.6636742
81	0xbec0c8ef	-0.376533
82	0xbd494451	-0.049137417
83	0xbd79cd59	-0.06098685
84	0x4049ce8e	3.153232
85	0xbe696359	-0.22791804
86	0x3f888542	1.0665667
87	0x3f0f4de6	0.5597824
88	0x3f6c0e49	0.922093
89	0x40071aa5	2.1110013
90	0xbf630058	-0.886724
91	0xbf1cccfe	-0.61250293
92	0xbeaca199	-0.3371704
93	0xbfa97625	-1.323918
94	0xbfbb6c82	-1.4642489
95	0xc026e7e3	-2.6079032
96	0xbe186b39	-0.14884652
97	0xbf2ef298	-0.6833892
98	0xbf636978	-0.8883281
99	0xbf6a593a	-0.915424
100	0xbd3853d0	-0.045001805
101	0xbf4fbde0	-0.811491
102	0x3f8a0179	1.07817
103	0x3f55022c	0.8320644
104	0xbd5217c3	-0.051292192
105	0x3fe23d2c	1.7674918
106	0xbdb275e4	-0.08713892
107	0x3d91d5c6	0.07120852
108	0xbc7c78ac	-0.01540963
109	0xbd54f5a5	-0.051992077
110	0x3fc275c6	1.5192192
111	0x3f3992ab	0.7248942
112	0x3f05736f	0.5212926
113	0xbfbddaef	-1.4832438
114	0x3fb90ec7	1.4457635
115	0xbf9acc92	-1.209368
116	0xbf727ba7	-0.9471993
117	0xbfaad87f	-1.3347319
118	0x3e9c568e	0.30534786
119	0xbf9dec7d	-1.2337795
120	0x3cacacaa	0.021078426
121	0xbf0888c4	-0.5333369
122	0x3fa485fb	1.2853388
123	0xbed2268d	-0.41045037
124	0x3e1ffb25	0.15623148
125	0x3dcdaa6d	0.10042272
126	0xbf8e113a	-1.1099007
127	0xbe5be4f2	-0.21474054
128	0x3f80b5c2	1.0055468
129	0xbf0c98ac	-0.5492046
130	0xbe897dda	-0.2685383
131	0x3faba264	1.3408933
132	0x3f4f3edf	0.8095531
133	0x3fbb7511	1.4645101
134	0xbfa2ace7	-1.2709016
135	0x3ed00b28	0.40633512
136	0x3fa11147	1.2583398
137	0x3c90f649	0.017695563
138	0xbf1b7fac	-0.60741687
139	0x3f1d13c7	0.613583
140	0x3fc007c0	1.5002365
141	0xbf3fb99f	-0.7489261
142	0xbdc60b6e	-0.09670149
143	0x3e5a42cb	0.21314542
144	0x3e12d36d	0.14338465
145	0xbd193d8d	-0.037412215
146	0xbf093fab	-0.53612775
147	0xbf8196b2	-1.0124114
148	0xbf823ddf	-1.0175132
149	0x3e464696	0.19362864
150	0xbf9389de	-1.1526449
151	0x3c126057	0.008934102
152	0x3fa11c0b	1.2586683
153	0x3f7611ed	0.961211
154	0xbe89536d	-0.2682146
155	0xbe264715	-0.16238053
156	0xbf1d1e39	-0.6137424
157	0xbe9cdff1	-0.30639604
158	0x3eff73d9	0.49893072
159	0x3f509622	0.81479084
160	0x3e3f8879	0.18704404
161	0xbec33dc5	-0.38133064
162	0xbed87a46	-0.42280787
163	0x3fc4a76d	1.5363594
164	0x3fc317d7	1.524165
165	0xbea071f1	-0.3133693
166	0x3ecb5229	0.3971112
167	0xbf20df89	-0.6284109
168	0x3e0caf17	0.13738666
169	0x3d365a32	0.04451961
170	0x3f31a5d7	0.69393677
171	0xc003586c	-2.0522718
172	0x3ef39a3c	0.4757861
173	0x3fa757b4	1.307364
174	0xbf24c337	-0.64360374
175	0x3fa04565	1.2521178
176	0xbf684809	-0.90734917
177	0xbe8bae85	-0.27281585
178	0xc0047d4a	-2.070147
179	0xbe54291d	-0.20718808
180	0xbf080e10	-0.5314646
181	0xbe8c2bba	-0.2737711
182	0x3f34e1d9	0.70657116
183	0xbeaf9750	-0.3429513
184	0x3f2943ee	0.6611928
185	0x3fa0784a	1.2536709
186	0xbd8a757d	-0.0676069
187	0x3f5675c3	0.8377344
188	0x401d3c46	2.4568038
189	0x3f970da7	1.1801041
190	0xbeba141d	-0.3634347
191	0x3f6313bd	0.88701993
192	0xbfe919d6	-1.821101
193	0xbf3dbca8	-0.7411599
194	0xbf1138e5	-0.5672744
195	0xbf04a10d	-0.51808244
196	0x3e590487	0.21193133
197	0xbcb96ced	-0.022634948
198	0x3f92b23b	1.1460642
199	0x3f6dba1f	0.92862123
200	0x3f9be1fb	1.2178339
201	0x3fa270f4	1.269072
202	0x3f0520ca	0.5200316
203	0x3f1a3c32	0.602481
204	0x3fa00248	1.2500696
205	0xbeee9a14	-0.46601927
206	0xbdae88e8	-0.085222065
207	0xbe1a5c55	-0.15074284
208	0x3f1c4d05	0.6105502
209	0xbe6ccc77	-0.23124872
210	0x3f1ca79d	0.6119326
211	0xbeac219f	-0.336194
212	0xbe8de262	-0.2771178
213	0xbdfeb3e4	-0.12436655
214	0x3eb6803a	0.35644704
215	0x4003ac49	2.0573905
216	0x40291730	2.6420403
217	0x3f03c779	0.51476246
218	0x3e8a6ba5	0.2703525
219	0xbec1f2a3	-0.3788043
220	0xbe887eda	-0.2665928
221	0xbf613c86	-0.87982976
222	0xbe97096e	-0.29499382
223	0xc0209279	-2.50894
224	0x3d131066	0.03590431
225	0xbda1277a	-0.07868858
226	0x3f159f84	0.58446527
227	0x3cd87201	0.026421549
228	0x3f7f9e46	0.9985088
229	0x3ef7a69b	0.48369297
230	0xbef1c45a	-0.47220117
231	0xbf776708	-0.9664159
232	0xbe80d2f2	-0.25160939
233	0x3eaf5543	0.34244737
234	0xbf4fae80	-0.8112564
235	0x3f33d07f	0.70240015
236	0x3deeefaf	0.1166681
237	0x3e2ef281	0.17084695
238	0xbfa248c5	-1.2678457
239	0xbfd59517	-1.6686124

layer.weight_ih_l0 f4 [128, 20]
0	0x3db68350	0.089117646
1	0xbdda47f2	-0.10658254
2	0x3e3988d1	0.18118598
3	0x3d2c0bfc	0.042003617
4	0x3d0b3308	0.033984214
5	0xbb54d32b	-0.0032474499
6	0xbce7247f	-0.028215645
7	0xbd02bcd1	-0.03191835
8	0x3dd8e8ea	0.105913
9	0x3da63216	0.08115022
10	0xbc605445	-0.013691966
11	0x3d0092a3	0.031389844
12	0x3d102060	0.035187125
13	0x3b5883d5	0.0033037562
14	0xbd91e1c0	-0.071231365
15	0x3d1ec140	0.038758516
16	0x3daaa791	0.08332742
17	0xbe09a723	-0.13442664
18	0xbdb3b6d0	-0.08775103
19	0x3d2b784f	0.041862782
20	0xbcae5ce0	-0.02128452
21	0x3d2aa3f3	0.04166026
22	0xbcaeac7c	-0.021322481
23	0x3da14cc0	0.07875967
24	0xbcc600eb	-0.02417036
25	0xbd1fc1e6	-0.039003275
26	0x3b5fb111	0.003413264
27	0x3d055b91	0.032558028
28	0x3bc3278c	0.005955642
29	0xbdbd2923	-0.09236362
30	0xbc20c623	-0.0098128645
31	0x3d71bd28	0.059018284
32	0xbd97e8b1	-0.07417429
33	0x3c637064	0.0138817765
34	0x3db15083	0.086579345
35	0xbda34c63	-0.07973554
36	0xbc728691	-0.014802591
37	0xbdcf7530	-0.101297736
38	0xbd857f61	-0.06518436
39	0x3dccc3f9	0.09998316
40	0x3c2f1f4a	0.010688612
41	0xbde6e0f3	-0.112733744
42	0x3c25a105	0.010109191
43	0x3c82ecf3	0.015982127
44	0x3d8ffcf8	0.07030672
45	0x3dd60947	0.10450988
46	0x3e1454a0	0.14485407
47	0xbceee9e1	-0.029164257
48	0x3e03c0e3	0.12866549
49	0xbd0e9f84	-0.034820095
50	0x3d3efb04	0.046626106
51	0x3ca2606d	0.01982137
52	0x3da5461e	0.080700144
53	0x3dceca3d	0.10097168
54	0x3dd51929	0.104051895
55	0xbd4444be	-0.04791712
56	0x3cf6b741	0.03011668
57	0xbd793379	-0.060840104
58	0xbd2994ea	-0.04140178
59	0x3d5f9598	0.054586023
60	0x3d55c424	0.052189007
61	0x3bbb6c64	0.0057197083
62	0xbcd2a337	-0.025712593
63	0x3d11957f	0.03554296
64	0x3de57b65	0.11205176
65	0x3cf15b58	0.029462501
66	0xbc71602a	-0.0147324
67	0xbdbca038	-0.09210247
68	0x3e05a718	0.13052022
69	0xbcfb5b9f	-0.030683337
70	0xbd9c1025	-0.07620267
71	0xbdcd1e03	-0.1001549
72	0x3c4ebe1c	0.012618568
73	0x3d24d57c	0.040242657
74	0xbd131162	-0.03590525
75	0xbd77f313	-0.060534548
76	0x3c22c380	0.009934306
77	0xbd3c6a79	-0.045999978
78	0xbd0439e5	-0.032281775
79	0x3d8d313c	0.06894156
80	0xbc9a4bd3	-0.018834984
81	0x3d6de8b2	0.058083244
82	0x3da22af8	0.07918352
83	0x3d118d34	0.035535052
84	0xbd99df99	-0.07513351
85	0xbd3a3c26	-0.04546752
86	0xbd8a2011	-0.067443974
87	0x3d1c0bb7	0.03809711
88	0xbddc39c9	-0.10753209
89	0xbd8c43c8	-0.06848866
90	0x3cf5b632	0.029994104
91	0x3db668a5	0.08906678
92	0xbc737c52	-0.014861183
93	0xbdf5a5a6	-0.119944856
94	0xbde51ddc	-0.11187336
95	0x3cda76bd	0.026667947
96	0x3c9f0a53	0.019414103
97	0xbc160554	-0.009156544
98	0x3c248832	0.010042237
99	0x3b001bd5	0.001954784
100	0xbe1b5349	-0.1516849
101	0xbc44c2be	-0.012009321
102	0xbe32035f	-0.17384098
103	0xbc1f136b	-0.009709219
104	0xbdfd7430	-0.12375677
105	0xbc914247	-0.017731799
106	0xbce7cc52	-0.02829567
107	0x3ce3592c	0.027752481
108	0xbdd18772	-0.10230912
109	0xbc9077d7	-0.01763527
110	0xbd4874ad	-0.048939396
111	0xbd14d331	-0.03633422
112	0x3d3a2a3b	0.04545043
113	0x3d57aa01	0.052652363
114	0xba974bb4	-0.0011542947
115	0x3ba33bb1	0.004981481
116	0xbc9d4a31	-0.019200416
117	0xbd9b2c18	-0.075767696
118	0x3d1e9e12	0.038724966
119	0x3d6fc4ff	0.05853748
120	0x3d7e68d7	0.0621117
121	0x3c4f72ce	0.012661649
122	0x3d37d438	0.044880122
123	0xbc45e526	-0.012078559
124	0xbcafbe5e	-0.021453079
125	0x3b65ea49	0.0035082272
126	0x3e46f579	0.19429578
127	0xbe0ff691	-0.14058901
128	0x3e0b03ad	0.13575621
129	0xbba1a84e	-0.0049333936
130	0x3bd9c07e	0.0066452613
131	0xbd81875a	-0.063246444
132	0x3d478047	0.04870632
133	0x3dc2516a	0.09488185
134	0x3d906529	0.07050545
135	0xbc9a9cba	-0.018873561
136	0x3d7d74ff	0.061879154
137	0xbe2431f2	-0.16034678
138	0x3cf47891	0.029842647
139	0x3d818eee	0.0632609
140	0x3da693c1	0.081336506
141	0xbe10f07b	-0.14154236
142	0x3dc01336	0.09378664
143	0xbd7566d1	-0.059912506
144	0x3da532ef	0.080663554
145	0x3e154086	0.14575395
146	0x3e0539ee	0.1301038
147	0xbd94a695	-0.072583355
148	0x3ddaa467	0.106758885
149	0x3d671cca	0.05642394
150	0xbc2c5bee	-0.010519965
151	0xbd9bc986	-0.07606797
152	0x3e017496	0.1264213
153	0xb9475bc4	-0.00019012304
154	0x3c258bbb	0.010104115
155	0xbd0a392b	-0.033745926
156	0x3dbbe9b6	0.09175436
157	0xbdc4fb92	-0.09618296
158	0xbd9149b8	-0.07094139
159	0x3d883634	0.066509634
160	0x3dd53e24	0.10412243
161	0x3cf9da18	0.030499503
162	0x3e265753	0.16244249
163	0xbc10da3b	-0.008841093
164	0xbbcb1918	-0.00619806
165	0xbd9b2f7e	-0.07577418
166	0xbe563290	-0.20917726
167	0x3d823345	0.06357435
168	0x3ba6d4eb	0.0050913
169	0x3d99234a	0.07477434
170	0xbd914091	-0.07092393
171	0xbda9ee7d	-0.08297441
172	0x3d777ced	0.060421873
173	0xbe1443c6	-0.14478979
174	0xbd991566	-0.074747846
175	0x3d090451	0.033451382
176	0xbdfe8e74	-0.124295145
177	0x3df71b36	0.12065737
178	0xbd2581be	-0.040406935
179	0xbdabeb4a	-0.08394487
180	0x3cc95f38	0.024581537
181	0xbe2a4ee1	-0.16631652
182	0xbd33d01b	-0.043899637
183	0xbd9aad86	-0.07552628
184	0x3e1ec2b6	0.15503964
185	0x3b3cdfe0	0.0028819963
186	0x3e3ed5b3	0.18636207
187	0xbd3ac968	-0.045602232
188	0x3e104add	0.14091058
189	0x3d8a0f62	0.06741215
190	0x3d4a9bc8	0.04946497
191	0xbd86586c	-0.06559834
192	0x3d6c5c6d	0.05770533
193	0x3df4ca33	0.11952629
194	0x3db81ef8	0.08990282
195	0xbb903b69	-0.0044016135
196	0x3cdeb79d	0.027187163
197	0xbdfe56ae	-0.124188766
198	0xbdf0d322	-0.117590204
199	0x3d2b9874	0.041893438
200	0xbde75590	-0.112956166
201	0x3cd70530	0.02624759
202	0xbdea5d30	-0.11443555
203	0x3d6d171f	0.057883378
204	0x3d842ab5	0.06453458
205	0x3d2a51fd	0.041582096
206	0x3d9b3170	0.07577789
207	0xbd356722	-0.04428781
208	0x3d943fd6	0.07238738
209	0xbdb42a6c	-0.08797154
210	0x3a5ef480	0.0008505061
211	0xbd78520a	-0.060625114
212	0x3d7ec89b	0.06220303
213	0xba2a870b	-0.00065051083
214	0x3dc36fc1	0.095428
215	0xbcf19fa6	-0.029495072
216	0xbcb539e7	-0.022122337
217	0x3befe6b7	0.0073212045
218	0xbc93ec32	-0.018056963
219	0x3d8993c9	0.06717641
220	0x3d1b96ca	0.0379856
221	0x3dce5fb9	0.100768514
222	0x3deeead5	0.116658844
223	0x3d03075d	0.031989444
224	0xbd815341	-0.063147075
225	0x3d08eda3	0.033429753
226	0xbe603339	-0.2189454
227	0x3e48a5a6	0.1959444
228	0xbdcd5010	-0.10025036
229	0xbc92e4fb	-0.017931452
230	0xbdb8a374	-0.09015551
231	0x3c8c0619	0.017092751
232	0xbd986d08	-0.07442671
233	0xbd525cb8	-0.051357955
234	0xbd6614bb	-0.056172114
235	0x3d975749	0.07389695
236	0xbddd7ccf	-0.10814821
237	0x3e049f35	0.12951358
238	0xbe06aa24	-0.13150841
239	0xbe148d00	-0.14506912
240	0xbd15d759	-0.036582325
241	0x3d3a4d1d	0.045483697
242	0xbc6a2c6a	-0.014292816
243	0xbd39ec1a	-0.04539118
244	0x3c7b21d3	0.015327889
245	0x3d778747	0.060431745
246	0x3db6cd9d	0.08925936
247	0xbdf1d48b	-0.118081175
248	0x3cbe7e3c	0.023253553
249	0x3d7227ed	0.059120107
250	0xbd169cac	-0.036770508
251	0xbd928f16	-0.07156198
252	0xbd1a3451	-0.03764755
253	0x3d01530d	0.031573344
254	0x3d150c98	0.036388963
255	0x3c05729b	0.008145

layer.weight_hh_l0 f4 [128, 128]
0	0xbcee3812	-0.02907947
1	0xbd0ef93e	-0.034905665
2	0xbdd493ec	-0.10379776
3	0x3e40a69b	0.18813555
4	0x3d8c0088	0.06836039
5	0xbd24f91b	-0.040276628
6	0xbd348d7d	-0.044080246
7	0xbd237304	-0.03990461
8	0x3bc9196a	0.006137063
9	0xbd4c024a	-0.04980687
10	0xbe03afaa	-0.1285998
11	0x3d90776b	0.07054027
12	0xbd7e4901	-0.06208134
13	0xbdc8f292	-0.098118916
14	0xbd60835f	-0.054812785
15	0x3e0123d2	0.1261132
16	0x3d5b0321	0.05346978
17	0x3d4ade0f	0.049528178
18	0xbd22899b	-0.039682012
19	0xbb53cfb9	-0.0032319857
20	0xbe2e773a	-0.17037669
21	0xbcc6a6ae	-0.024249401
22	0x3e04149a	0.12898484
23	0xbd3662a8	-0.04452768
24	0xbb834dc3	-0.0040070727
25	0xbd5817dc	-0.05275713
26	0xbdbd028b	-0.09229001
27	0xbda7f888	-0.082017004
28	0x3dcb700e	0.09933482
29	0x3d827b1f	0.0637114
30	0xbdb11c3c	-0.086479634
31	0x3cfe05b9	0.031008588
32	0xbba5ae9c	-0.0050562155
33	0xbe3031d0	-0.17206502
34	0xbd4a9599	-0.049459074
35	0x3ca4641d	0.020067269
36	0x3c438a39	0.01193481
37	0xbd9727f3	-0.073806666
38	0x3dfa7b1a	0.12230511
39	0x3db805a9	0.089854546
40	0xbc1bdca5	-0.009513055
41	0xbc91caa3	-0.01779682
42	0xbcaabd75	-0.020842293
43	0x3d912ee6	0.07089023
44	0xbd956a3a	-0.07295652
45	0xbd3e9e42	-0.046537645
46	0x3dde3824	0.10850552
47	0x3dece30a	0.11566742
48	0xbcc3ce1f	-0.023901997
49	0xbd434cb8	-0.047680587
50	0xbe17ab13	-0.14811353
51	0xbda9bfca	-0.08288534
52	0x3dc62231	0.0967449
53	0x3e085028	0.13311827
54	0xbc9da767	-0.019244863
55	0x3e1a9efb	0.15099709
56	0x3df465f2	0.11933507
57	0xbcbf89dc	-0.023381166
58	0x3cfb4a24	0.030675001
59	0xbd709056	-0.0587314
60	0xbd9b3021	-0.07577539
61	0x3d4767a0	0.04868281
62	0xbca7dabe	-0.020490047
63	0xbe056288	-0.13025868
64	0x3d33ba28	0.043878704
65	0xbe2d4648	-0.16921341
66	0x3d34b86c	0.04412119
67	0xbdfe2681	-0.12409688
68	0xbd64306b	-0.055710237
69	0x3dba9a52	0.091114655
70	0x3c1e9737	0.009679607
71	0xbda3c33a	-0.07996221
72	0xbd46143d	-0.048359144
73	0x3e1ff86c	0.15622109
74	0x3dc4f34d	0.096167184
75	0x3d6b3de5	0.057432074
76	0xbcd1b1e4	-0.02559752
77	0x3df2a273	0.11847391
78	0xbda23955	-0.079210915
79	0xbd9641d5	-0.07336775
80	0x3df7a55e	0.12092088
81	0xbe44da91	-0.19224001
82	0x3a4fa754	0.0007921357
83	0xbd13816d	-0.036012102
84	0x3ca15532	0.019693945
85	0xbd2af6c3	-0.041739237
86	0xbd84837e	-0.06470393
87	0xbc9970db	-0.018730571
88	0x3bee914e	0.0072805053
89	0x3b8b5123	0.0042516156
90	0x3cb6e9e7	0.02232833
91	0x3cf1a635	0.029498199
92	0xbd36c2c7	-0.044619348
93	0xbe3c3451	-0.18379332
94	0xbb512eab	-0.0031918685
95	0x3d58794b	0.05285005
96	0x3bfffa14	0.007811794
97	0xbd03ac38	-0.032146662
98	0x3d9a390e	0.075304136
99	0x3d39d781	0.045371536
100	0xbd9265ff	-0.071483605
101	0xbdb5363e	-0.088482365
102	0x3c638de8	0.013888814
103	0xbe5b783a	-0.21432582
104	0xbc324b2c	-0.01088218
105	0x3daa8dee	0.08327852
106	0xbd8e9f29	-0.06963951
107	0xbd3a777c	-0.045524105
108	0xbe46f263	-0.194284
109	0xbde08718	-0.10963267
110	0x3d6e2bfb	0.05814741
111	0x3b409528	0.002938578
112	0xbcb1b016	-0.02169041
113	0xbd2f2d95	-0.04276808
114	0xbba5a9e0	-0.005055651
115	0xbc250328	-0.010071553
116	0xbd2e4aa5	-0.042551655
117	0x3e3765dd	0.17909952
118	0xbd8b008d	-0.067872144
119	0x3b4e519a	0.0031481744
120	0xbdf57a59	-0.119862266
121	0x3d7f990f	0.062401827
122	0xbd04f20f	-0.032457408
123	0x3c064c45	0.008196895
124	0x3dbb0d4a	0.09133394
125	0xbdd38421	-0.10327936
126	0xbd9fe60b	-0.07807549
127	0xbc7cfa32	-0.015440511
128	0xbcacd3de	-0.02109712
129	0x3b7340b9	0.0037117435
130	0xbdbfe393	-0.09369578
131	0x3e284903	0.16434102
132	0x3b989c6b	0.0046573183
133	0x3d7c5cd4	0.061611965
134	0xbe337dd5	-0.1752847
135	0xbd1d5f7c	-0.03842114
136	0xbdd77cbe	-0.105218396
137	0xbdeab33e	-0.11459969
138	0x3cc2fdc4	0.023802646
139	0xbd04acc3	-0.03239132
140	0x3d929609	0.07157523
141	0xbe003629	-0.1252066
142	0x3d7ce143	0.061738264
143	0x3dc1dfc1	0.09466506
144	0x3e44de39	0.19225396
145	0x3cdace18	0.026709601
146	0xbe28c7b8	-0.16482437
147	0xbda03548	-0.078226626
148	0x3c03b08f	0.0080377
149	0x3c7bad00	0.015361071
150	0x3e3d807f	0.18506049
151	0xbdadade0	-0.0848043
152	0x3d1b656b	0.037938517
153	0xbc8d07a6	-0.017215561
154	0xbdbf5703	-0.09342768
155	0xbc143ff0	-0.009048447
156	0x3dcb0003	0.099121116
157	0xbda4a689	-0.080395766
158	0xbdd16f13	-0.10226264
159	0x3c8385de	0.016055044
160	0xbe169fe0	-0.14709425
161	0xbd282f9b	-0.041061025
162	0x3d1d9799	0.038474653
163	0xbc0bc400	-0.008530617
164	0xbded7db4	-0.115962416
165	0xbb26f6e0	-0.0025476739
166	0xbddaeef0	-0.10690105
167	0x3da1dd00	0.079034805
168	0x3d4ea634	0.050451472
169	0x3d1a7c2b	0.037716072
170	0x3d9bdede	0.07610868
171	0x3dc60130	0.09668195
172	0xbe23380a	-0.15939346
173	0xbe2bcc4e	-0.16777155
174	0xbe24d957	-0.16098534
175	0x3d590e61	0.05299223
176	0x3e1f7ade	0.15574214
177	0x3caf150f	0.021372346
178	0xbdf3abb7	-0.118979864
179	0xbd972bcc	-0.073814005
180	0x3d9948ad	0.07484565
181	0xbd20456a	-0.0391287
182	0x3d21f562	0.039540656
183	0x3daa9f0f	0.08331119
184	0xbd1ec3b1	-0.038760845
185	0x3d875809	0.06608588
186	0x3da21959	0.07914991
187	0xbad9d105	-0.0016618079
188	0xbdf519b5	-0.11967794
189	0x3e186d8c	0.14885539
190	0xbe25b28f	-0.16181396
191	0x3c2bd03f	0.010486661
192	0x3c8249b5	0.015904287
193	0xbdff78f8	-0.12474245
194	0x3dc4bdc4	0.096065074
195	0xbe41b755	-0.18917592
196	0xbd51e6ab	-0.051245373
197	0x3ba41833	0.0050077676
198	0xbda8c801	-0.08241273
199	0x3c8bf90a	0.017086525
200	0xbdba302b	-0.090912186
201	0x3d99f5f9	0.07517619
202	0xbdd3fe4a	-0.10351236
203	0x3d3ce2ff	0.046114918
204	0xbc62b2f9	-0.013836616
205	0xbdccf390	-0.10007393
206	0x3d3d79a3	0.04625858
207	0xbd1bf0ad	-0.038071323
208	0x3c800ced	0.015631163
209	0xbe26acc7	-0.16276847
210	0x3d681590	0.05666119
211	0xbc960700	-0.018313885
212	0x3e05926f	0.13044141
213	0xbc20346f	-0.009778126
214	0xbdd2ec80	-0.10299015
215	0xbd9c00c7	-0.07617336
216	0xbb75a4b0	-0.0037482195
217	0xbdc1691a	-0.09443875
218	0xbd5b52d4	-0.053545788
219	0xbc1f9083	-0.009739044
220	0xbdadeb36	-0.084921286
221	0xbe0b9782	-0.13632014
222	0x3de796fe	0.11308096
223	0x3d87ca73	0.06630411
224	0xbe349664	-0.17635494
225	0x3cc7440f	0.024324445
226	0x3d4cbdf0	0.049985826
227	0x3e1a32d1	0.15058447
228	0x3bf721e3	0.0075418814
229	0xbe032dfd	-0.12810512
230	0xbce11b09	-0.027478712
231	0xbdafcc8b	-0.08583935
232	0x3e00e732	0.12588194
233	0x3e0483a1	0.12940837
234	0xbd9629ca	-0.073321894
235	0xbde3fed8	-0.11132592
236	0xbd95fb22	-0.073232904
237	0x39b906ef	0.00035291116
238	0x3e45f14a	0.19330326
239	0x3a1ce01b	0.0005984322
240	0x3d6168b9	0.055031512
241	0x3d7ac698	0.06122455
242	0xbd86db42	-0.06584789
243	0xbcb06b5d	-0.02153557
244	0xbde3ac34	-0.111168295
245	0x3e40012a	0.18750444
246	0x3c87ebed	0.01659199
247	0xbcc787e1	-0.024356784
248	0xbe08b56f	-0.13350461
249	0x3cdad4b0	0.026712745
250	0x3da7540a	0.08170326
251	0xbe1511e3	-0.14557604
252	0x3d225835	0.039634902
253	0x3b7adac8	0.0038277376
254	0xbdfbf0b6	-0.12301771
255	0xbcaa3c6b	-0.020780763

linear.weight f4 [10, 128]
0	0xbede3fcf	-0.43408057
1	0xbee3b85c	-0.44476593
2	0x3eb308d5	0.34967676
3	0xbe8a9fb7	-0.27074978
4	0xbeba261c	-0.363572
5	0xbe09b6d1	-0.13448645
6	0xbe41f9c1	-0.1894293
7	0xbe9be3d8	-0.30447268
8	0x3e63301e	0.22186324
9	0x3dceddf8	0.10100931
10	0x3e456c95	0.19279702
11	0x3e23d32e	0.15998527
12	0xbef3c6e6	-0.47612685
13	0xbeaebd71	-0.34128907
14	0xbea11a49	-0.31465366
15	0xbd9303b2	-0.07178439
16	0xbea86971	-0.32892945
17	0xbe4593b0	-0.1929462
18	0xbdeb959a	-0.115031436
19	0xbe98326b	-0.29725966
20	0x3e355bba	0.17710772
21	0xbea2bcfa	-0.31784803
22	0xbee38d62	-0.44443804
23	0x3e6739c7	0.22580634
24	0xbdbc7d40	-0.09203577
25	0xbe7382b8	-0.23780334
26	0xbe7a0797	-0.24416958
27	0x3e3fb078	0.18719661
28	0xbe8ea68d	-0.27861443
29	0xbec01420	-0.37515354
30	0x3e4058a5	0.18783815
31	0xbea8b591	-0.32951024
32	0xbeb31a4c	-0.34981
33	0xbe484258	-0.19556558
34	0xbeabb7be	-0.33538622
35	0xbca69ec4	-0.020339377
36	0xbe6b3cd0	-0.22972417
37	0xbe193dad	-0.14964934
38	0x3d8e9115	0.06961266
39	0xbe70a085	-0.23498733
40	0x3e66c7d8	0.22537172
41	0xbe3d0d80	-0.18462181
42	0xbd96f4e5	-0.07370929
43	0xbe4664d6	-0.19374403
44	0x3e37a3c7	0.1793357
45	0x3defb532	0.11704482
46	0x3e374842	0.17898658
47	0xbe2c600a	-0.16833511
48	0xbe9306b0	-0.2871604
49	0xbbfb7f0c	-0.0076750573
50	0xbe59db69	-0.21275105
51	0xbe939661	-0.28825668
52	0xbe3d204e	-0.18469355
53	0xbed48662	-0.41508776
54	0x3e476d4b	0.19475286
55	0xbe606681	-0.21914102
56	0xbe7f2c87	-0.2491933
57	0xbe9b7176	-0.3036
58	0xbe1cb41b	-0.1530308
59	0xbec8c4b8	-0.39212584
60	0x3e251634	0.16121751
61	0x3e401253	0.1875699
62	0x3efe11f9	0.49623087
63	0x3e1959cb	0.1497566
64	0x3e55b5e8	0.20870173
65	0xbe9b5a2f	-0.30342242
66	0xbe643151	-0.22284438
67	0x3df4ee90	0.11959565
68	0xbee405cf	-0.44535682
69	0x3e49076a	0.19631734
70	0x3dac6490	0.08417618
71	0xbe8dcc7c	-0.27695072
72	0x3e7985f0	0.243675
73	0xbe673c04	-0.22581488
74	0x3e60703e	0.21917817
75	0xbe896ad5	-0.2683932
76	0xbdeee583	-0.1166487
77	0x3e1ca110	0.15295815
78	0x3e44fb2f	0.19236444
79	0x3e506347	0.20350371
80	0x3e59bcf8	0.21263492
81	0x3e8f6f48	0.28014588
82	0xbe9bedd7	-0.30454895
83	0xbeb85cf8	-0.3600843
84	0x3e329546	0.17439756
85	0xbea77bdf	-0.32711694
86	0xbe63d1c0	-0.22247982
87	0xbea1b325	-0.3158199
88	0xbe78b962	-0.24289468
89	0xbed636de	-0.41838735
90	0xbe8fdaa0	-0.28096485
91	0xbe14ee6c	-0.14544076
92	0xbdcab6c3	-0.0989814
93	0x3e4ba325	0.19886453
94	0xbec23e28	-0.37938046
95	0x3e2cdaea	0.16880384
96	0xbdf61d90	-0.12017357
97	0xbe697a1b	-0.22800486
98	0xbe59e412	-0.21278408
99	0xbe934c5c	-0.28769195
100	0x3e68f2e7	0.2274891
101	0xbe926e55	-0.28599802
102	0xbdd866ac	-0.10566458
103	0x3e6bd9d7	0.23032318
104	0xbee67e2d	-0.4501814
105	0xbeabff93	-0.33593425
106	0x3dee94f2	0.11649503
107	0x3e313446	0.17305097
108	0x3de94a62	0.113911405
109	0xbee3fbe2	-0.4452811
110	0xbb93e38b	-0.004513209
111	0xbc16bd6f	-0.009200438
112	0xbec14fe6	-0.3775627
113	0xbf16c6dc	-0.58897185
114	0xbc9d7306	-0.019219887
115	0xbe750d71	-0.23930909
116	0xbe831a75	-0.25606123
117	0xbed52fa1	-0.416379
118	0xbe18c0a9	-0.14917244
119	0xbe318c48	-0.1733867
120	0xbd1fafc0	-0.038985968
121	0xbe58eb28	-0.21183455
122	0xbeaa478a	-0.33257705
123	0x3e4d0fe1	0.20025589
124	0xbe74018b	-0.23828714
125	0xbe0bfffe	-0.13671872
126	0x3e5d1446	0.21589765
127	0xbe8b69cb	-0.2722915
128	0x3e29d4fd	0.16585155
129	0x3e5c616c	0.21521538
130	0xbe7b6029	-0.24548401
131	0xbe379396	-0.17927393
132	0xbe654832	-0.22390822
133	0xbe3154fd	-0.17317577
134	0x3e8bc7ef	0.27300975
135	0xbe7ce5cb	-0.24697034
136	0xbe7ea093	-0.24865942
137	0x3d71e9f7	0.059061017
138	0x3e3ae68c	0.18252009
139	0xbeb8d1fa	-0.360977
140	0xbe6ebe58	-0.23314798
141	0xbe3e5d63	-0.18590312
142	0x3e65fd46	0.22459897
143	0x3e4deed1	0.20110632
144	0xbeba722f	-0.3641524
145	0xbe5fefec	-0.21868867
146	0xbe59b24d	-0.21259423
147	0xbdb97958	-0.090563476
148	0x3d5029c7	0.050821092
149	0xbe295571	-0.165365
150	0xbe9d26a5	-0.30693546
151	0xbe9e221f	-0.30885407
152	0x3e16e878	0.14737117
153	0xbe36ccaa	-0.1785151
154	0xbe7a7adc	-0.2446093
155	0x3db68fb8	0.08914131
156	0xbea23245	-0.31678978
157	0xbea64391	-0.32473424
158	0x3d294c2e	0.041332416
159	0xbe814568	-0.25248265
160	0x3e0d18ae	0.13778946
161	0xbe1b54e1	-0.15169097
162	0xbe3493c0	-0.17634487
163	0x3e4d718f	0.2006285
164	0xbe3183ab	-0.17335384
165	0xbe8215d1	-0.2540727
166	0xbebcfa5d	-0.36909762
167	0xbe7c6cbc	-0.24650854
168	0x3e08d934	0.13364106
169	0xbe5b19e7	-0.213966
170	0xbe852e18	-0.2601173
171	0xbe4e4bbd	-0.2014608
172	0x3e11a570	0.14223266
173	0x3d6a1421	0.057148103
174	0xbc18f47a	-0.0093356315
175	0xbdf04675	-0.117321886
176	0xbe4d7959	-0.20065822
177	0x3e3be4ec	0.18349046
178	0xbd7cd367	-0.061725046
179	0x3e55a6ca	0.20864406
180	0xbe77028d	-0.24122067
181	0x3e2fa0ec	0.1715123
182	0x3e258b67	0.16166459
183	0xbde5ca97	-0.112202816
184	0xbe4b147f	-0.19832037
185	0x3e143793	0.14474325
186	0xbe3c719f	-0.18402718
187	0xbdea79df	-0.11449026
188	0x3ddaf069	0.10690386
189	0x3de83bd7	0.113395385
190	0xbeabacc0	-0.33530235
191	0x3e0b0aa1	0.13578273
192	0xbec198d9	-0.37811926
193	0xbeaa76f2	-0.33293873
194	0xbe97a097	-0.29614708
195	0xbe8d9241	-0.27650645
196	0x3e567b81	0.2094555
197	0xbe6ab2b6	-0.22919735
198	0x3e2639bc	0.16232961
199	0xbe8bdb41	-0.27315715
200	0x3d8e310f	0.06942951
201	0xbe60805e	-0.21923968
202	0x3e2553f7	0.16145311
203	0xbe0a1ce7	-0.13487588
204	0xbe00cff4	-0.12579328
205	0xbeb398d4	-0.35077536
206	0x3e11fb83	0.142561
207	0xbe7fde33	-0.24987106
208	0xbe7f103c	-0.24908537
209	0xbe55e491	-0.20887972
210	0xbe386265	-0.18006285
211	0xbe981b0e	-0.2970814
212	0x3d56b558	0.052419037
213	0xbe5026f1	-0.20327355
214	0xbe3436da	-0.17599049
215	0x3e876aa1	0.2644854
216	0xbe18c542	-0.14918998
217	0x3e4d13b6	0.2002705
218	0x3e101609	0.14070906
219	0xbe78c848	-0.24295151
220	0xbde7acf8	-0.11312288
221	0xbea615da	-0.32438546
222	0x3e205802	0.15658572
223	0xbea40004	-0.32031262
224	0x3e1824b5	0.14857753
225	0xbe90279d	-0.28155223
226	0xbe97f119	-0.2967613
227	0x3e3f952e	0.18709251
228	0xbea42be1	-0.32064727
229	0xbe885032	-0.26623684
230	0x3e012eb5	0.12615474
231	0x3d9bfc0b	0.07616433
232	0x3da5e842	0.0810094
233	0xbeb514b6	-0.35367364
234	0x3d8da217	0.06915682
235	0xbe917c85	-0.28415313
236	0x3e03bfd4	0.12866145
237	0xbea068ff	-0.31330106
238	0x3e1b3b4a	0.15159336
239	0xbe77c860	-0.24197531
240	0x3e845ef9	0.25853708
241	0x3ea1d2e1	0.316062
242	0x3e693f3f	0.22778033
243	0xbe5181d2	-0.20459679
244	0x3e889dac	0.26682794
245	0x3d8338c3	0.06407311
246	0xbe7dea4f	-0.24796413
247	0xbe4e543f	-0.20149325
248	0xbe3fcae6	-0.18729743
249	0xbe1dc38d	-0.15406628
250	0xbe417f5f	-0.18896244
251	0xbe8b31fc	-0.27186573
252	0xbe2b26c5	-0.16714008
253	0xbe3cafe2	-0.18426469
254	0xbe3ed72a	-0.18636766
255	0x3e6b441c	0.229752

linear.bias f4 [10]
0	0xbb62384a	-0.0034518414
1	0x3d9058a9	0.070481606
2	0x3da2d6aa	0.079511
3	0x3c992d9c	0.018698506
4	0x3e068841	0.13137914
5	0x3d8dc564	0.06922415
6	0x3c8680bd	0.01641881
7	0xbc7ce417	-0.01543524
8	0x3caad496	0.020853322
9	0xbe0ddf8c	-0.13854808
